Sleep_stage_classifier/Local_classifacation/ConvTran/output/20241125134130_010000/model.pth (torch, 257710 bytes, 28 tensors)

embed_layer.0.weight f4 [64, 1, 1, 8]
-1.5191897 -1.2503145 0.3482818 1.1404464 -1.053569 -0.5761227 0.5189558 1.405695
-0.731653 0.29681444 0.71576995 0.20819081 -1.5046905 1.6131356 1.5750076 -0.16212596
0.81821847 -0.22889443 -1.048538 -0.23798496 -0.92468745 -1.6266986 -0.75784594 -0.8009309
-0.12640639 0.17927805 0.17248394 -0.8818295 -0.41351563 -1.6048914 -2.015272 1.6386315
0.13677664 -0.32398254 -1.008896 -1.0638391 1.3336769 1.6914132 0.89467037 -0.9780574
3.9592683 -0.4976538 0.121683314 -0.29118133 -0.49780828 -0.15105854 0.25588685 -0.5507109
-0.70461917 -0.22069465 -0.7919463 -0.9054523 -0.60336614 -1.4824175 -1.4823223 -1.9881682
1.0704963 0.87411445 1.043097 0.405596 0.20012479 -1.2769508 -1.7509183 -0.9121051
0.31442484 0.12178811 1.2411329 -0.31695756 -0.104386345 -0.57271993 -1.5702084 -2.865765
0.058110803 0.5342983 1.219296 0.46523926 2.5494084 2.0491216 0.34757715 -0.5561097
0.5455942 -0.18985875 0.18053149 0.19858047 -0.35887218 -2.486787 0.25431442 1.5843391
1.0971917 0.6087497 -2.2995222 -0.8436909 0.7407459 0.9427541 -0.36918756 -0.344429
0.12146911 0.9411558 -0.8799664 -2.0631883 -0.4555856 0.5737921 1.3789438 0.0110781845
0.46744528 -0.49229646 -1.8693157 -0.41105267 -0.3892793 0.5533961 1.9587708 -0.047068812
-1.7944338 -1.457206 -0.81011707 -0.7120213 1.5083957 0.37971607 0.73058474 0.083316796
-0.056244507 0.09070022 -0.8403258 -1.4666635 -2.6757278 -0.28050077 -0.50013864 -0.36448058
-0.26321426 0.9898527 0.36473778 1.1261379 -2.3884127 -0.06779345 0.5110377 -0.51232404
-1.8795382 0.2840074 0.2995458 -0.896083 -1.3627019 -1.5156777 -0.16170001 0.56054
0.81472486 -1.8727121 1.011943 -0.37006676 2.7348986 0.64499474 -0.5723152 -0.22222608
-1.8286757 -1.5087816 -1.2351512 -0.73296326 -0.32015887 0.037659235 -1.2179874 -0.18060434
-0.1380942 2.647728 0.37369856 -1.6124954 0.70543104 -0.36110705 -0.9619073 -0.010037769
0.50814617 -1.3395114 0.289765 -1.4188515 1.6077521 -0.90340304 0.9961085 -0.09243262
-0.5416687 -0.40466166 -0.9720414 -1.4876714 0.7703637 0.65279144 1.4868414 1.2679064
0.03092504 -1.0805515 -0.34091464 -0.20433103 0.37772486 0.2277544 -0.047459718 -5.8590193
0.52540976 -2.7278929 1.3710908 -0.065277256 -0.03872506 0.3294414 0.20789464 0.009299872
0.09787141 0.8888446 -1.5791852 0.379109 0.5492434 -1.7625434 -0.008357272 1.4999863
1.4137596 0.5983727 0.7909153 1.1404186 0.42951387 0.08761235 -0.03625182 0.6307007
-0.0033705093 -0.1502754 -0.1576095 -0.4818668 -0.427301 -1.0375258 -0.29060546 0.1325266
0.772009 0.80635995 0.5936076 -2.4790235 0.32285318 0.80817974 -0.62037414 -0.56857467
-1.7366223 -0.74276304 -0.89421517 -0.8592391 -0.48930255 -1.5290298 -0.7574176 -0.880221
-0.3995429 -0.9772704 -0.6849308 -0.8074427 -0.9370222 -2.1523712 -1.1928357 -0.91874295
-0.12970094 0.28576502 1.0905818 1.1903725 0.2398872 1.0762087 0.44096404 0.40016428
00000000: cf74 c2bf 4e0a a0bf fe51 b23e 26fa 913f
00000010: 59db 86bf c77c 13bf 4ada 043f d0ed b33f
00000020: 9c4d 3bbf 10f8 973e b33c 373f f92f 553e
00000030: b399 c0bf 3a7b ce3f d999 c93f 5904 26be
00000040: c476 513f 4d63 6abe 7e36 86bf 54b2 73be
00000050: 51b8 6cbf a937 d0bf 3102 42bf cf09 4dbf
00000060: ad70 01be aa94 373e a19f 303e 94bf 61bf
00000070: 52b8 d3be 156d cdbf 37fa 00c0 adbe d13f
00000080: 2d0f 0c3e 0ae1 a5be 8123 81bf e12b 88bf
00000090: edb5 aa3f 3a80 d83f 1e09 653f f861 7abf
000000a0: a764 7d40 7bcc febe 1a35 f93d b815 95be
000000b0: bae0 febe 17af 1abe 9a03 833e 64fb 0cbf
000000c0: ec61 34bf c7fd 61be febc 4abf b9cb 67bf
000000d0: 3476 1abf dbbf bdbf bdbc bdbf 4c7c febf
000000e0: 0606 893f f7c5 5f3f 3484 853f 47aa cf3e
000000f0: 83ed 4c3e 2073 a3bf 171e e0bf b87f 69bf
00000100: 4bfc a03e 0b6c f93d 71dd 9e3f 4348 a2be
00000110: 82c8 d5bd c69d 12bf 97fc c8bf b268 37c0
00000120: 9805 6e3d c6c7 083f e411 9c3f d733 ee3e
00000130: 8229 2340 cf24 0340 a2f5 b13e 355d 0ebf
00000140: 10ac 0b3f 556a 42be 3fdd 383e ae58 4b3e
00000150: 18be b7be 8527 1fc0 8035 823e a0cb ca3f
00000160: c770 8c3f 05d7 1b3f 5f2b 13c0 20fc 57bf
00000170: 86a1 3d3f 5558 713f 2706 bdbe ff58 b0be
00000180: ccc4 f83d 96ef 703f 7a45 61bf 470b 04c0
00000190: 8442 e9be 0ae4 123f 3b81 b03f 4681 353c
000001a0: fd54 ef3e 480e fcbe bd45 efbf 7f75 d2be
000001b0: 9e4f c7be 5eab 0d3f 00b9 fa3f 3acb 40bd
000001c0: 02b0 e5bf ba85 babf d563 4fbf 0747 36bf
000001d0: 1c13 c13f 256a c23e 9a07 3b3f ffa1 aa3d
000001e0: a460 66bd 09c1 b93d 971f 57bf a1bb bbbf
000001f0: 203f 2bc0 cc9d 8fbe 1609 00bf 339d babe
00000200: 05c4 86be fd66 7d3f e9be ba3e 4925 903f
00000210: c1db 18c0 4bd7 8abd 5ed3 023f ab27 03bf
00000220: b594 f0bf 6b69 913e 115e 993e b265 65bf
00000230: 046d aebf ba01 c2bf b094 25be 8d7f 0f3f
00000240: cf91 503f 08b5 efbf 5987 813f 6479 bdbe
00000250: 9408 2f40 601e 253f 4083 12bf 3c8f 63be
00000260: 0c12 eabf c11f c1bf 6f19 9ebf 7ba3 3bbf
00000270: ddeb a3be 9240 1a3d 03e7 9bbf 58f0 38be
00000280: 9168 0dbe 6074 2940 6b55 bf3e 4066 cebf
00000290: 2197 343f 06e3 b8be 8f3f 76bf 7475 24bc
000002a0: de15 023f 1c75 abbf 145c 943e ed9c b5bf
000002b0: d2ca cd3f 6c45 67bf f700 7f3f 504d bdbd
000002c0: cdaa 0abf d02f cfbe b5d7 78bf 046c bebf
000002d0: 8e36 453f 571d 273f d250 be3f c24a a23f
000002e0: 8256 fd3c 834f 8abf 5d8c aebe 273c 51be
000002f0: 2765 c13e 7338 693e 1f65 42bd 167d bbc0
00000300: 4181 063f cc95 2ec0 e77f af3f 15b0 85bd
00000310: 2b9e 1ebd 8bac a83e 55e2 543e 7e5e 183c
00000320: ce70 c83d 528b 633f be22 cabf 931a c23e
00000330: 379b 0c3f 069b e1bf f0ec 08bc 8dff bf3f
00000340: 13f6 b43f f42e 193f 6d79 4a3f 3df9 913f
00000350: 3ee9 db3e 1b6e b33d ca7c 14bd 9a75 213f
00000360: c3e3 5cbb cbe1 19be 6364 21be 3fb7 f6be
00000370: 32c7 dabe a5cd 84bf 3dca 94be 0eb5 073e
00000380: 62a2 453f 9b6d 4e3f abf6 173f 52a8 1ec0
00000390: 034d a53e dee4 4e3f d7d0 1ebf 1c8e 11bf
000003a0: a449 debf b825 3ebf 49eb 64bf 18f7 5bbf
000003b0: dd85 fabe 40b7 c3bf 1fe6 41bf 2a56 61bf
000003c0: e390 ccbe 652e 7abf a057 2fbf 91b4 4ebf
000003d0: b0e0 6fbf 73c0 09c0 d7ae 98bf bd32 6bbf
000003e0: 53d0 04be cb4f 923e 2f98 8b3f 205e 983f
000003f0: fda4 753e 35c1 893f 0ac6 e13e 55e2 cc3e

embed_layer.0.bias f4 [64]
0.3636497 -0.33409783 0.1692849 0.24401622 0.114046715 -0.35393655 -0.07433141 0.26165795
-0.17756252 0.28782544 0.14700978 -0.37520206 0.4310063 -0.27942657 -0.3360252 -0.3415875
0.29083988 0.0695853 0.15833119 0.022729335 -0.35078526 0.1160967 -0.09942881 0.06385053
-0.2160133 -0.21056186 -0.05964025 -0.2245367 -0.06483514 0.34553003 0.045408588 -0.043790642
0.11845209 -0.22397497 -0.0116216075 0.35078046 0.28819564 -0.291479 -0.21416031 0.12189217
0.03045903 0.15839644 -0.045629162 0.23672137 -0.2829861 0.257306 0.31164455 -0.13523872
-0.29672495 0.014122688 -0.07465555 0.23111896 -0.0028283347 -0.16579266 0.009722856 0.03150239
0.29200584 -0.005799356 0.29340786 0.06050597 0.24520849 0.17275245 -0.20273781 0.009341247
00000000: 4b30 ba3e df0e abbe 0559 2d3e 63df 793e
00000010: 5391 e93d 2c37 b5be 113b 98bd 08f8 853e
00000020: f3d2 35be db5d 933e bb89 163e 7c1a c0be
00000030: dcac dc3e 0011 8fbe 7f0b acbe 8fe4 aebe
00000040: f7e8 943e bd82 8e3d 9221 223e df32 ba3c
00000050: 209a b3be 1bc4 ed3d 55a1 cbbd 11c4 823d
00000060: 9732 5dbe 879d 57be 5649 74bd f3ec 65be
00000070: 49c8 84bd 50e9 b03e 5bfe 393d d15d 33bd
00000080: 0297 f23d b259 65be 8e68 3ebc 7f99 b33e
00000090: 618e 933e bc3c 95be d74c 5bbe 9aa2 f93d
000000a0: 3785 f93c ad32 223e a5e5 3abd 1667 723e
000000b0: 8ee3 90be 9dbd 833e e08f 9f3e 057c 0abe
000000c0: 55ec 97be d962 673c 02e5 98bd 73aa 6c3e
000000d0: 955b 39bb 8dc5 29be 9d4c 1f3c a608 013d
000000e0: ca81 953e 8608 bebb 8e39 963e 1cd5 773d
000000f0: ef17 7b3e 05e6 303e 809a 4fbe 080c 193c

embed_layer.1.weight f4 [64]
2.7305422 1.2124593 -3.58515e-05 1.5178295 1.4984936 1.2731079 3.8019395 1.9754751
3.06275 0.89069885 1.172361 3.4024768 3.7746944 0.86555386 2.4276068 3.969123
0.805496 1.4733964 1.3905168 1.8739257 1.0349661 1.0702723 3.3287714 3.7400506
3.4720647 1.8448179 -0.0020162305 0.016129762 0.97965103 1.3907992 5.1963487 -0.00039581564
1.7620991 1.7254442 1.6236528 2.814178 2.0332654 1.9658437 1.4725906 3.4358745
1.5632851 1.2754054 0.44527104 2.051907 2.1237152 1.2824012 -0.00894184 0.18308502
1.8576226 1.2289276 2.7017603 2.9839973 3.2333527 2.094085 3.5725746 1.6478635
3.5266845 1.5122012 -1.8612174e-05 1.806054 1.2869985 1.379128 1.1200291 3.4114888
00000000: 34c1 2e40 de31 9b3f 415f 16b8 3d48 c23f
00000010: a3ce bf3f 33f5 a23f fa52 7340 5edc fc3f
00000020: 1904 4440 d704 643f ed0f 963f 2ec2 5940
00000030: 9894 7140 f094 5d3f e95d 1b40 1c06 7e40
00000040: fc34 4e3f 4198 bc3f 74fc b13f ccdc ef3f
00000050: c579 843f affe 883f 970a 5540 fd5c 6f40
00000060: 4f36 5e40 fe22 ec3f bc22 04bb 9022 843c
00000070: 69ca 7a3f b505 b23f 7d48 a640 7a85 cfb9
00000080: 778c e13f 5bdb dc3f dbd3 cf3f 7e1b 3440
00000090: 0521 0240 c4a0 fb3f d97d bc3f 5ee5 5b40
000000a0: ba19 c83f 7c40 a33f 91fa e33e 7252 0340
000000b0: f3ea 0740 b925 a43f cc80 12bc a47a 3b3e
000000c0: 94c6 ed3f 804d 9d3f a4e9 2c40 d0f9 3e40
000000d0: 40ef 4e40 7d05 0640 10a5 6440 31ed d23f
000000e0: 33b5 6140 cf8f c13f 5721 9cb7 c72c e73f
000000f0: 5ebc a43f 4487 b03f 1d5d 8f3f d555 5a40

embed_layer.1.bias f4 [64]
-0.59032965 -1.4031209 -0.75157803 0.40516546 -1.5520108 -0.052802008 1.3612455 -0.80377984
-1.7297344 1.3903651 -1.9055474 -0.6937513 -0.34048897 -2.6536458 -0.60460734 0.95940304
-2.0452533 -1.5644364 -0.5491926 1.4023631 -0.7910777 -2.367935 0.15699941 -0.18127257
-0.31437144 -1.2453021 -0.7456341 -4.5765567 -2.9179473 0.5269591 1.5199858 -0.7516978
-0.46122915 -2.477062 0.9002003 1.1965228 -0.055385564 0.8734947 0.7829404 -1.0064894
-2.3662224 -2.308379 -1.2479647 0.7928945 0.81691235 0.24163245 -0.8174553 -1.903237
0.24191704 -1.9784284 -0.60377926 0.76479715 0.34862456 -0.8141658 -0.3474256 0.5035745
-0.21092975 -2.3325455 -0.7518978 -0.6307022 -2.3845644 0.12406399 1.0608289 0.13138953
00000000: d81f 17bf 7799 b3bf 6b67 40bf d971 cf3e
00000010: 4aa8 c6bf eb46 58bd 4b3d ae3f 84c4 4dbf
00000020: f067 ddbf 7cf7 b13f fae8 f3bf af99 31bf
00000030: 9254 aebe 55d5 29c0 8cc7 1abf 709b 753f
00000040: 6ee5 02c0 743f c8bf e397 0cbf a280 b33f
00000050: 1184 4abf 3f8c 17c0 74c4 203e 849f 39be
00000060: 4bf5 a0be 0f66 9fbf e0e1 3ebf 2773 92c0
00000070: a6bf 3ac0 cbe6 063f e58e c23f 446f 40bf
00000080: 3a26 ecbe 2f88 1ec0 8773 663f a927 993f
00000090: f9db 62bd 599d 5f3f c86e 483f a5d4 80bf
000000a0: 3070 17c0 7bbc 13c0 4fbd 9fbf 22fb 4a3f
000000b0: 2b21 513f 7f6e 773e c044 51bf 459d f3bf
000000c0: 1ab9 773e 243d fdbf 4791 1abf bfc9 433f
000000d0: eb7e b23e 2b6d 50bf c5e1 b1be 42ea 003f
000000e0: f8fd 57be 6d48 15c0 607c 40bf b375 21bf
000000f0: b49c 18c0 4315 fe3d 3ec9 873f fa8a 063e

embed_layer.1.running_mean f4 [64]
-31.563473 64.769554 -158.03142 -100.86083 20.181486 76.6058 -268.5805 -10.719295
-122.25476 220.52771 -7.7168803 -15.226996 -14.34065 -7.5272303 -66.04174 -201.73416
-6.035334 -153.76103 71.299034 -230.36032 21.624704 -10.783954 22.801453 -224.07732
-14.390443 0.850088 166.97745 -80.07239 -13.355352 -259.52502 -265.4166 151.9202
14.001995 -39.277805 -256.43378 -118.32376 -71.4152 -115.969444 -219.2609 -10.198862
93.69509 1.4671203 118.15472 -77.68744 -2.1954489 -65.568474 199.78221 -226.67517
-2.9555545 51.258114 -23.096266 -3.2025578 11.163672 7.4052644 -20.106638 113.06545
-13.059969 66.19693 129.25854 29.0647 -48.339245 -121.10459 13.928388 -11.932799
00000000: fe81 fcc1 038a 8142 0b08 1ec3 bfb8 c9c2
00000010: af73 a141 2b36 9942 4e4a 86c3 3b82 2bc1
00000020: 7082 f4c2 1887 5c43 aff0 f6c0 c7a1 73c1
00000030: 4d73 65c1 12df f0c0 5f15 84c2 f2bb 49c3
00000040: 7521 c1c0 d3c2 19c3 1b99 8e42 3e5c 66c3
00000050: 65ff ac41 138b 2cc1 6069 b641 cb13 60c3
00000060: 413f 66c1 5e9f 593f 3afa 2643 1025 a0c2
00000070: 86af 55c1 34c3 81c3 53b5 84c3 92eb 1743
00000080: 2c08 6041 791c 1dc2 8637 80c3 c4a5 ecc2
00000090: 95d4 8ec2 5bf0 e7c2 ca42 5bc3 8a2e 23c1
000000a0: e363 bb42 99ca bb3f 374f ec42 f85f 9bc2
000000b0: 3c82 0cc0 0f23 83c2 3fc8 4743 d8ac 62c3
000000c0: ce27 3dc0 4f08 4d42 27c5 b8c1 b5f6 4cc0
000000d0: 679e 3241 edf7 ec40 65da a0c1 8321 e242
000000e0: a2f5 50c1 d464 8442 3042 0143 8184 e841
000000f0: 635b 41c2 8d35 f2c2 adda 5e41 bfec 3ec1

embed_layer.1.running_var f4 [64]
2066.4148 5265.883 27321.518 11602.845 1214.209 7960.067 77570.48 1447.6703
17938.46 52157.67 779.0778 1015.8896 919.555 844.6365 5515.1353 43503.477
783.3993 25636.305 6477.384 56439.516 1631.7229 819.5698 1784.0353 57117.66
1096.957 744.923 29582.656 6864.2686 1061.7408 71911.09 75481.89 24604.277
986.47095 2347.217 69929.164 16255.639 6198.523 14999.191 50708.812 781.201
10147.076 862.1693 15565.611 6946.626 910.8977 5375.9355 42269.64 54674.03
679.4971 3469.4187 1398.8428 948.2248 881.54333 712.99713 1156.4286 14733.972
941.67706 5745.41 17897.361 1990.6113 3306.4863 16288.907 1482.7395 788.9193
00000000: a326 0145 108f a445 0973 d546 614b 3546
00000010: b0c6 9744 89c0 f845 3d81 9747 73f5 b444
00000020: ec24 8c46 acbd 4b47 fbc4 4244 eff8 7d44
00000030: 85e3 6544 bc28 5344 1559 ac45 7aef 2947
00000040: 8ed9 4344 9c48 c846 126b ca45 8477 5c47
00000050: 22f7 cb44 78e4 4c44 2101 df44 a91d 5f47
00000060: a01e 8944 123b 3a44 501d e746 2682 d645
00000070: b5b7 8444 8c73 8c47 f26c 9347 8e38 c046
00000080: 249e 7644 79b3 1245 9594 8847 8efe 7d46
00000090: 2fb4 c145 c45c 6a46 d014 4647 dd4c 4344
000000a0: 4e8c 1e46 d68a 5744 7236 7346 0215 d945
000000b0: 74b9 6344 7cff a745 a41d 2547 0892 5547
000000c0: d0df 2944 b3d6 5845 f8da ae44 630e 6d44
000000d0: c662 5c44 d13f 3244 b78d 9044 e337 6646
000000e0: 556b 6b44 488b b345 b9d2 8b46 90d3 f844
000000f0: c8a7 4e45 a183 7e46 aa57 b944 d63a 4544

embed_layer2.0.weight f4 [16, 64, 2, 1]
-0.36464468 -2.1947963 0.62554103 1.5042866 -0.06274376 0.38600993 -0.9092691 -0.5373449
-0.9381862 -0.032807086 -0.38090974 3.2810078 -1.2726297 1.7496938 0.113891505 0.65887463
0.1398838 0.7607486 0.13027585 0.8816091 1.7718331 1.7581372 -0.27454054 1.4305148
0.8026447 -0.62097436 -0.7333663 -0.0481071 -1.1168785 0.6490119 0.18123816 0.63313335
0.10778634 0.87627953 0.12367308 1.7752038 0.2591091 0.73608637 2.1724932 -0.18691157
-0.21898605 -1.7374773 -1.8819046 -0.9289223 0.49311507 -2.0286846 -0.13594855 2.1854143
2.0556111 -2.3781855 0.6998747 0.22664571 -0.0018253264 -0.5590441 0.01737454 0.2178018
-1.4966179 -0.86609447 0.78745735 0.48192555 -0.2762788 -0.05618043 -0.043755393 -0.08776027
0.07659998 -1.1900735 -1.1352444 1.8412396 1.3603197 -0.37169355 4.5696406 0.4257892
-0.18556051 -0.97051585 1.3971539 1.5320307 2.0929074 -0.39633244 -0.7688111 -0.36730245
1.4069607 -1.3230511 -0.48856845 -1.1125852 1.0910184 -1.0862174 1.5942137 0.20287104
0.056812722 0.9480909 0.98280466 2.2046614 0.001823994 -0.51488876 0.1310423 0.6183986
0.34004328 -0.83576226 1.0209883 1.0026402 0.86051244 -0.448193 -0.49079508 0.6294477
0.14906183 -1.5495418 0.49103507 -0.42011866 -1.174126 1.7766515 0.06567875 1.5248132
-0.3998733 -0.004673086 0.74490774 2.0084558 0.03898043 -0.5855159 0.22660334 -1.6693633
1.9095156 0.46076855 1.089665 1.47758 0.35066405 -0.6260729 0.19222552 -0.51553357
1.2643145 1.0070997 -0.31864506 2.6550946 0.18600337 0.39879924 -0.5707791 -0.82463014
0.39508155 0.2494777 0.49192232 0.34108633 -0.22133423 -0.66797614 -0.4589183 -0.07964129
-2.1561801 -0.011437403 -0.14635982 0.5300543 -0.5351876 0.29089913 0.20877953 -0.7101195
1.5852902 -2.2555122 -0.087133266 -0.5837134 0.25521055 1.32671 1.0029618 -0.09931363
-0.4091494 0.5319315 -0.15280493 -0.4322095 -0.3766683 -0.70532423 0.49445406 0.27017584
-0.1133773 1.1986245 1.5872985 -0.51711583 -0.032912064 0.6765262 -0.34970546 1.0689807
-1.9723102 0.9438797 -0.33440185 -0.50216055 0.004162817 1.1624329 0.0029705137 0.049017943
0.13279895 2.2884812 -0.28881657 -0.61547524 0.25418642 -0.4373079 0.21107444 1.7097969
-0.3202302 1.1853428 -0.11308271 -0.69535196 0.0046333796 0.045565188 -0.49999058 0.66471916
0.28763044 0.29603016 0.92337275 -0.14669043 -0.17515819 0.57738787 2.6869757 -1.448897
1.169737 2.4138107 -0.2890429 0.20650694 0.0015354184 0.30997723 -0.5598709 0.71156096
0.183306 -0.05228857 0.605111 -1.718717 0.21462633 1.4930571 -0.23260908 -0.035036325
-0.2224274 -1.4520074 -0.5535077 1.3350445 -0.71307194 0.81306845 -0.15377331 -1.1303277
0.29031515 0.8002529 -0.03790367 -1.8367424 -0.72830725 -0.34782496 -0.4253933 1.8589783
-1.0883014 1.2771763 0.08704556 -1.3117921 -0.16300966 1.229027 0.655789 1.0193381
1.6161267 1.0282534 -0.02019826 -0.5868878 -0.20026276 1.1890098 -1.5818225 2.1388915
00000000: b5b2 babe 8b77 0cc0 7523 203f 778c c03f
00000010: cd7f 80bd 18a3 c53e dcc5 68bf 6f8f 09bf
00000020: f92c 70bf b960 06bd 9a06 c3be 08fc 5140
00000030: 88e5 a2bf f7f5 df3f f33f e93d 02ac 283f
00000040: b33d 0f3e 6cc0 423f 0867 053e 22b1 613f
00000050: 6dcb e23f a40a e13f 9490 8cbe 1c1b b73f
00000060: 207a 4d3f 2df8 1ebf e5bd 3bbf f30b 45bd
00000070: e0f5 8ebf a525 263f 7f96 393e 0715 223f
00000080: 16bf dc3d db53 603f 5048 fd3d e139 e33f
00000090: f3a9 843e 2870 3c3f 210a 0b40 bf65 3fbe
000000a0: e13d 60be a865 debf 40e2 f0bf dacd 6dbf
000000b0: 9479 fc3e f8d5 01c0 1936 0bbe d4dd 0b40
000000c0: 228f 0340 3134 18c0 fd2a 333f d015 683e
000000d0: ca3f efba 841d 0fbf 0d55 8e3c 6f07 5f3e
000000e0: 2d91 bfbf 5eb8 5dbf ce96 493f f2be f63e
000000f0: 6a74 8dbe 731d 66bd db38 33bd a8bb b3bd
00000100: 73e0 9c3d 5454 98bf b04f 91bf bdad eb3f
00000110: f51e ae3f 9e4e bebe 7f3a 9240 0b01 da3e
00000120: 9303 3ebe ba73 78bf f0d5 b23f 9519 c43f
00000130: 32f2 0540 16ec cabe ced0 44bf 110f bcbe
00000140: 4a17 b43f bd59 a9bf a525 fabe 3169 8ebf
00000150: 7ea6 8b3f 2c09 8bbf 320f cc3f 6dbd 4f3e
00000160: 75b4 683d 16b6 723f 1699 7b3f 2c19 0d40
00000170: 1513 ef3a c0cf 03bf f42f 063e 5f4f 1e3f
00000180: 271a ae3e 84f4 55bf bfaf 823f 8456 803f
00000190: 8b4a 5c3f 8e79 e5be 7e49 fbbe 7c23 213f
000001a0: aaa3 183e 6357 c6bf f368 fb3e cb19 d7be
000001b0: c349 96bf 5169 e33f 9582 863d 142d c33f
000001c0: 31bc ccbe b020 99bb 46b2 3e3f 8a8a 0040
000001d0: f2a9 1f3d 5fe4 15bf b50a 683e b2ad d5bf
000001e0: 026b f43f dbe9 eb3e 257a 8b3f 5721 bd3f
000001f0: 3d8a b33e 5046 20bf c4d6 443e 02fa 03bf
00000200: 0fd5 a13f a5e8 803f 7225 a3be 12ed 2940
00000210: ab77 3e3e 6a2f cc3e 941e 12bf f61a 53bf
00000220: 2148 ca3e 1577 7f3e 3edd fb3e dea2 ae3e
00000230: 71a5 62be 7c00 2bbf 57f7 eabe f91a a3bd
00000240: dbfe 09c0 f263 3bbc 59df 15be a3b1 073f
00000250: 0e02 09bf bbf0 943e 4dca 553e 64ca 35bf
00000260: caea ca3f 505a 10c0 ed72 b2bd 3e6e 15bf
00000270: f5aa 823e a2d1 a93f 0d61 803f f264 cbbd
00000280: 087c d1be aa2c 083f e578 1cbe 904a ddbe
00000290: abda c0be 2190 34bf 1529 fd3e 7d54 8a3e
000002a0: 5c32 e8bd 876c 993f 992c cb3f b461 04bf
000002b0: cdce 06bd d230 2d3f 980c b3be 5cd4 883f
000002c0: a974 fcbf 1aa2 713f b836 abbe 988d 00bf
000002d0: 3d68 883b 9aca 943f f3ac 423b 0ac7 483d
000002e0: 73fc 073e 7a76 1240 c4df 93be c98f 1dbf
000002f0: b924 823e d2e6 dfbe e623 583e a0da da3f
00000300: 36f5 a3be 50b9 973f e897 e7bd 9602 32bf
00000310: 9bd3 973b 90a2 3a3d c4fe ffbe 092b 2a3f
00000320: 4c44 933e 4491 973e 2862 6c3f 0436 16be
00000330: ab5c 33be b1cf 133f 69f7 2b40 7575 b9bf
00000340: f1b9 953f e07b 1a40 6efd 93be 8e76 533e
00000350: 1840 c93a 56b5 9e3e b353 0fbf dc28 363f
00000360: 91b4 3b3e 8a2c 56bd 8ee8 1a3f ebfe dbbf
00000370: 01c7 5b3e 7f1c bf3f 1331 6ebe 4082 0fbd
00000380: 02c4 63be 61db b9bf aeb2 0dbf bde2 aa3f
00000390: e28b 36bf 4125 503f c076 1dbe 94ae 90bf
000003a0: 30a4 943e 60dd 4c3f e140 1bbd 601a ebbf
000003b0: 5872 3abf 1d16 b2be 27cd d9be 00f3 ed3f
000003c0: 764d 8bbf 837a a33f f144 b23d cee8 a7bf
000003d0: 01ec 26be c250 9d3f cae1 273f ac79 823f
000003e0: 3ddd ce3f cf9d 833f d276 a5bc 473e 16bf
000003f0: ae11 4dbe 7931 983f 2979 cabf 99e3 0840

embed_layer2.0.bias f4 [16]
-0.0022433926 0.60913867 2.7022047 0.24640253 0.7804598 0.1582278 -0.073372185 -0.45212406
1.3446245 0.1033527 -0.20282336 0.975944 -1.0384531 0.8858597 0.14006004 0.011019079
00000000: e205 13bb 83f0 1b3f ecf0 2c40 f250 7c3e
00000010: 37cc 473f 7806 223e 2844 96bd ce7c e7be
00000020: a81c ac3f 95aa d33d edb0 4fbe 77d7 793f
00000030: 08ec 84bf b4c7 623f e66b 0f3e 5e89 343c

embed_layer2.1.weight f4 [16]
5.114254 6.186097 6.143212 4.0206313 4.326321 3.9487097 1.5664653 3.0376513
4.301871 2.2881997 2.6029413 3.5797 3.6953657 4.777092 2.041221 3.1020172
00000000: f8a7 a340 82f4 c540 3195 c440 03a9 8040
00000010: 3971 8a40 a9b7 7c40 ef81 c83f e168 4240
00000020: eda8 8940 dd71 1240 9796 2640 ce19 6540
00000030: df80 6c40 f0dd 9840 5da3 0240 7387 4640

embed_layer2.1.bias f4 [16]
-0.27234802 -0.25405735 -1.0048476 0.09520157 -0.1809716 -1.5562209 0.58634007 0.1405182
-0.53121674 0.122511186 0.07599411 -0.041522335 -0.8386669 0.47282028 0.2996444 0.6255359
00000000: 3371 8bbe ce13 82be d99e 80bf 0af9 c23d
00000010: 9e50 39be 3f32 c7bf 621a 163f 01e4 0f3e
00000020: d2fd 07bf 25e7 fa3d cda2 9b3d 5313 2abd
00000030: e0b2 56bf 8015 f23e fe6a 993e 1f23 203f

embed_layer2.1.running_mean f4 [16]
24.499102 -0.072370775 28.861712 -28.436241 50.256237 62.769207 9.433745 -27.027586
-7.085283 -37.48681 -24.770742 -52.662968 -21.252983 -12.3738985 -30.499563 -24.42561
00000000: 29fe c341 2137 94bd c9e4 e641 6c7d e3c1
00000010: 6306 4942 ab13 7b42 9ff0 1641 7f38 d8c1
00000020: a3ba e2c0 7ef2 15c2 7b2a c6c1 e1a6 52c2
00000030: 1c06 aac1 7dfb 45c1 1bff f3c1 a667 c3c1

embed_layer2.1.running_var f4 [16]
82.014015 69.99198 57.123726 68.298096 98.25567 77.06229 71.19981 73.34458
77.82014 98.45346 84.01868 51.22933 61.200428 69.502014 82.00914 80.196365
00000000: 2d07 a442 e5fb 8b42 b27e 6442 a098 8842
00000010: e782 c442 e41f 9a42 4d66 8e42 6db0 9242
00000020: e9a3 9b42 2ce8 c442 9009 a842 d5ea 4c42
00000030: 3dcd 7442 0801 8b42 ae04 a442 8a64 a042

Fix_Position.pe f4 [1, 150, 16]
0.0 1.0 0.0 1.0 0.0 1.0 0.0 1.0
0.0 1.0 0.0 1.0 0.0 1.0 0.0 1.0
0.10646451 0.9943165 0.033724565 0.99943113 0.010666464 0.99994314 0.0033730897 0.99999434
0.0010666664 0.99999946 0.00033730952 0.99999994 0.00010666666 1.0 3.373097e-05 1.0
0.21171884 0.9773306 0.06741076 0.9977253 0.021331714 0.9997724 0.006746141 0.99997723
0.0021333317 0.99999774 0.000674619 0.99999976 0.00021333332 1.0 6.746194e-05 1.0
0.31456655 0.94923544 0.10102027 0.9948844 0.031994537 0.99948806 0.010119116 0.9999488
0.0031999946 0.9999949 0.0010119284 0.9999995 0.00032 0.99999994 0.000101192905 1.0
0.41383862 0.91035026 0.13451485 0.9909116 0.04265372 0.9990899 0.013491974 0.999909
0.0042666537 0.9999909 0.0013492376 0.9999991 0.00042666664 0.99999994 0.00013492387 1.0
0.5084066 0.8611171 0.1678564 0.9858115 0.05330805 0.99857813 0.01686468 0.9998578
0.005333308 0.99998575 0.0016865468 0.99999857 0.00053333334 0.9999999 0.00016865483 1.0
0.59719545 0.8020958 0.20100698 0.9795898 0.06395631 0.9979527 0.020237194 0.9997952
0.006399956 0.9999795 0.0020238557 0.999998 0.0006399999 0.9999998 0.00020238581 1.0
0.679196 0.73395693 0.2339289 0.97225374 0.07459731 0.9972137 0.02360948 0.9997212
0.0074665975 0.9999721 0.0023611647 0.9999972 0.00074666657 0.9999997 0.00023611677 1.0
0.7534762 0.6574752 0.26658463 0.9638115 0.08522981 0.9963613 0.026981493 0.99963593
0.00853323 0.9999636 0.002698473 0.99999636 0.00085333316 0.99999964 0.00026984775 0.99999994
0.8191916 0.57351995 0.2989371 0.9542728 0.09585261 0.99539554 0.030353202 0.99953926
0.009599852 0.9999539 0.003035781 0.9999954 0.0009599998 0.9999995 0.0003035787 0.99999994
0.8755953 0.48304552 0.33094952 0.94364846 0.106464505 0.9943165 0.03372456 0.99943113
0.010666464 0.99994314 0.003373089 0.99999434 0.0010666664 0.99999946 0.00033730967 0.99999994
0.922046 0.38708028 0.3625854 0.93195057 0.11706428 0.9931243 0.037095547 0.99931175
0.011733064 0.99993116 0.0037103961 0.99999315 0.001173333 0.99999934 0.00037104063 0.99999994
0.95801586 0.28671524 0.39380878 0.9191924 0.12765075 0.9918192 0.0404661 0.9991809
0.01279965 0.9999181 0.004047703 0.99999183 0.0012799996 0.99999917 0.00040477162 0.99999994
0.983096 0.18309098 0.42458415 0.9053885 0.1382227 0.99040115 0.043836195 0.99903876
0.013866222 0.99990386 0.00438501 0.9999904 0.0013866662 0.99999905 0.00043850258 0.9999999
0.99700123 0.07738554 0.45487648 0.89055455 0.14877892 0.9888705 0.0472058 0.99888515
0.014932779 0.9998885 0.004722316 0.99998885 0.0014933327 0.99999887 0.0004722335 0.9999999
0.9995736 -0.029199546 0.48465124 0.87470746 0.15931821 0.98722726 0.050574858 0.9987203
0.015999317 0.999872 0.0050596213 0.9999872 0.0015999993 0.99999875 0.0005059645 0.9999999
00000000: 0000 0000 0000 803f 0000 0000 0000 803f
00000010: 0000 0000 0000 803f 0000 0000 0000 803f
00000020: 0000 0000 0000 803f 0000 0000 0000 803f
00000030: 0000 0000 0000 803f 0000 0000 0000 803f
00000040: 110a da3d 878b 7e3f c522 0a3d b8da 7f3f
00000050: 65c2 2e3c 46fc 7f3f 0e0f 5d3b a1ff 7f3f
00000060: 63cf 8b3a f7ff 7f3f ebd8 b039 ffff 7f3f
00000070: 3ab2 df38 0000 803f 5a7a 0d38 0000 803f
00000080: d3cc 583e 5732 7a3f a70e 8a3d ed6a 7f3f
00000090: d9bf ae3c 16f1 7f3f bb0e dd3b 82fe 7f3f
000000a0: 5ecf 0b3b daff 7f3f ead8 303a fcff 7f3f
000000b0: 3ab2 5f39 0000 803f 5a7a 8d38 0000 803f
000000c0: de0e a13e 1801 733f b7e3 ce3d beb0 7e3f
000000d0: b40c 033d 73de 7f3f a6ca 253c a5fc 7f3f
000000e0: 00b7 513b aaff 7f3f afa2 843a f8ff 7f3f
000000f0: acc5 a739 ffff 7f3f 8737 d438 0000 803f
00000100: a8e2 d33e b70c 693f 43be 093e 62ac 7d3f
00000110: abb5 2e3d 5bc4 7f3f 710d 5d3c 09fa 7f3f
00000120: 49cf 8b3b 67ff 7f3f e7d8 b03a f1ff 7f3f
00000130: 3ab2 df39 ffff 7f3f 5a7a 0d39 0000 803f
00000140: ef26 023f 2c72 5c3f 8ce2 2b3e 245e 7c3f
00000150: 8b59 5a3d d1a2 7f3f cc27 8a3c aef6 7f3f
00000160: 08c3 ae3b 11ff 7f3f 1f0f dd3a e8ff 7f3f
00000170: 65cf 0b3a feff 7f3f f0d8 3039 0000 803f
00000180: cde1 183f 2656 4d3f c6d4 4d3e 66c6 7a3f
00000190: 87fb 823d d479 7f3f 79c8 a53c 94f2 7f3f
000001a0: b9b6 d13b a8fe 7f3f aaa2 043b deff 7f3f
000001b0: abc5 273a fdff 7f3f 8737 5439 0000 803f
000001c0: cadf 2d3f 9ae4 3b3f 0f8b 6f3e 9fe5 783f
000001d0: 79c6 983d 6649 7f3f ab68 c13c bbed 7f3f
000001e0: 5caa f43b 2cfe 7f3f c5bd 1a3b d1ff 7f3f
000001f0: f2bb 433a fbff 7f3f 1d96 7739 0000 803f
00000200: d1e3 403f 4b50 283f c87d 883e 5abc 763f
00000210: f78c ae3d 8911 7f3f 4b08 dd3c 24e8 7f3f
00000220: f6ce 0b3c 9dfd 7f3f ddd8 303b c3ff 7f3f
00000230: 38b2 5f3a faff 7f3f 5a7a 8d39 ffff 7f3f
00000240: 8ab6 513f 34d2 123f 490e 993e 394b 743f
00000250: 604e c43d 3ed2 7e3f 47a7 f83c cee1 7f3f
00000260: b348 1d3c fbfc 7f3f f4f3 463b b3ff 7f3f
00000270: 7fa8 7b3a f8ff 7f3f a529 9f39 ffff 7f3f
00000280: 0327 603f be51 f73e 3772 a93e f292 713f
00000290: 100a da3d 878b 7e3f c422 0a3d b8da 7f3f
000002a0: 65c2 2e3c 46fc 7f3f 0b0f 5d3b a1ff 7f3f
000002b0: 63cf 8b3a f7ff 7f3f f0d8 b039 ffff 7f3f
000002c0: 350b 6c3f 632f c63e cba4 b93e 5094 6e3f
000002d0: 66bf ef3d 653d 7e3f 80f1 173d e5d2 7f3f
000002e0: 0a3c 403c 7dfb 7f3f 1e2a 733b 8dff 7f3f
000002f0: 86ca 993a f5ff 7f3f 3b88 c239 ffff 7f3f
00000300: 8740 753f 57cc 923e 4ea1 c93e 3150 6b3f
00000310: e1b6 023e dde7 7d3f c8bf 253d 52ca 7f3f
00000320: a0b5 513c a2fa 7f3f 98a2 843b 77ff 7f3f
00000330: a9c5 a73a f2ff 7f3f 8737 d439 ffff 7f3f
00000340: 2eac 7b3f 347c 3b3e 1863 d93e 8ac7 673f
00000350: 408a 0d3e ee8a 7d3f 958d 333d 01c1 7f3f
00000360: 272f 633c b3f9 7f3f 21b0 8f3b 5fff 7f3f
00000370: ccc0 b53a f0ff 7f3f d2e6 e539 feff 7f3f
00000380: 793b 7f3f 4f7c 9e3d 92e5 e83e 62fb 633f
00000390: 8059 183e 9e26 7d3f de5a 413d f0b6 7f3f
000003a0: 9da8 743c b1f8 7f3f a8bd 9a3b 45ff 7f3f
000003b0: eebb c33a edff 7f3f 1c96 f739 feff 7f3f
000003c0: 0ee4 7f3f e333 efbc 3524 f83e d4ec 5f3f
000003d0: 5024 233e edba 7c3f 9527 4f3d 22ac 7f3f
000003e0: 0011 833c 9df7 7f3f 2ecb a53b 29ff 7f3f
000003f0: 11b7 d13a ebff 7f3f b4a2 043a feff 7f3f

attention_layer.relative_bias_table f4 [299, 8]
-0.76330006 0.019430129 -4.3672194 -2.4043381 -1.7751663 2.2190003 -2.7612095 -3.1527286
1.334955 -0.48055318 -1.6705288 1.0184283 1.7019627 2.3645284 -4.593564 1.3419393
-1.7673415 -0.1653227 0.6899464 -0.16171104 0.35710073 1.6952711 0.13775696 1.5530378
1.8988745 0.33566785 0.60536194 -1.9855984 -1.06804 0.60610414 2.8123066 -0.4824739
0.17850186 -1.1105508 -0.6403753 -0.5090784 1.083822 1.5390531 0.26581496 1.6371901
0.022512967 1.012783 -0.21872322 1.1627581 0.18220103 1.1300601 -1.0067595 1.3993639
-1.2458199 -0.1089401 0.6287705 0.62739867 0.46755493 1.7570463 -2.3066938 -1.2140793
-0.69229347 -1.01439 0.9005418 0.2839902 1.8792269 0.06485542 1.2250394 1.9404877
0.0023699955 0.4400516 -0.4907636 0.056333646 0.41626897 0.7130894 -0.23962437 -1.2550845
-0.85246223 -0.38402796 -0.40101072 -0.3257555 0.5652544 0.36751384 -0.7534577 0.71682817
0.2248914 -0.4230547 0.2064583 0.62229717 -0.049839005 -0.3182907 0.3658915 -0.3354122
0.012472395 -0.0056963195 -0.27743214 -0.6561141 0.47255766 -0.2491117 -1.1246623 1.404276
0.6195411 -0.28172547 0.4291494 -0.4097836 -0.30183074 0.9967417 0.337608 0.6519655
-0.5233861 -0.396446 -0.0406922 -0.46251518 -0.024550514 -0.56247973 -0.52538794 0.51128554
-0.83579785 -0.014026467 -0.18065362 0.0674855 0.0356076 -0.19580111 0.21163855 0.012897428
0.46215713 0.014677023 0.03225713 -1.0857189 -0.9239585 0.7332632 0.7024456 0.24963255
0.3856167 0.16422507 0.56398606 -0.5464633 -0.31072208 0.36361197 -0.44509983 -0.20740245
0.3754851 -0.018920861 0.18103585 0.075967744 -0.19083214 -0.68603265 -0.33374485 0.31497514
0.3424727 0.099336185 0.8273296 -0.6610937 -0.10505913 1.3099319 0.6847315 0.22269326
0.055998832 -0.018136932 -0.3053628 -0.52158356 -0.112072386 -0.12068103 -0.4358594 -0.36365953
-0.120158985 0.34493953 0.26653403 0.023509035 -0.43057132 -0.0781333 0.04689595 0.8810895
0.2600569 0.07562044 -0.85085815 -0.9834307 -0.2644802 0.2039553 -0.8015202 -1.1326777
1.0081725 0.5615938 0.3647747 -0.615618 -0.6341712 0.11925932 0.34164527 0.59829605
0.31736162 0.19216427 0.27029988 -0.90459627 -0.46878034 -0.16982706 -0.30126262 -0.6177994
0.929064 0.32283762 0.71716434 -0.7400109 -0.1429815 -0.027285386 -0.34798548 0.14546746
0.2734108 0.0012965534 -0.33656776 -1.0767078 -0.2896253 0.780837 -0.29960936 0.25583476
0.30489925 -0.0067705596 0.62840277 -0.55242336 -0.024841635 0.42007688 0.18802117 -0.37269422
0.05971839 -0.22932129 0.84627384 -0.7441535 -0.17334348 -0.43260345 -0.14956272 0.214909
-0.13944103 0.57706374 -0.25568756 -1.1886791 -0.3560792 -0.37805337 -0.047314253 -0.30528656
0.8916525 0.47196254 -0.034153104 -0.901477 -0.08308309 0.95779026 -0.33451802 -0.0717837
-0.43077958 0.4602349 -0.34442258 -0.97567636 -0.4300342 -0.057121117 0.11229073 0.6061392
0.6518995 -0.032703515 0.18491453 -0.945446 -0.30698806 0.46779856 -0.20002848 -0.31152403
00000000: a267 43bf ef2b 9f3c 43c0 8bc0 ade0 19c0
00000010: a638 e3bf 1a04 0e40 a8b7 30c0 4ec6 49c0
00000020: cedf aa3f 110b f6be e3d3 d5bf dc5b 823f
00000030: ead9 d93f 6f54 1740 7afe 92c0 abc4 ab3f
00000040: 3f38 e2bf 5b4a 29be 54a0 303f 9497 25be
00000050: e8d5 b63e a5fe d83f 2910 0d3e f1c9 c63f
00000060: 520e f33f a8dc ab3e 00f9 1a3f 1728 febf
00000070: 89b5 88bf a429 1b3f d5fc 3340 d206 f7be
00000080: 31c9 363e 8726 8ebf a3ef 23bf f652 02bf
00000090: aeba 8a3f b1ff c43f e618 883e 728f d13f
000000a0: 1d6d b83c e0a2 813f fbf8 5fbe 42d5 943f
000000b0: e892 3a3e cfa5 903f 7fdd 80bf 5b1e b33f
000000c0: 0777 9fbf fd1b dfbd 1af7 203f 339d 203f
000000d0: 5c63 ef3e e5e6 e03f dfa0 13c0 f366 9bbf
000000e0: 253a 31bf 88d7 81bf e889 663f 2a67 913e
000000f0: 828a f03f ebd2 843d 17ce 9c3f e761 f83f
00000100: ed51 1b3b 714e e13e 5e45 fbbe 1cbe 663d
00000110: 3521 d53e 078d 363f 1760 75be 9ca6 a0bf
00000120: f73a 5abf 509f c4be 4751 cdbe 6dc9 a6be
00000130: 83b4 103f c62a bc3e 9be2 40bf 0d82 373f
00000140: ee49 663e a09a d8be ce69 533e de4e 1f3f
00000150: fc23 4cbd 00f7 a2be 2156 bb3e 26bb abbe
00000160: 0459 4c3c 31a8 babb 960b 8ebe 18f7 27bf
00000170: 14f3 f13e 2317 7fbe eff4 8fbf 51bf b33f
00000180: 3f9a 1e3f 523e 90be 78b9 db3e 28cf d1be
00000190: 8f89 9abe 772a 7f3f f5da ac3e 36e7 263f
000001a0: a2fc 05bf f8fa cabe ddac 26bd cace ecbe
000001b0: 291e c9bc acfe 0fbf d37f 06bf 9ce3 023f
000001c0: d9f6 55bf 44cf 65bc 43fd 38be d635 8a3d
000001d0: 46d9 113d 1680 48be c7b7 583e bc4f 533c
000001e0: dc9f ec3e e577 703c 0d20 043d d6f8 8abf
000001f0: 8b88 6cbf 23b7 3b3f 7ad3 333f ad9f 7f3e
00000200: 8d6f c53e 9e2a 283e 6461 103f 05e5 0bbf
00000210: f716 9fbe 592b ba3e 20e4 e3be 4f61 54be
00000220: 953f c03e ecff 9abc 7661 393e fa94 9b3d
00000230: 8069 43be d69f 2fbf 9be0 aabe 6c44 a13e
00000240: 9558 af3e c570 cb3d dfcb 533f 703d 29bf
00000250: 3e29 d7bd d9ab a73f 904a 2f3f b409 643e
00000260: 085f 653d e793 94bc 8358 9cbe 8086 05bf
00000270: 3586 e5bd 9e27 f7bd f728 dfbe 9531 babe
00000280: ea15 f6bd ea9b b03e 2677 883e 0596 c03c
00000290: d873 dcbe 5a04 a0bd f815 403d 158f 613f
000002a0: 2e26 853e e4de 9a3d d7d1 59bf 1dc2 7bbf
000002b0: f369 87be a8d9 503e 6e30 4dbf 95fb 90bf
000002c0: cc0b 813f 9cc4 0f3f c0c3 ba3e 2499 1dbf
000002d0: 0b59 22bf 3b3e f43d 21ec ae3e ee29 193f
000002e0: 397d a23e b6c6 443e bf64 8a3e 9f93 67bf
000002f0: fa03 f0be 25e7 2dbe 183f 9abe 1a28 1ebf
00000300: 23d7 6d3f f94a a53e 1598 373f 5b71 3dbf
00000310: be69 12be 9a85 dfbc 272b b2be 6cf5 143e
00000320: 80fc 8b3e 1df1 a93a 9c52 acbe 90d1 89bf
00000330: c449 94be efe4 473f 6666 99be c6fc 823e
00000340: c11b 9c3e 92db ddbb 01df 203f 9e6b 0dbf
00000350: af80 cbbc 5114 d73e 9f88 403e c7d1 bebe
00000360: 459b 743d 33d3 6abe 67a5 583f d880 3ebf
00000370: f480 31be 337e ddbe f826 19be 1b11 5c3e
00000380: a1c9 0ebe 73ba 133f 7be9 82be a326 98bf
00000390: 0350 b6be 3690 c1be 97cc 41bd 854e 9cbe
000003a0: 5743 643f 13a5 f13e 20e4 0bbd 32c7 66bf
000003b0: 7827 aabd be31 753f f245 abbe 5503 93bd
000003c0: 248f dcbe e9a3 eb3e 2858 b0be edc5 79bf
000003d0: 712d dcbe d5f7 69bd aff8 e53d f02b 1b3f
000003e0: e3e2 263f 1ff4 05bd 3c5a 3d3e c008 72bf
000003f0: 8a2d 9dbe 4b83 ef3e 44d4 4cbe 1480 9fbe

attention_layer.key.weight f4 [16, 16]
0.664694 -0.6750453 -0.13179298 0.34970173 -2.9168649 0.4786195 1.0536433 -1.3211133
0.749159 2.906189 1.3331699 1.4559357 -0.24039835 -0.4600017 -0.548724 2.1526885
0.93569005 -0.27772602 -0.14932817 0.34414145 0.9009912 0.8260519 2.690414 0.65047324
1.8679626 -2.2755291 -2.6054993 1.248639 -1.0284581 -1.0932041 -0.6217321 -0.54532415
-0.6834599 -1.1718558 -1.1236374 -0.61597544 0.661213 0.6221182 -1.2807989 1.1498687
0.25252876 0.9339793 0.37878087 -0.8183053 -0.36241868 0.3616631 -0.81391025 -1.0632674
-0.7757112 0.6907675 0.36798087 1.164885 0.34326783 0.15045747 0.2318736 -0.703352
1.016154 -0.2431935 2.4504857 -0.77573526 0.9843097 0.4398021 -1.7062815 0.63444227
-0.0744219 0.5375811 -0.26935452 -0.50333124 0.46788487 -0.36079544 -1.9606758 -0.23581013
-2.7901013 -1.4002649 0.47177252 -0.92978966 -2.5169013 0.26826045 -1.3483527 -0.4498473
-0.52975136 -0.21592718 0.15838245 -1.5447521 0.6925206 0.021520782 -0.67030317 0.41193447
-3.4611976 -0.808632 -0.35916874 -1.0042038 -2.7315228 -0.43405893 0.33324894 -0.22548343
0.12839465 0.26054636 0.20788777 0.1676852 -0.27699056 -0.46029004 -0.15852131 -0.63309526
1.5317568 -3.7577496 -0.55154747 -0.8034645 -0.5812412 -0.071203135 0.6066141 -2.3689842
0.012227971 0.7479385 -0.6074671 -0.8346648 -1.19553 1.1445882 -0.87199575 0.8278983
-2.3487337 2.1435206 1.1292706 1.4402717 0.09408202 -0.25847775 -0.3954041 -0.40291622
-1.7164217 -0.19251971 -0.036829494 -0.4417099 -1.0522097 0.281473 -1.9593444 -0.07622033
0.6248724 -3.122947 -1.1027793 -0.574345 0.11573032 -0.63654983 0.409509 1.5439032
0.038816966 0.11302728 0.025316793 -0.08944197 0.9299911 1.1784593 -1.3072927 -0.80136395
-1.1161668 -1.1098211 1.487023 -1.0177156 0.088067904 -0.42019975 -1.3236154 -1.240654
-0.049767457 0.22322226 -0.30253184 -0.14269504 0.3323552 -2.1447923 1.5060794 -0.2897812
-2.2533116 1.5663477 0.6728987 -2.3249547 1.0691626 -0.61441654 -0.702459 -1.0341734
-0.09954078 -0.34488675 0.041517697 -1.5799052 0.6509096 -0.4480696 1.2937237 -3.2893353
-0.039641958 -0.08806425 0.26226032 0.18181726 0.44406375 -0.7335679 -0.34234044 2.4352355
0.6138698 0.39078525 -0.438628 0.4998055 -1.8097379 -0.5883793 -1.9004722 0.5259294
0.55498624 0.7010507 0.7601994 0.5722571 -0.019712491 1.117126 0.7408697 2.2640607
0.1252691 0.37328836 1.3241681 0.5483024 1.5825535 -1.0525571 1.1789703 0.5609654
0.1470774 -1.1413459 -0.8688971 0.6393911 -2.971317 1.3111264 0.0058976403 0.5810998
-0.88880473 -0.12158973 -0.7189409 -2.6064446 -1.1157831 -0.20825312 1.6840847 0.90935916
-1.1302158 4.4152455 2.213817 0.17193712 0.25464648 0.660041 0.5165224 0.06986038
0.22202012 -0.39073265 -0.86675775 -0.43581143 1.0880215 -0.26902133 1.6710423 -0.82554066
0.49704343 1.4663494 0.5426203 -1.7184231 0.69061786 0.10250348 -1.4806563 -0.055857074
00000000: 6329 2a3f c5cf 2cbf bdf4 06be 1b0c b33e
00000010: eaad 3ac0 9d0d f53e c9dd 863f 3e1a a9bf
00000020: e2c8 3f3f 00ff 3940 50a5 aa3f 1a5c ba3f
00000030: fc2a 76be 5885 ebbe 2d79 0cbf a6c5 0940
00000040: 6289 6f3f 1b32 8ebe 7ce9 18be 4f33 b03e
00000050: 5ca7 663f 2378 533f be2f 2c40 6a85 263f
00000060: 6619 ef3f 45a2 11c0 80c0 26c0 67d3 9f3f
00000070: 84a4 83bf 1dee 8bbf d629 1fbf 5d9a 0bbf
00000080: 3af7 2ebf 5fff 95bf 5ad3 8fbf 91b0 1dbf
00000090: 4145 293f 2343 1f3f 38f1 a3bf e62e 933f
000000a0: 734b 813e 4419 6f3f 91ef c13e 757c 51bf
000000b0: f18e b9be e82b b93e 6c5c 50bf 2519 88bf
000000c0: 0295 46bf 24d6 303f fd67 bc3e f41a 953f
000000d0: cdc0 af3e 8611 1a3e 4670 6d3e e00e 34bf
000000e0: 5611 823f b807 79be c2d4 1c40 9696 46bf
000000f0: b8fb 7b3f be2d e13e 6f67 dabf cf6a 223f
00000100: 826a 98bd ea9e 093f d6e8 89be 51da 00bf
00000110: 9b8e ef3e 2eba b8be 6df7 fabf 3678 71be
00000120: 0591 32c0 e13b b3bf 2b8c f13e b206 6ebf
00000130: e914 21c0 6f59 893e d296 acbf 6352 e6be
00000140: c99d 07bf 041c 5dbe 022f 223e 70ba c5bf
00000150: 0849 313f 5a4c b03c fd98 2bbf 13e9 d23e
00000160: 4384 5dc0 8202 4fbf f7e4 b7be c089 80bf
00000170: 45d1 2ec0 f93c debe 9b9f aa3e 21e5 66be
00000180: e379 033e 5566 853e 88e0 543e abb5 2b3e
00000190: b5d1 8dbe 23ab ebbe 6953 22be 8812 22bf
000001a0: 9b10 c43f f87e 70c0 3732 0dbf d9af 4dbf
000001b0: 39cc 14bf f3d2 91bd 104b 1b3f 709d 17c0
000001c0: d457 483c e678 3f3f f782 1bbf 98ac 55bf
000001d0: 2107 99bf de81 923f 1d3b 5fbf 25f1 533f
000001e0: a751 16c0 712f 0940 f08b 903f d35a b83f
000001f0: 13ae c03d 3257 84be 6872 cabe 094b cebe
00000200: b5b3 dbbf e323 45be 86da 16bd cd27 e2be
00000210: cfae 86bf 3b1d 903e cccb fabf 6819 9cbd
00000220: a3f7 1f3f 5dde 47c0 df27 8dbf 4608 13bf
00000230: 0504 ed3d eef4 22bf 2aab d13e 9f9e c53f
00000240: 8afe 1e3d d97a e73d 2a65 cf3c 5a2d b7bd
00000250: e613 6e3f c1d7 963f 5e55 a7bf 3026 4dbf
00000260: 8ede 8ebf 9e0e 8ebf c556 be3f 8144 82bf
00000270: f25c b43d 6c24 d7be 3b6c a9bf c0cd 9ebf
00000280: f6d8 4bbd 6094 643e 74e5 9abe a61e 12be
00000290: 762a aa3e 4744 09c0 36c7 c03f 345e 94be
000002a0: 4236 10c0 157e c83f 1743 2c3f 0fcc 14c0
000002b0: 52da 883f 674a 1dbf 5ad4 33bf cb5f 84bf
000002c0: 09dc cbbd ff94 b0be 760e 2a3d 553a cabf
000002d0: 03a2 263f 6169 e5be bd98 a53f 7884 52c0
000002e0: 9b5f 22bd 085b b4bd fc46 863e 4e2e 3a3e
000002f0: 535c e33e 1bcb 3bbf 3f47 afbe e6da 1b40
00000300: 9226 1d3f 0115 c83e d993 e0be 82e6 ff3e
00000310: 7ea5 e7bf 07a0 16bf ac42 f3bf 4fa3 063f
00000320: 9413 0e3f 0f78 333f 6e9c 423f 717f 123f
00000330: 177c a1bc fcfd 8e3f a3a9 3d3f 5fe6 1040
00000340: 8b46 003e a71f bf3e 577e a93f 8c5d 0c3f
00000350: 1d91 ca3f 31ba 86bf 80e8 963f 6e9b 0f3f
00000360: 759b 163e 9f17 92bf 0a70 5ebf 23af 233f
00000370: 0f2a 3ec0 fdd2 a73f fe40 c13b f5c2 143f
00000380: b588 63bf 0904 f9bd 830c 38bf fdcf 26c0
00000390: fbd1 8ebf 4e40 55be 1690 d73f c3cb 683f
000003a0: e9aa 90bf b149 8d40 2daf 0d40 4910 303e
000003b0: 0661 823e 72f8 283f d03a 043f f512 8f3d
000003c0: 3e59 633e 1c0e c8be d6e3 5dbf ad22 dfbe
000003d0: 4a44 8b3f 2abd 89be b7e4 d53f a256 53bf
000003e0: 7a7c fe3e 56b1 bb3f 2ae9 0a3f 4af5 dbbf
000003f0: 55cc 303f 58ed d13d 2586 bdbf 63ca 64bd

attention_layer.value.weight f4 [16, 16]
-0.60206497 0.2712566 -0.51507187 0.50167775 1.5709758 1.1722319 -0.8654822 -0.43337905
1.5656505 -0.81931114 0.6195303 -0.4711467 -4.286682 -0.51459765 0.884996 0.49003708
-0.4206517 0.2661162 0.16111104 0.20781931 -1.1215835 -1.593046 0.37985522 -0.5275309
-0.25060865 -0.30922672 2.639389 -0.9953687 1.2732165 0.81268966 -0.73710954 0.91538864
-0.31098792 0.42069918 0.17452323 0.45464468 -1.4094428 -1.8967369 -0.23711126 0.61128247
-0.23111759 0.57525116 -0.45158398 1.4568856 -1.0607398 0.35529715 -0.6349144 -0.2423623
-0.70472974 0.44399834 0.26589155 0.6769283 -0.5976829 -2.0464885 0.1890059 -0.4302114
-1.6569031 2.045826 0.18617333 -1.9044536 0.7952887 -0.3233513 -1.4933008 1.7706318
0.04040784 1.4928551 -0.45509893 -0.14113891 -1.565759 -1.4955448 -0.1843772 0.69025517
0.7890335 0.78211594 -0.090273276 0.019631792 0.5546226 0.40062562 -0.37513995 0.48016107
-0.52102757 -1.7251709 0.6674177 1.3759058 0.5242201 -0.5715549 0.37308896 0.977115
-2.0253649 0.45945194 -0.5623599 0.16202539 0.69339496 1.5235859 1.0402583 -0.06401431
0.022116236 -0.4810742 0.36815482 0.10486841 0.007967519 0.2426683 3.1229548 -1.2771294
-0.83803177 1.0422562 1.8423696 -0.31244177 0.25109354 0.22660007 -4.1816134 -0.63821495
-0.06907365 -0.52323705 0.19688368 -0.0099361865 1.2089645 -0.53628063 -0.9847395 0.941795
-1.5913497 -0.17834598 -2.1246083 -0.65963465 1.1071593 1.1547054 2.310492 -0.0073415744
0.39360347 -0.008247994 0.32619438 -0.5052475 -0.4466224 1.4645866 -0.168557 -0.36959004
3.2602558 -1.1626731 0.65788436 0.30819035 1.0089837 0.064290166 0.15042722 -0.10918112
0.43537924 -0.23069789 0.9212166 -0.20841579 -0.41518974 -0.831529 0.9942775 0.5075818
-1.0480229 0.594231 -1.7852856 -0.53834987 3.500388 -0.88849145 -0.15314978 -0.42492095
0.032706775 0.31397858 -0.06337035 0.8045478 1.9742357 0.86490744 0.9685189 -0.20401037
-0.0046865563 -0.7228519 0.30376425 -1.9408755 -0.6650441 -0.74493414 -0.45142618 0.40791905
0.16865367 0.17577933 0.32604122 0.26804614 -0.50175595 -1.1357144 0.6854249 0.6140428
-0.011714561 -0.0809912 -1.00241 1.0258859 2.8523533 0.26724583 -1.2999513 -0.6610275
-0.3883198 0.070994936 0.14867702 -0.8287086 -0.22102648 0.17229499 0.29208633 -0.6034566
-1.4467685 0.81912464 2.1549811 -1.1380421 -1.7346959 -1.0301784 -1.7445964 2.016283
-0.69970846 0.26130563 0.7384799 -0.4340074 3.201597 -0.031851687 0.8061962 -0.43473434
-0.506036 -0.54841185 -1.1043363 -0.7929831 -2.1806161 -0.72693783 -0.4037803 0.22424893
0.29889476 -0.7753376 0.94214314 0.2617155 -0.80635047 -0.48715562 -0.46857202 -0.90761185
-2.0325568 0.20417583 0.8574072 -0.87859267 1.230076 0.6680282 -1.2346259 0.14990823
0.659864 0.43212026 -0.28903094 -0.6438332 0.22678843 -0.46791852 -0.23056185 -1.2306888
-0.038802702 -1.6620454 -0.23619556 -1.0741073 2.157753 0.2528151 1.3423247 -1.4671082
00000000: ee20 1abf 25e2 8a3e c0db 03bf f46d 003f
00000010: bc15 c93f b20b 963f 3e90 5dbf dce3 ddbe
00000020: 3c67 c83f 60be 51bf 8a99 1e3f 243a f1be
00000030: 802c 89c0 acbc 03bf 198f 623f 24e6 fa3e
00000040: a95f d7be 6240 883e 4bfa 243e 96ce 543e
00000050: 0c90 8fbf eee8 cbbf 627c c23e 440c 07bf
00000060: c74f 80be f752 9ebe c0eb 2840 7cd0 7ebf
00000070: c2f8 a23f 6e0c 503f 36b3 3cbf e956 6a3f
00000080: cf39 9fbe e265 d73e 38b6 323e 30c7 e83e
00000090: 9f68 b4bf 46c8 f2bf 4bcd 72be 027d 1c3f
000000a0: 17aa 6cbe a943 133f 0436 e7be 3a7b ba3f
000000b0: 52c6 87bf 82e9 b53e c089 22bf d32d 78be
000000c0: 2b69 34bf c053 e33e f022 883e 2c4b 2d3f
000000d0: bf01 19bf abf9 02c0 c38a 413e ab44 dcbe
000000e0: 6715 d4bf d0ee 0240 39a4 3e3e 23c5 f3bf
000000f0: 0a98 4b3f 4d8e a5be 7b24 bfbf 10a4 e23f
00000100: b182 253d e015 bf3f ba02 e9be b886 10be
00000110: ca6a c8bf 036e bfbf 60cd 3cbe 90b4 303f
00000120: 19fe 493f c038 483f 32e1 b8bd dad2 a03c
00000130: bffb 0d3f cd1e cd3e 5812 c0be acd7 f53e
00000140: 1062 05bf 66d2 dcbf e3db 2a3f ae1d b03f
00000150: 4a33 063f 6c51 12bf 8405 bf3e 3524 7a3f
00000160: 949f 01c0 493d eb3e d2f6 0fbf fce9 253e
00000170: 5582 313f dd04 c33f 2f27 853f ef19 83bd
00000180: 1c2d b53c 5c4f f6be ca7e bc3e 40c5 d63d
00000190: 328a 023c 0a7e 783e 7ede 4740 fa78 a3bf
000001a0: 4089 56bf a768 853f c4d2 eb3f 5ef8 9fbe
000001b0: 558f 803e d909 683e c7cf 85c0 0e62 23bf
000001c0: 7c76 8dbd ddf2 05bf e09b 493e 63cb 22bc
000001d0: 59bf 9a3f b049 09bf e317 7cbf 7a19 713f
000001e0: 59b1 cbbf 54a0 36be 95f9 07c0 d1dd 28bf
000001f0: 65b7 8d3f 63cd 933f 1adf 1340 9791 f0bb
00000200: 6586 c93e 9822 07bc f302 a73e e657 01bf
00000210: b1ab e4be 9377 bb3f 359a 2cbe e83a bdbe
00000220: 08a8 5040 79d2 94bf 1c6b 283f 20cb 9d3e
00000230: 6126 813f 90aa 833d 9809 1a3e 5a9a dfbd
00000240: 07ea de3e 113c 6cbe dad4 6b3f f36a 55be
00000250: c093 d4be 16df 54bf f888 7e3f e1f0 013f
00000260: 9d25 86bf 861f 183f 3d84 e4bf 4cd1 09bf
00000270: 5b06 6040 2d74 63bf 4cd3 1cbe 3d8f d9be
00000280: 8af7 053d cdc1 a03e 50c8 81bd d8f6 4d3f
00000290: c1b3 fc3f 936a 5d3f dbf0 773f 18e8 50be
000002a0: af91 99bb d20c 39bf fd86 9b3e 9c6e f8bf
000002b0: 5540 2abf 01b4 3ebf 5521 e7be c4da d03e
000002c0: 8cb3 2c3e 7fff 333e e0ee a63e 583d 893e
000002d0: 1473 00bf 175f 91bf 0278 2f3f e931 1d3f
000002e0: 6eee 3fbc b7de a5bd f94e 80bf 3b50 833f
000002f0: f58c 3640 72d4 883e ce64 a6bf 1939 29bf
00000300: dad1 c6be cb65 913d ca3e 183e 3f26 54bf
00000310: c454 62be 196e 303e 578c 953e 227c 1abf
00000320: b62f b9bf 27b2 513f 36eb 0940 5dab 91bf
00000330: 840a debf e3dc 83bf ef4e dfbf c80a 0140
00000340: 1820 33bf dac9 853e 050d 3d3f 3836 debe
00000350: f7e6 4c40 ea76 02bd e062 4e3f 8095 debe
00000360: 938b 01bf b864 0cbf e45a 8dbf f100 4bbf
00000370: 378f 0bc0 9918 3abf 4bbc cebe 83a1 653e
00000380: bc08 993e 867c 46bf 4b30 713f 93ff 853e
00000390: fc6c 4ebf 766c f9be ace8 efbe 4059 68bf
000003a0: 6915 02c0 7813 513e 0a7f 5b3f 73eb 60bf
000003b0: 2173 9d3f e503 2b3f 3908 9ebf 8b81 193e
000003c0: d9ec 283f de3e dd3e ddfb 93be 41d2 24bf
000003d0: 3a3b 683e 0493 efbe 6818 6cbe 3687 9dbf
000003e0: 95ef 1ebd e7bd d4bf 40dd 71be 597c 89bf
000003f0: a018 0a40 fb70 813e 4cd1 ab3f 34ca bbbf
