Sleep_stage_classifier/Local_classifacation/ConvTran/output/20250718172833/model.pth (torch, 258565 bytes, 28 tensors)

embed_layer.0.weight f4 [64, 1, 1, 8]
00000000: 7a9d 713c 96ff e33f 4f76 07c0 3956 2bbf
00000010: be53 093f 4305 4b3d 1a3a 57bf ca8f eb3e
00000020: 8319 73be 2513 c93e 63f0 12bf 02bf ecbf
00000030: 0745 3dbf b2c0 873f 98f6 8b3e 73b2 cd3f
00000040: 57ff bbbc 7a73 75be f5f7 133f 8788 4ebe
00000050: 661f 07bf 6ac6 2cbd 0f29 a9c0 90fa 503e
00000060: 0828 5e3f 0803 97bb 39c9 b7bf cf41 22bf
00000070: e0d2 d93f ff20 213f 17ca b5bf 004b 3c3e
00000080: 6bb6 76be 6e5f 7d3f f1fa da3f 5e5b 1040
00000090: c59b 543f 48e4 8d3f a15d afbe 533b cfbe
000000a0: 7904 63bf b8e0 0f3f c6a7 ed3d 2258 d33e
000000b0: 7b0c 13bf 9580 07c0 fe55 243f 0579 b63f
000000c0: d40e 0a40 60b1 b83d b52a 8ebf 1e0e 59bf
000000d0: 8823 a6be 1074 69bf 40ad 433f f982 ebbe
000000e0: f5ca acbd 8a8d c63e 3162 ddbd b487 873e
000000f0: deb0 89bf 7fbf 9dbf 4878 d3bf bf76 3ec0
00000100: 91c6 b93d 130f 34bd c2c8 01be 692a 523d
00000110: 1df5 2bc0 d1e0 823f 31f5 a83f 7261 873c
00000120: 53fe 23bf d67c 763f afff adbd 002b a5bf
00000130: d469 7fbd c36a 83bf 992d e2bf ddb4 d43f
00000140: 35e1 a0bf 8430 b43f 5c8c 20bf ba3d 853f
00000150: 4e94 8abe 6303 0c40 5dfe 6dbf 1d29 0d3f
00000160: 5228 1140 d53f ae3f f0dc d1be 9a6b 21be
00000170: 6143 a0be 85ad 88bf 6012 8fbf 2b84 2a3f
00000180: eb76 6dbf 6129 f5bd 31d4 e9bb 3d78 dfbf
00000190: 152b c13f f392 3f3e 9704 ccbe 4550 8d3f
000001a0: 4f0f 523f 80ca 8ebf 83d7 23be 5436 8d40
000001b0: 97f5 31bd 6b84 dd3d 3dde 39bf 510d db3e
000001c0: 2231 973e a337 fcbf a700 c13e bf78 aa3f
000001d0: e635 ddbf 1e06 fb3e df63 853e b88c e23e
000001e0: d705 6bbe b4a9 753f 364f 40bf 45f8 bcbf
000001f0: ec74 12c0 f2cb 2dbf 1174 e2be 0e51 87bc
00000200: f5e9 c73e fec1 1c3f 5fcd 9e3f 7f82 853f
00000210: d8b4 343f acd6 aa3f 6137 8b3e 1f73 563e
00000220: 4f36 8ebf 9702 bdbf 10ab cfbe 46c8 9cbe
00000230: 6a84 513f 7e58 9f3f 8454 b63f b74e 6c3d
00000240: 59be 03bf 72d3 6cbf d660 e53e acb3 2d3f
00000250: ac8f 6540 fcc5 6dbf e646 2abe 69be b4bd
00000260: 7495 e23e de3c ed3d e1e9 d6bf 0967 0abe
00000270: fdde 963f 179c 1ec0 40cf 853b 2828 be3e
00000280: 0540 dcbe 74b2 86bf 30e7 b9bf aad1 87bf
00000290: 2517 8a3f e64d ce3f 5be7 b43e f244 df3e
000002a0: 8785 a1be 7747 87bf 984c 7cbf 6fad d33e
000002b0: a117 cabe 1ee3 15bf e513 b73f ccb9 0640
000002c0: ba93 0c40 d2d1 a53e 1576 653b 41d5 5bbe
000002d0: 7bf5 96bf 160e 4fbf aed0 91bf 367f 3d3f
000002e0: e3f1 543e 83a5 1c3f 2c47 0c3f 161e 51c0
000002f0: afd8 debf 5b04 34bf 1737 193f 549e 393e
00000300: 7a03 3d3e a3ff 7f3f 44d5 73bf da7f e63f
00000310: b202 363f e30c 5b3f de43 b0bf fd45 b53e
00000320: 27e3 00bf 4326 113e ed56 243e e87e ef3e
00000330: 0aae 3c3f 7971 7bbf 4590 09c0 22ef ef3f
00000340: 4a1e 1fbe d431 c9bf d901 043f fe92 e23f
00000350: ebf9 73bf 73ab 8ebf ebb0 fdbd cc97 423f
00000360: bdb9 ed3f e782 20bf c36f f7bf 829e b4be
00000370: 066a 5b3f dd04 bdbd 55c9 633d ae21 a0bd
00000380: 1444 d0bf 2cb1 aebe 0448 bbbf 3764 ddbe
00000390: a892 b5bf 70b7 053c 2700 1ebf b9f4 3cbf
000003a0: da13 89be 1a5e b1bf 913d e53f 11ed 2540
000003b0: c1b0 273d 804a 57bf ac6f c4be d586 1f3f
000003c0: 7b6f 1ebf c7e8 463f 10de 7fbf 91e7 bf3f
000003d0: ff41 753f 4f79 b6bf 824f c13f b54a babe
000003e0: 0923 913e 4d05 933d 6b88 d2bf f4eb 2e3f
000003f0: af7d 00bd daca e2bd 54eb 2740 155a 17bf
0.014747018 1.7812374 -2.116596 -0.6692844 0.53643405 0.049565565 -0.8407303 0.4600814
-0.237402 0.3927242 -0.5739805 -1.8495791 -0.7393345 1.0605681 0.27336574 1.6070083
-0.022948904 -0.23969832 0.5780023 -0.20169269 -0.52782285 -0.04218141 -5.286262 0.20408082
0.8677983 -0.0046085157 -1.4358283 -0.63381666 1.7017479 0.62940973 -1.4202298 0.18387985
-0.24093024 0.9897374 1.7107831 2.2555766 0.83050185 1.1085291 -0.3425112 -0.40474948
-0.886787 0.5620227 0.11604266 0.41278177 -0.5744092 -2.117223 0.64193714 1.4255682
2.157155 0.090182066 -1.1106783 -0.84787166 -0.32448983 -0.9119272 0.76436234 -0.45998362
-0.084371485 0.3877986 -0.10809744 0.2647072 -1.07571 -1.2324065 -1.6521082 -2.9759977
0.09071077 -0.04395969 -0.1267424 0.051309977 -2.6868355 1.0224859 1.3199826 0.016525958
-0.6405994 0.96284235 -0.084960334 -1.2903748 -0.062356785 -1.0266956 -1.7670165 1.6617695
-1.2568728 1.4077306 -0.6271417 1.0409462 -0.27066272 2.1877067 -0.9296625 0.5514086
2.268086 1.361323 -0.40988874 -0.15763703 -0.31301406 -1.0677954 -1.1177483 0.6660792
-0.9275958 -0.11970783 -0.007135891 -1.7458569 1.5091273 0.187084 -0.39847252 1.1040121
0.8205461 -1.1155548 -0.1600018 4.412882 -0.043447103 0.10816272 -0.72604734 0.42783597
0.29529673 -1.9704479 0.3769581 1.3318099 -1.7282073 0.49028105 0.26052758 0.44247985
-0.22951446 0.9596207 -0.75120866 -1.4763266 -2.2883863 -0.6788932 -0.44229177 -0.016518142
0.39045683 0.6123351 1.2406424 1.0430449 0.70588446 1.3346763 0.27190688 0.20942353
-1.1110324 -1.4766415 -0.40560198 -0.30621547 0.8184267 1.2448881 1.4244542 0.057692256
-0.5146232 -0.9251014 0.44800442 0.6785228 3.586894 -0.92880225 -0.16628608 -0.0882538
0.4425465 0.11583875 -1.6790124 -0.13515867 1.1786801 -2.478277 0.004083544 0.37140012
-0.43017593 -1.052321 -1.4523678 -1.0610859 1.0788313 1.6117523 0.3533276 0.4360729
-0.31547186 -1.0568684 -0.9855437 0.41343257 -0.39471152 -0.5854968 1.4302946 2.1050901
2.1965165 0.32386643 0.003501301 -0.21468069 -1.1793665 -0.8088087 -1.1391809 0.74022233
0.20795397 0.6119005 0.547961 -3.2674613 -1.7409877 -0.70319146 0.59849685 0.18126804
0.18458357 0.99999446 -0.9524729 1.8007767 0.7109786 0.8556654 -1.3770711 0.3540496
-0.50346607 0.14174752 0.16048785 0.4677651 0.7370306 -0.9822002 -2.1494305 1.8744853
-0.15538898 -1.5718331 0.5156532 1.7701108 -0.9530322 -1.1146072 -0.1238726 0.76012874
1.8572308 -0.6269974 -1.9330982 -0.35277182 0.85708654 -0.09229443 0.055611927 -0.07818924
-1.6270776 -0.34119546 -1.4631352 -0.4324052 -1.4185381 0.008161411 -0.6171898 -0.7381092
-0.26772958 -1.3856843 1.7909414 2.5925944 0.04094005 -0.8409805 -0.3836645 0.6231511
-0.61888856 0.7769894 -0.99948215 1.4992543 0.9580383 -1.425577 1.5102389 -0.36385122
0.28347042 0.071787454 -1.6447881 0.68328786 -0.03136986 -0.11073847 2.6237383 -0.5912183

embed_layer.0.bias f4 [64]
00000000: 6a95 63bd fc95 693b 5c7d 02bd c7c0 d53c
00000010: 6850 253e f7f6 8ebe 7a65 e0be a4be d13b
00000020: bc82 923e 0b64 25bd afab 503e c132 223e
00000030: 7893 37be ffce aabe 1450 5a3e 2d6c 53be
00000040: 3c98 e4bc ca37 813e d529 a8be 4c38 41be
00000050: 34b7 103e 93af 593e 0b1a debd c5fb d6bd
00000060: 54c0 8c3e 5b17 a5be 9c1f 29be 78a2 e8bd
00000070: 5354 ae3e 428b 39be d63d e7bd 6de0 9f3e
00000080: 7020 543e a206 cb3d ea5f eabd 1565 5cbd
00000090: fa92 b03e 6c77 8f3e d34b e0be ec7a a43d
000000a0: 98d4 4c3e a2fa 8d3e 5d72 833e 1806 94bd
000000b0: bbdd 413e a99d 49be 906a 843c 8a0f eb3d
000000c0: 1abc a6bc 6b4d 1a3c 5506 8a3e 48a3 c03b
000000d0: 26c5 363e e5ee 7d3e 6f73 8b3e 24b1 dd3e
000000e0: 0b9a 39be c17f 673d 2c8c 13bb ed14 1a3e
000000f0: 6107 67be d692 b3be ca9a 99be d6eb 113e
-0.055562414 0.0035642376 -0.031857833 0.0260929 0.16143954 -0.27922794 -0.4382742 0.0064009
0.28615367 -0.04037861 0.20377992 0.15839674 -0.17927349 -0.3336105 0.2131961 -0.20646735
-0.027904622 0.25237876 -0.32844415 -0.18869132 0.14132386 0.21258382 -0.10844811 -0.1049724
0.27490485 -0.3224438 -0.16515964 -0.113591135 0.3404871 -0.18119529 -0.11291091 0.3122591
0.20715499 0.099133745 -0.114440754 -0.053807337 0.34487134 0.280208 -0.4380785 0.08031258
0.20002973 0.2773028 0.2567319 -0.07227725 0.1893224 -0.19689049 0.016164094 0.11477573
-0.020353366 0.009417872 0.26957956 0.0058788396 0.17848644 0.24798162 0.27236506 0.4329921
-0.18125169 0.05651832 -0.002251397 0.15047045 -0.22561409 -0.35072964 -0.30000907 0.1425012

embed_layer.1.weight f4 [64]
00000000: 6d11 6040 eb65 be3f 9632 c93f bc3d ff3f
00000010: 5321 203d 03f3 0c40 94ab 4f40 c71d 3a40
00000020: 4f5d 3640 3bd6 e73f 57ca 813f 828c 9c3f
00000030: 2124 fa3e 2687 9f3f 9032 1c40 2de0 813f
00000040: ee14 acba 328f 3d40 f886 b13f 0c56 2d3f
00000050: f843 4c40 0d8e ff3f 7736 ae3e dd48 9e3f
00000060: 0f3b 823f 8acc 4140 4482 0d40 1ae1 4d40
00000070: 73b8 573f d0f6 c23f cd17 a03f 4e80 9a3f
00000080: cb55 793f c2a1 6f40 48f2 1e40 b7ff df3f
00000090: 5a3a a1ba 8cbf 9f3f 3e9d 5e40 dc57 6740
000000a0: 4b2f b13f 7d18 1040 e613 bab5 e7de 9a3f
000000b0: 868f f53f ae11 8935 5dd0 0e40 7ea3 4ab7
000000c0: d47b 0340 750e e13f e55f 2340 f968 4d40
000000d0: ddd8 0c40 f509 4c3f fbdf 5a3f 4f74 3640
000000e0: 812e 5340 8a9b 763f 8ddd 4740 305e 503f
000000f0: da91 5240 5b49 d13c 0986 0140 061a bf3f
3.5010636 1.4874853 1.5718563 1.9940715 0.03909428 2.2023323 3.2448473 2.9080675
2.849445 1.8112253 1.0139874 1.223038 0.4885569 1.2463119 2.440586 1.0146538
-0.0013128796 2.961865 1.3869314 0.6770942 3.1916485 1.9965225 0.34025928 1.2365986
1.0174273 3.028109 2.2110758 3.216864 0.8426582 1.5231571 1.2507263 1.2070405
0.97396535 3.744248 2.4835377 1.7499913 -0.0012300715 1.248033 3.4783473 3.6147375
1.3842558 2.2514946 -1.3863871e-06 1.2099274 1.9184425 1.0212441e-06 2.2314675 -1.2078204e-05
2.0544329 1.7582537 2.552728 3.209532 2.2007363 0.79702693 0.8549802 2.850849
3.2997134 0.96331084 3.1228974 0.8139372 3.290152 0.025547674 2.0238059 1.4929817

embed_layer.1.bias f4 [64]
00000000: 4dc8 81bf d0b4 debf ce58 c33e bf79 09c0
00000010: af8b 50bf 0772 c4ba 3c0c a0bf ee77 77bf
00000020: 2761 5c3f d7b8 423f ae62 88bf 0189 61bf
00000030: 0f80 97bf 8e15 c2bf a658 33c0 5bad a73e
00000040: 6eca 4abf 50dc ad3f 1193 a4bf 029a d0bf
00000050: 16c5 46bf 932a 153f 29b0 cf3e f9b6 283f
00000060: 5611 e8bf 63c8 f4bd 4a8e 0ebf 6124 bebe
00000070: 7129 d03d 98cf acbf f35b b1bf d34d 91bf
00000080: 232c 383e 57d4 57be 3521 d8bf c776 493f
00000090: 9c2f 40bf bd1e 84bf ee8a aebe c8c2 903f
000000a0: c31f 093f 2908 debe 1a75 40bf c4bd 1c3f
000000b0: c78e f7bf 4e75 40bf 8fbd 083f 3075 40bf
000000c0: 662a f9be 5523 6d3f 469a 62bf 49c8 4abf
000000d0: 234b babf c527 47bf b13a c7bf afb8 b9bf
000000e0: 4d45 883f db65 acbd e901 54bf 6be6 cabf
000000f0: 7dbc d93e b921 34bf 47ec c2be f3ed 953f
-1.0139252 -1.739893 0.3815369 -2.1480558 -0.8146314 -0.0014987596 -1.2503734 -0.96667373
0.8608574 0.76063293 -1.0655115 -0.88099676 -1.1835955 -1.5162828 -2.8022857 0.32749447
-0.79215133 1.3582859 -1.2857381 -1.6297 -0.7764448 0.5826809 0.40564087 0.65904194
-1.813029 -0.11952283 -0.55685866 -0.3713713 0.10164154 -1.3500853 -1.3856186 -1.1351875
0.17985587 -0.21077095 -1.6885134 0.78696865 -0.75072646 -1.032188 -0.3409037 1.1309443
0.5356409 -0.433656 -0.7517868 0.6122706 -1.9340447 -0.7517899 0.53414243 -0.75178814
-0.4866516 0.9263204 -0.8851665 -0.7921186 -1.455418 -0.7779506 -1.5564786 -1.4509486
1.0646149 -0.08417865 -0.82815415 -1.5851568 0.42526618 -0.70363957 -0.3807089 1.1713241

embed_layer.1.running_mean f4 [64]
00000000: 10a5 c3c1 8d52 a9c0 5f6a 37c3 fa41 91c0
00000010: 0f7e 4643 96c6 7ec1 9462 bcc1 84f8 54c3
00000020: b482 48c1 1aa4 93c2 e7df 8f42 5565 2242
00000030: e5c1 6bc1 9a9f f842 8b4a 85c1 35cc 24c3
00000040: 8943 4143 8525 e740 7e32 8942 7092 95c2
00000050: a50a a7c1 7fd2 a141 cba9 5bc0 fc7e efc2
00000060: a936 ad42 f777 1ac1 021c eac1 e511 2fc1
00000070: f76f 5bc3 0245 9042 b7be 3442 9049 2142
00000080: 723f bcc2 447f 88c3 58d5 9dc1 d961 cdc1
00000090: db1b 44c3 52fe 0442 aed8 6ac1 2c02 b3c2
000000a0: 7901 6fc3 fde2 04c2 e113 11c3 94fd 80c3
000000b0: 52fe c941 1bd5 3843 1af5 2d43 2629 01c3
000000c0: f6ce 5cc3 aba5 64c3 f504 67c3 41ff 4bc2
000000d0: da67 8fc0 be98 f640 611b b142 9625 0fc2
000000e0: a00a cdc2 8871 0143 0de0 90c2 437b 6d42
000000f0: 8c15 d941 33dd 60c3 fd1f 9cc2 b329 12c3
-24.455597 -5.291327 -183.41551 -4.539304 198.49242 -15.923483 -23.548134 -212.97076
-12.53191 -73.82051 71.93731 40.598957 -14.734838 124.31172 -16.661398 -164.79768
193.26381 7.22333 68.59862 -74.78601 -20.880198 20.227781 -3.4322383 -119.74802
86.60676 -9.654288 -29.263676 -10.941869 -219.43736 72.13478 45.186245 40.32184
-94.12392 -272.99426 -19.729172 -25.672777 -196.10881 33.24836 -14.6779 -89.50424
-239.00575 -33.22167 -145.07765 -257.98108 25.24918 184.83244 173.95743 -129.16074
-220.80844 -228.64714 -231.01936 -50.99927 -4.481427 7.7061453 88.553474 -35.786705
-102.52075 129.44348 -72.4376 59.370373 27.13552 -224.86406 -78.06248 -146.16289

embed_layer.1.running_var f4 [64]
00000000: 0539 a944 a5aa 4644 8e03 1647 be36 2444
00000010: a863 2247 562c 5944 ccb3 a244 5939 4547
00000020: 3f06 5644 26cc c645 ccf2 c345 cd33 2e45
00000030: 6319 5644 ba7e 8946 23c4 8444 3ff1 e346
00000040: 284c 1a47 57af 8a44 e3bc bd45 3d2e ce45
00000050: 1204 a644 1cd5 ca44 a7d5 6944 4ec2 7946
00000060: 775d 0246 6506 4044 19ae cc44 918c 4844
00000070: 3c3e 4847 7f76 c545 a690 2f45 b2b1 1e45
00000080: 1a51 1b46 85b1 9b47 eb0f 8b44 b773 ab44
00000090: 2e50 1f47 c492 0245 162f 8944 7b42 0e46
000000a0: 957b 6d47 ed26 e844 c345 ae46 bfd3 8947
000000b0: 3baf f044 bc8b 0d47 5184 ff46 fa1c 8a46
000000c0: fea2 5147 0aba 5947 9f83 6147 5713 6f45
000000d0: a35a 2844 e658 3844 6dc1 0a46 2a9d 0845
000000e0: 159e 3c46 081b 9346 aaf2 c545 897c 9745
000000f0: b749 f344 fcf2 5147 d64c f045 bb09 b846
1353.7819 794.6663 38403.555 656.85535 41571.656 868.69275 1301.6187 50489.348
856.0976 6361.5186 6270.3496 2787.2375 856.39667 17599.363 1062.1293 29176.623
39500.156 1109.4794 6071.611 6597.78 1328.1272 1622.6597 935.3383 15984.576
8343.366 768.0999 1637.4406 802.19635 51262.234 6318.812 2809.0405 2539.106
9940.275 79715.04 1112.4974 1371.6161 40784.18 2089.1729 1097.4714 9104.62
60795.582 1857.2164 22306.88 70567.49 1925.476 36235.734 32706.158 17678.488
53666.992 55738.04 57731.62 3825.2087 673.4162 737.38904 8880.356 2185.8228
12071.5205 18829.516 6334.333 4847.567 1946.3036 53746.984 7689.6045 23556.865

embed_layer2.0.weight f4 [16, 64, 2, 1]
00000000: 6ae4 2440 9108 94bf 604f 00c0 cc2b b3be
00000010: 5a04 31bf 5e22 f5bf 5ed2 03bf d665 debe
00000020: 4dd0 2c3e 3a32 d1bd 226a ff3e 1a1d b33e
00000030: af35 20bf 3f37 babf 91ec 3cbf 1e14 2ec0
00000040: 342c 6d3e 5ea5 10bf 68e1 ffbe a72f 3fbc
00000050: 4fb0 3a3e b709 6140 d909 abbf d0d7 4540
00000060: 8113 7b3a 83da fd3f 6358 17be e379 be3f
00000070: 6adf 6fbe 579b da3e 595f 833e 661a c1bf
00000080: adc5 563d fd68 ec3d 88c3 573f e9e1 1a40
00000090: eac3 86be 1e8b 8e3e bb6d eebd ea1d cc3e
000000a0: f1c3 d2bf b6e5 c63f b44f ae3f 31fe d8bf
000000b0: 6816 82bf b4b2 01c0 c3fa 3b3f f866 3ebf
000000c0: bb43 0a3f 0418 99be 2d29 59be 128a 4cbf
000000d0: 2d84 ccbd 277d 0bbf 48dc abbf baa4 83be
000000e0: 8520 733d 9e92 77bf 89e7 32bf e494 4240
000000f0: 7563 c63e 273d f03e c72e d63e 684d d6bf
00000100: d1a2 863f fdeb 6fbf 0e9c 763f 50d9 7ebf
00000110: 1fe5 8d3e cce4 173c 6807 673f 4dd8 1ac0
00000120: 2773 81be 034c cebd 3c17 a0be 8b41 8e3f
00000130: 2331 ee3d 830e e63e d629 da3f 04c0 cebf
00000140: 8c9c d2bd bc48 6bbf 1c29 b53f f436 2bbd
00000150: 52ca 933e 8e47 f2bd 88bd ae3d 2101 52be
00000160: f229 e7be f987 2ebe 45dc 94be e8a5 0fbf
00000170: 4cd9 42be 8bb4 1640 c402 9dbd 471c 80be
00000180: c10d 303f ee18 0ac0 1a38 acbd d8f7 0abf
00000190: 8087 2f3f 4f0d 85bf 0d45 67bf 47f1 703f
000001a0: a95c 21be 5ed3 71be 3ab7 b73e b1f7 06c0
000001b0: 7bac e23e fbbc a83f 50e1 b1be e853 9c3d
000001c0: 66de be3d 13f9 003f 76e4 6e3e 8fe5 dc3e
000001d0: 5e52 f4bf 8107 0f40 e779 13bf 3bab 0240
000001e0: 2b1b 17bf d8d2 aa3f f8af 563d 1028 28bf
000001f0: aeba 1a3d ea0d c3be 4f60 9c3e 80ad 32be
00000200: 12a6 c13e 6ba0 3f3e a8b7 b63c 8401 563c
00000210: 25bb 7ebf 0909 9e3f d296 07be 37e5 c0bf
00000220: 34fa 11bd 48a1 15bf ee20 3d3f 2c7e a9bf
00000230: da3a d3be 705e b93f c6dd 8cbf 446c 503e
00000240: 275a 373f ecfd 03c0 f238 b3bf 66de 433f
00000250: 3c11 c83d 825b fabf bbac 733d ba02 73c0
00000260: 3c84 79bf 4d26 2a3f 9386 663e c626 0b3f
00000270: 86df a13d 6295 d83f b577 33bf cd0a 9abe
00000280: 6089 283e cc8a efbc a062 2d3e 3a96 513f
00000290: 32ea bb3c f7eb d1be 4cf4 64be 70c2 abbf
000002a0: daa4 8abf 89f1 fa3f ff3f 65be b21d 8c3e
000002b0: 3c59 65be ae70 e0be 2d68 cfbd 7833 6abf
000002c0: be4d 14be 430e f7bf 3415 623e 7967 723f
000002d0: c5b3 0140 54b0 e2be f916 babf 2f81 b33f
000002e0: 359c 1cbe 3e13 d63d 3285 8fbc 8c66 1d40
000002f0: 84b0 73be 0675 7bbf e462 edbd bf32 c13f
00000300: fc4b d4be 23e2 cdbe 5490 b5bf 2d0e 303f
00000310: 6b29 01bf 95f8 c93d d4fb c5bf d727 53be
00000320: b93d 3e3d ceaf 783e c0c0 0a3f 6ead 74be
00000330: 1112 2a3f ecd4 15c0 b545 9a3e a9e3 463d
00000340: bb67 07bf efb2 033f 621f cebf a0df 7b3f
00000350: 2d78 643d 7f87 c03d a434 3fbe fe46 173f
00000360: d89f 5abf 555c 1740 4cd2 183e 600a 673e
00000370: 9d27 aabe d48f f83e 0fa2 16be 0f81 973e
00000380: 7935 a4bf 221d 62be 1dc1 1fbf bc5b 343f
00000390: 3df8 61bf e536 883f 9de2 1440 6e1a 2dbf
000003a0: 41dd 723f 6217 ac3f 744f dbbe 6b5f adbf
000003b0: ceaa 18bf 997b 803d 0f33 70bf f6e3 ee3e
000003c0: 679e c2be 6af4 a53e 9405 96bd ca8e 64be
000003d0: 7177 48bf 6ad7 c3be 0cb2 ff3c e42e 223f
000003e0: b6a6 6abe eb05 66c0 6f21 e03d 5ccd 983e
000003f0: 19d5 2bbf db16 ed3d c43d 12bf 0926 27bd
2.5764413 -1.1565114 -2.0048447 -0.34994352 -0.69147265 -1.9151113 -0.5149287 -0.4343707
0.16876335 -0.10214658 0.4988566 0.3498314 -0.62581915 -1.454811 -0.7379847 -2.7199779
0.23161393 -0.5650233 -0.4997666 -0.011669076 0.18231319 3.516218 -1.336238 3.0912971
0.00095777964 1.983231 -0.1477981 1.4880947 -0.2342507 0.4269664 0.25658682 -1.5086181
0.052434612 0.115434624 0.8428273 2.4200385 -0.26321346 0.27840513 -0.11642023 0.39866573
-1.6466047 1.5538852 1.3618073 -1.6952573 -1.0163088 -2.0265322 0.73429507 -0.7437587
0.540096 -0.29901135 -0.21207114 -0.7989818 -0.09986148 -0.5448784 -1.34266 -0.25711614
0.059357185 -0.96708095 -0.69884545 3.0403376 0.38747755 0.46921656 0.41832563 -1.6742373
1.0518438 -0.93719465 0.9633187 -0.9955034 0.27713868 0.009270858 0.90245676 -2.419452
-0.25283167 -0.10073092 -0.31267726 1.1113752 0.11630466 0.44932947 1.7044017 -1.6152349
-0.10283765 -0.9190786 1.415317 -0.041800454 0.28865296 -0.11830054 0.08532244 -0.20508243
-0.4514919 -0.17044057 -0.29074302 -0.5611253 -0.19028205 2.3547695 -0.07666543 -0.25021574
0.68770987 -2.1577716 -0.08409138 -0.5428443 0.6856613 -1.0394686 -0.9033974 0.9411816
-0.15758003 -0.23615786 0.35881978 -2.108868 0.44272217 1.3182672 -0.34742212 0.07633191
0.09319763 0.5038006 0.23329338 0.4314389 -1.9087636 2.234833 -0.57607883 2.041701
-0.5902583 1.3345594 0.05241391 -0.6568613 0.037775688 -0.38096553 0.30542228 -0.17448997
0.37822014 0.18713538 0.022304371 0.013061885 -0.9950431 1.2346507 -0.13241127 -1.5069951
-0.035639003 -0.5844922 0.7387837 -1.324163 -0.41255838 1.4481945 -1.100518 0.203538
0.71621937 -2.0623732 -1.4001753 0.7651123 0.09768912 -1.9559176 0.0594909 -3.7970414
-0.974674 0.6646469 0.22512273 0.5435604 0.07903962 1.6920588 -0.70104533 -0.30086365
0.16458654 -0.029240988 0.16932154 0.8186985 0.022938821 -0.4100034 -0.22358817 -1.3418713
-1.0831559 1.9604961 -0.22387694 0.27366406 -0.22397321 -0.43835968 -0.10127292 -0.91484785
-0.14482781 -1.9301227 0.22078401 0.94689137 2.0265973 -0.44275153 -1.4538261 1.4023799
-0.15293963 0.10452889 -0.017519567 2.459384 -0.23797804 -0.9822544 -0.115911275 1.5093611
-0.4146422 -0.4021159 -1.418467 0.6877163 -0.50453824 0.098618664 -1.5467477 -0.20620666
0.046445582 0.24285814 0.54200363 -0.23894283 0.6643382 -2.3411207 0.30131307 0.048556957
-0.52892655 0.51444906 -1.6103327 0.983881 0.05577867 0.09400844 -0.18672425 0.590927
-0.8540015 2.3650105 0.14923972 0.22562551 -0.33233348 0.48547232 -0.14710258 0.2959065
-1.2828819 -0.22081426 -0.6240404 0.70452476 -0.88269407 1.0641752 2.3263314 -0.67618454
0.94868857 1.3444636 -0.42834055 -1.3544744 -0.5963563 0.062735744 -0.9382791 0.46658295
-0.38011476 0.32413036 -0.07325283 -0.22320095 -0.78307253 -0.38250285 0.031212829 0.633528
-0.22915158 -3.5941112 0.10943877 0.29844177 -0.67122036 0.11576625 -0.57125497 -0.040807758

embed_layer2.0.bias f4 [16]
00000000: ab14 963e 24d6 2abf 2167 b8bd 5adb 813c
00000010: 7bfd 133d 295e 523f c8d0 93bd 5277 133e
00000020: d960 493e d492 5cbf 9a89 c53e e0e0 9abb
00000030: 0ac7 fd3f f479 193f 4f2c 8a3e 69a3 0640
0.29312643 -0.66733 -0.09004045 0.015851665 0.03613041 0.82174927 -0.07217556 0.14400986
0.1966585 -0.8616154 0.38581544 -0.004726514 1.9826367 0.5995171 0.2698693 2.1037238

embed_layer2.1.weight f4 [16]
00000000: 10d4 8c40 f603 7740 9c9b 0440 9535 3040
00000010: 5ca1 2e40 86f8 8040 cc8b 5140 e919 4d40
00000020: 5d19 e43f e2e5 cb40 87b8 1e40 197d 0840
00000030: dd02 a040 0e85 2240 6974 f03f 6c0a a640
4.4008865 3.8596168 2.0719976 2.7532704 2.7285986 4.0303373 3.2741575 3.2047064
1.782024 6.371812 2.4800127 2.1326354 5.0003495 2.539371 1.8785526 5.188772

embed_layer2.1.bias f4 [16]
00000000: 8182 b73c c646 0d3f 6e6f 8d3f e72f d63e
00000010: 77d6 e5bd 7251 92be 74bb 45be 45ff 02be
00000020: 5b05 d43e 79b9 8abf cf0f e33e 96d0 03be
00000030: 29c3 83bf b4f8 0e3f 5586 95be adf1 7dbf
0.022401096 0.55186117 1.1049631 0.41833422 -0.112225465 -0.28577763 -0.19309789 -0.1279269
0.41410336 -1.0837852 0.44347998 -0.12872538 -1.0293933 0.5584824 -0.2920405 -0.9919689

embed_layer2.1.running_mean f4 [16]
00000000: 40ea f0c1 317e c140 7f7e 2bc1 6735 89c1
00000010: 4d26 8f41 1c3a 6941 62f3 38c2 79e5 8fc1
00000020: 262a 8cc1 d243 0240 5c77 3542 b376 a4c1
00000030: 7acc d7c0 de11 14c0 149a 41c2 3ec1 7041
-30.11438 6.046654 -10.718383 -17.151075 17.893702 14.576687 -46.23768 -17.987047
-17.52058 2.0353894 45.36656 -20.557959 -6.7437105 -2.3135905 -48.400467 15.047178

embed_layer2.1.running_var f4 [16]
00000000: ad06 a642 1faa 8a42 2c63 7b42 72bf 9f42
00000010: 811f d842 b427 4842 fc07 8842 8e81 7142
00000020: fd33 a642 aa2e 9542 4835 ae42 7d82 9642
00000030: b652 5d42 3074 7e42 7b72 8442 79f0 4842
83.01304 69.33227 62.846848 79.87392 108.06153 50.038773 68.015594 60.37652
83.10154 74.59114 87.104065 75.25486 55.330772 63.613464 66.223595 50.234837

Fix_Position.pe f4 [1, 150, 16]
00000000: 0000 0000 0000 803f 0000 0000 0000 803f
00000010: 0000 0000 0000 803f 0000 0000 0000 803f
00000020: 0000 0000 0000 803f 0000 0000 0000 803f
00000030: 0000 0000 0000 803f 0000 0000 0000 803f
00000040: 110a da3d 878b 7e3f c522 0a3d b8da 7f3f
00000050: 65c2 2e3c 46fc 7f3f 0e0f 5d3b a1ff 7f3f
00000060: 63cf 8b3a f7ff 7f3f ebd8 b039 ffff 7f3f
00000070: 3ab2 df38 0000 803f 5a7a 0d38 0000 803f
00000080: d3cc 583e 5732 7a3f a70e 8a3d ed6a 7f3f
00000090: d9bf ae3c 16f1 7f3f bb0e dd3b 82fe 7f3f
000000a0: 5ecf 0b3b daff 7f3f ead8 303a fcff 7f3f
000000b0: 3ab2 5f39 0000 803f 5a7a 8d38 0000 803f
000000c0: de0e a13e 1801 733f b7e3 ce3d beb0 7e3f
000000d0: b40c 033d 73de 7f3f a6ca 253c a5fc 7f3f
000000e0: 00b7 513b aaff 7f3f afa2 843a f8ff 7f3f
000000f0: acc5 a739 ffff 7f3f 8737 d438 0000 803f
00000100: a8e2 d33e b70c 693f 43be 093e 62ac 7d3f
00000110: abb5 2e3d 5bc4 7f3f 710d 5d3c 09fa 7f3f
00000120: 49cf 8b3b 67ff 7f3f e7d8 b03a f1ff 7f3f
00000130: 3ab2 df39 ffff 7f3f 5a7a 0d39 0000 803f
00000140: ef26 023f 2c72 5c3f 8ce2 2b3e 245e 7c3f
00000150: 8b59 5a3d d1a2 7f3f cc27 8a3c aef6 7f3f
00000160: 08c3 ae3b 11ff 7f3f 1f0f dd3a e8ff 7f3f
00000170: 65cf 0b3a feff 7f3f f0d8 3039 0000 803f
00000180: cde1 183f 2656 4d3f c6d4 4d3e 66c6 7a3f
00000190: 87fb 823d d479 7f3f 79c8 a53c 94f2 7f3f
000001a0: b9b6 d13b a8fe 7f3f aaa2 043b deff 7f3f
000001b0: abc5 273a fdff 7f3f 8737 5439 0000 803f
000001c0: cadf 2d3f 9ae4 3b3f 0f8b 6f3e 9fe5 783f
000001d0: 79c6 983d 6649 7f3f ab68 c13c bbed 7f3f
000001e0: 5caa f43b 2cfe 7f3f c5bd 1a3b d1ff 7f3f
000001f0: f2bb 433a fbff 7f3f 1d96 7739 0000 803f
00000200: d1e3 403f 4b50 283f c87d 883e 5abc 763f
00000210: f78c ae3d 8911 7f3f 4b08 dd3c 24e8 7f3f
00000220: f6ce 0b3c 9dfd 7f3f ddd8 303b c3ff 7f3f
00000230: 38b2 5f3a faff 7f3f 5a7a 8d39 ffff 7f3f
00000240: 8ab6 513f 34d2 123f 490e 993e 394b 743f
00000250: 604e c43d 3ed2 7e3f 47a7 f83c cee1 7f3f
00000260: b348 1d3c fbfc 7f3f f4f3 463b b3ff 7f3f
00000270: 7fa8 7b3a f8ff 7f3f a529 9f39 ffff 7f3f
00000280: 0327 603f be51 f73e 3772 a93e f292 713f
00000290: 100a da3d 878b 7e3f c422 0a3d b8da 7f3f
000002a0: 65c2 2e3c 46fc 7f3f 0b0f 5d3b a1ff 7f3f
000002b0: 63cf 8b3a f7ff 7f3f f0d8 b039 ffff 7f3f
000002c0: 350b 6c3f 632f c63e cba4 b93e 5094 6e3f
000002d0: 66bf ef3d 653d 7e3f 80f1 173d e5d2 7f3f
000002e0: 0a3c 403c 7dfb 7f3f 1e2a 733b 8dff 7f3f
000002f0: 86ca 993a f5ff 7f3f 3b88 c239 ffff 7f3f
00000300: 8740 753f 57cc 923e 4ea1 c93e 3150 6b3f
00000310: e1b6 023e dde7 7d3f c8bf 253d 52ca 7f3f
00000320: a0b5 513c a2fa 7f3f 98a2 843b 77ff 7f3f
00000330: a9c5 a73a f2ff 7f3f 8737 d439 ffff 7f3f
00000340: 2eac 7b3f 347c 3b3e 1863 d93e 8ac7 673f
00000350: 408a 0d3e ee8a 7d3f 958d 333d 01c1 7f3f
00000360: 272f 633c b3f9 7f3f 21b0 8f3b 5fff 7f3f
00000370: ccc0 b53a f0ff 7f3f d2e6 e539 feff 7f3f
00000380: 793b 7f3f 4f7c 9e3d 92e5 e83e 62fb 633f
00000390: 8059 183e 9e26 7d3f de5a 413d f0b6 7f3f
000003a0: 9da8 743c b1f8 7f3f a8bd 9a3b 45ff 7f3f
000003b0: eebb c33a edff 7f3f 1c96 f739 feff 7f3f
000003c0: 0ee4 7f3f e333 efbc 3524 f83e d4ec 5f3f
000003d0: 5024 233e edba 7c3f 9527 4f3d 22ac 7f3f
000003e0: 0011 833c 9df7 7f3f 2ecb a53b 29ff 7f3f
000003f0: 11b7 d13a ebff 7f3f b4a2 043a feff 7f3f
0.0 1.0 0.0 1.0 0.0 1.0 0.0 1.0
0.0 1.0 0.0 1.0 0.0 1.0 0.0 1.0
0.10646451 0.9943165 0.033724565 0.99943113 0.010666464 0.99994314 0.0033730897 0.99999434
0.0010666664 0.99999946 0.00033730952 0.99999994 0.00010666666 1.0 3.373097e-05 1.0
0.21171884 0.9773306 0.06741076 0.9977253 0.021331714 0.9997724 0.006746141 0.99997723
0.0021333317 0.99999774 0.000674619 0.99999976 0.00021333332 1.0 6.746194e-05 1.0
0.31456655 0.94923544 0.10102027 0.9948844 0.031994537 0.99948806 0.010119116 0.9999488
0.0031999946 0.9999949 0.0010119284 0.9999995 0.00032 0.99999994 0.000101192905 1.0
0.41383862 0.91035026 0.13451485 0.9909116 0.04265372 0.9990899 0.013491974 0.999909
0.0042666537 0.9999909 0.0013492376 0.9999991 0.00042666664 0.99999994 0.00013492387 1.0
0.5084066 0.8611171 0.1678564 0.9858115 0.05330805 0.99857813 0.01686468 0.9998578
0.005333308 0.99998575 0.0016865468 0.99999857 0.00053333334 0.9999999 0.00016865483 1.0
0.59719545 0.8020958 0.20100698 0.9795898 0.06395631 0.9979527 0.020237194 0.9997952
0.006399956 0.9999795 0.0020238557 0.999998 0.0006399999 0.9999998 0.00020238581 1.0
0.679196 0.73395693 0.2339289 0.97225374 0.07459731 0.9972137 0.02360948 0.9997212
0.0074665975 0.9999721 0.0023611647 0.9999972 0.00074666657 0.9999997 0.00023611677 1.0
0.7534762 0.6574752 0.26658463 0.9638115 0.08522981 0.9963613 0.026981493 0.99963593
0.00853323 0.9999636 0.002698473 0.99999636 0.00085333316 0.99999964 0.00026984775 0.99999994
0.8191916 0.57351995 0.2989371 0.9542728 0.09585261 0.99539554 0.030353202 0.99953926
0.009599852 0.9999539 0.003035781 0.9999954 0.0009599998 0.9999995 0.0003035787 0.99999994
0.8755953 0.48304552 0.33094952 0.94364846 0.106464505 0.9943165 0.03372456 0.99943113
0.010666464 0.99994314 0.003373089 0.99999434 0.0010666664 0.99999946 0.00033730967 0.99999994
0.922046 0.38708028 0.3625854 0.93195057 0.11706428 0.9931243 0.037095547 0.99931175
0.011733064 0.99993116 0.0037103961 0.99999315 0.001173333 0.99999934 0.00037104063 0.99999994
0.95801586 0.28671524 0.39380878 0.9191924 0.12765075 0.9918192 0.0404661 0.9991809
0.01279965 0.9999181 0.004047703 0.99999183 0.0012799996 0.99999917 0.00040477162 0.99999994
0.983096 0.18309098 0.42458415 0.9053885 0.1382227 0.99040115 0.043836195 0.99903876
0.013866222 0.99990386 0.00438501 0.9999904 0.0013866662 0.99999905 0.00043850258 0.9999999
0.99700123 0.07738554 0.45487648 0.89055455 0.14877892 0.9888705 0.0472058 0.99888515
0.014932779 0.9998885 0.004722316 0.99998885 0.0014933327 0.99999887 0.0004722335 0.9999999
0.9995736 -0.029199546 0.48465124 0.87470746 0.15931821 0.98722726 0.050574858 0.9987203
0.015999317 0.999872 0.0050596213 0.9999872 0.0015999993 0.99999875 0.0005059645 0.9999999

attention_layer.relative_bias_table f4 [299, 8]
00000000: 4de0 483e 2b6e d4bf 7904 413e 2e62 77c0
00000010: 6d2f 96bf b189 553f 696b 853f e881 0540
00000020: 09ca 823f f2bd bebf 0996 0c3e eb07 0ec0
00000030: 060e 0dbf 45f6 423f 4a12 2b3f d708 42be
00000040: 29df 9140 6296 27c0 536b 4740 533b 45bf
00000050: a19d 4fbf a52e b140 8805 4dc0 fbe8 0cbf
00000060: 85e0 123f 5bd0 14c0 dc4b 5540 6c1f 9fbf
00000070: dfd2 b23f c303 9340 20d4 e8be 0751 bd3f
00000080: a545 52be cdf3 983f 2b0a c43f 6097 dc3c
00000090: 76f5 fe3e 7e7f 6140 450b cdbf 796d ef3f
000000a0: 4b4c f9bd 815b 22ba 3995 a83f eca5 babf
000000b0: 8dec 15bf 7f6a 0840 1eb9 3abf d88a 75be
000000c0: 7bf7 e3bf 593a 8a3e 3c21 403e 6948 8dbf
000000d0: eec1 483e ab69 783f 98e6 b03f 7edf 23bf
000000e0: 3fa6 a5be f31b 74bd 54ea 02be 5db9 f1bf
000000f0: d30a d83e e5ca bf3d b0b5 8f3e f415 5a3f
00000100: 8588 8fbf 3df2 5d3c 7337 9f3e 1e63 7abf
00000110: f0ee 9dbd f463 813d 2774 23bf 4d2e c53e
00000120: a8d6 b2bf e418 633e c044 bebd 29eb 0bc0
00000130: 88fe a23d c946 8e3f 8c55 053f 955e 0c40
00000140: a15f b83e 792a 5bbf c10e 143f b7c4 31be
00000150: 176a 7fbf adf6 3ebe f749 223f 2b95 e63e
00000160: 155d 423f 730f 2bbe f017 32bf c5ec 89be
00000170: 8cfd 483e cef9 c03f 1ba6 8a3f 7a74 583f
00000180: 7bca d03e d5cb 3ebf 8bf0 923c ad6f 9fbd
00000190: a11e 91bf 7d9e 85bc 7fae cbbe 1fdc 573f
000001a0: c025 ab3f 05e1 b03d 154a ef3e 65b5 12bf
000001b0: 28ce b33f baf2 dc3e 7ad9 de3e ea99 0b3f
000001c0: c994 f2be a996 a9bf 60b3 843f 0bed 12bf
000001d0: da03 c0bd 36b8 703f a839 81bf 110e b63f
000001e0: 270a c43e 0cd9 933e 9b07 b63e b2b5 b1bf
000001f0: fa7e 16bf 984d 3f3f 8b74 dc3e 1326 913f
00000200: a9ea e33d 510a a2be 5e19 653f 9b0c ad3e
00000210: 634e 623f 4929 303f 0e2c 6fbe 62a4 7d3e
00000220: 8729 67bd d744 80be fda6 f53d 85ae e0be
00000230: bbc7 dfbe d885 4c3e bc63 083e 305b 9c3d
00000240: 009d 98bf 294c 59bf ce9b 63bf 81e3 4f3c
00000250: 0079 9cbf df8d 493f 487e 6abf 2166 3c3d
00000260: fc22 343e 3a15 37bf c68c 223f 4a08 1d3d
00000270: 0c41 48bd c46e 17bf 74df 2a3e 1070 743f
00000280: 1283 163e 163f b93d 5ea5 b3be ddc0 a0bd
00000290: 4568 55bd 627b a33e 29b3 023f 471f aa3f
000002a0: 531b c13e b47e 40bf cb3e 723f 301e d1be
000002b0: 7697 973e fba4 28be 7a34 9f3e 3607 163f
000002c0: cd80 8c3f e8f9 47be 70e7 ad3d 94c8 25bf
000002d0: 1139 ae3e 59e6 053f 3d93 033f fccd 8d3e
000002e0: 5187 6a3e 558a 20bf 0ea7 733e 85af c2be
000002f0: 0285 1ebf 3f38 cf3e f2c1 8cbf 06c7 313d
00000300: d274 813e 4fe6 233d 354e 893e 3a45 d2be
00000310: de3e 9ebf afa6 3e3f e39a 0fbd c7bb 043f
00000320: a8c1 3fbf ff7c 16bf 1b5b 5d3f ddc7 1dbf
00000330: 1ca8 09bf 3cbf 703e d783 8abe 953f 703f
00000340: b68a 06bf 9be5 d2be add3 523e abc7 3f3e
00000350: 03ba 71bf 9ca1 e73e 1454 04bf cc28 80bd
00000360: a218 1a3e 5349 babd 0d2e 9d3f 5ecd 4b3f
00000370: 39be a9bf 90e2 58bf 3889 d73f 5a52 cc3e
00000380: 10ec 45be 9487 29bf 18ce 813e 358b 2bbf
00000390: bd14 943e 1f02 113e 3dde 4fbf b0ed ef3e
000003a0: 44a1 4c3d 06c6 abbd 6bde 4fbd e650 ba3b
000003b0: 389f b1bf b92c 563f 0902 21bc 3d77 6f3f
000003c0: c586 c73e 77fd 43bf 43bb b2bd 5f30 85bf
000003d0: 1136 18c0 aabb a53e eb80 29be 5ab5 093f
000003e0: e564 00bf f739 c8be cb6a bd3e 99ba 663e
000003f0: d01b dbbf 3aa1 f43e a4b4 393f 976f 513f
0.19616814 -1.659612 0.18849362 -3.8653674 -1.1733223 0.83413225 1.0423404 2.0860538
1.0217906 -1.4901717 0.13729109 -2.2192333 -0.55099523 0.7615703 0.6682478 -0.18948685
4.558491 -2.6185536 3.1159256 -0.77043647 -0.810999 5.536944 -3.2034626 -0.55043
0.5737384 -2.325217 3.332755 -1.2431464 1.3970603 4.594209 -0.4547434 1.4790353
-0.2053438 1.1949402 1.5315603 0.02692765 0.49796647 3.5234065 -1.6019064 1.8705283
-0.12172755 -0.0006193445 1.3170539 -1.4581885 -0.5856407 2.1315 -0.72938716 -0.23978746
-1.78099 0.2699764 0.18762678 -1.1037723 0.19605228 0.97036237 1.3820372 -0.64012897
-0.32353398 -0.059596967 -0.12784702 -1.8884693 0.42195758 0.09364871 0.28068304 0.8518975
-1.1213537 0.013546524 0.31096992 -0.9780749 -0.07711589 0.06317893 -0.6384911 0.38511887
-1.3971758 0.22177464 -0.09290457 -2.186228 0.07958704 1.1115352 0.5208366 2.1932728
0.3601046 -0.85611683 0.5783501 -0.17360197 -0.99771255 -0.18648787 0.6339411 0.4503568
0.7592328 -0.16705112 -0.69567776 -0.26938453 0.1962797 1.5076234 1.0831941 0.8455273
0.4077948 -0.74529773 0.017936965 -0.07784972 -1.1337472 -0.016310925 -0.39781567 0.84320253
1.3370895 0.08636669 0.46736208 -0.57308036 1.4047289 0.43153936 0.43525296 0.5453173
-0.4737914 -1.3249103 1.0367241 -0.5739295 -0.093757346 0.94031084 -1.009572 1.4223043
0.38288996 0.2887653 0.35552678 -1.3883574 -0.587875 0.74727774 0.43057665 1.1339744
0.11128742 -0.31648496 0.8949183 0.3379868 0.8840086 0.68812996 -0.2335665 0.24769738
-0.056436088 -0.2505252 0.11994741 -0.43883148 -0.4370707 0.19972932 0.13319296 0.0763458
-1.1922913 -0.84881836 -0.88909614 0.0126885185 -1.2224426 0.78732103 -0.9159894 0.045995835
0.1759147 -0.71516764 0.63496053 0.038337983 -0.04889016 -0.5915339 0.16686803 0.95483494
0.14698437 0.09045236 -0.35087103 -0.07849286 -0.052101392 0.3193007 0.51054627 1.3290795
0.3771616 -0.75193334 0.94627064 -0.40843344 0.29607743 -0.16469185 0.31094724 0.58604753
1.0976807 -0.19528925 0.08491409 -0.6475918 0.34027913 0.5230461 0.5139654 0.27696216
0.22903182 -0.6271108 0.23794195 -0.38024536 -0.61921704 0.404726 -1.0996687 0.043402694
0.2528444 0.04001456 0.2681748 -0.4106844 -1.2362936 0.7447309 -0.03505982 0.51849025
-0.7490487 -0.5878448 0.8646714 -0.6163309 -0.5377214 0.2351045 -0.2705371 0.9384702
-0.52555406 -0.411908 0.2058856 0.18728511 -0.94424456 0.45240486 -0.51690793 -0.062577814
0.15048459 -0.09096017 1.2279679 0.7961024 -1.3261176 -0.84720707 1.6838751 0.3990658
-0.19328332 -0.662225 0.2535255 -0.6700929 0.28922072 0.14160965 -0.81198484 0.4686103
0.049958482 -0.08387379 -0.050749224 0.0056859134 -1.3876715 0.8366199 -0.009827145 0.9354132
0.38970008 -0.7655863 -0.087271236 -1.0405387 -2.3783 0.3236974 -0.16553085 0.53792346
-0.5015395 -0.39106724 0.3699554 0.22532119 -1.7117863 0.47779256 0.7254126 0.818109

attention_layer.key.weight f4 [16, 16]
00000000: a432 19bf 6136 bdbf e01b 1bbd 8ade f6bd
00000010: 62ed 1bc0 19ad 92bf fa68 a43d 6f2a c53f
00000020: 795a 21c0 6b3c 7e3e f71f 353d 121d 433f
00000030: e580 6a3f 4ec0 c93f d0e0 0d3f ddb7 a23f
00000040: f436 243e c750 6ebe edf0 733f 4b62 703f
00000050: 0402 5e40 21a3 f13d 1a52 ca3e 58da 4f3d
00000060: 380f 1d40 8983 213e 714b 7140 93fa 32c0
00000070: 32fa fdbe 8644 05c0 5510 88bf e560 1b3f
00000080: d1d1 b63d 508b 95be 698a d7be af52 0cbf
00000090: bedf 0bc0 13ae 8d3f ca61 c0bf a97d 813f
000000a0: 275b f3bf 3766 34bf 0dd9 d73f 661a 8c3e
000000b0: b776 a73d 97cf c53e 4912 87bf 2d69 6a3e
000000c0: 0b17 acbd 5710 103f 464c 83be fabe a23e
000000d0: bc15 253f 2faf f03e 2dc1 adbc bc97 013f
000000e0: 7d5a a83e ea06 81be 25f1 d3bf bb5d 3740
000000f0: 4383 a23f e44e 8bbd 75de 3cc0 1faf 5ebe
00000100: 96ed ca3e 5dc9 803f bd41 1240 11c6 32bd
00000110: 831e 4dbf 0f30 613f 3c2c 063f 7d91 a2bf
00000120: 6539 eebf 5740 54be 95dd 9bbf 91f2 a6bf
00000130: e05b 813f ee6d 163f 0aaf 2f40 e68f 51bf
00000140: dcfb f63c e2cd 2dc0 0d5e c23f d0d1 7bbf
00000150: 8d73 29be 0436 26c0 c3b4 833f 03a3 22bf
00000160: 5d8e 693f 1c8d 11bf d57a 9ebf 9b61 a6be
00000170: 4049 bfbe 9d20 1c3f 4dc5 f83f a70a aa3e
00000180: 3c13 18bf 9450 0abf 536e 51bf 65cf 013f
00000190: 8a1f eebe 9426 fabe 7f27 70be 88d9 0540
000001a0: 30ea 67c0 860e 84be 4b22 b7bf 1148 1b40
000001b0: 623e 2240 b5f3 883f e895 59bf 9920 643f
000001c0: ef3f d3be 3c80 133e 3109 fe3f 313c bbbf
000001d0: 061c 96bf 95b5 913f 2b8e 913f 4254 5dbf
000001e0: d30d fd3f 64a1 273f 498a c3bf b6e0 69be
000001f0: c5c0 2ebf 5849 dd3d a707 043f adb6 34bf
00000200: 1271 b63f 2075 2140 84b8 a6bf 2fd2 ee3e
00000210: ba7d b43d cda4 623e 1223 a8be 4620 56bd
00000220: 1b10 efbf 8e66 b43e 2252 bcbf 1ab1 4a3f
00000230: c81b 0a3f 5a5b b6bf 3d3b e6bf 9d67 bd3e
00000240: 9b40 11bf 7a1d cebf fbfa 213e f992 d53d
00000250: aed6 7dbe acaf 013f 5481 c6be 4282 7f3f
00000260: b9f1 893f ad24 32bf 0eec 14be 1e4e d53f
00000270: 59bb b83c 7eba 593d 2e10 cdbd 2b2d 85bf
00000280: f601 2cbe 392d c23e b9ce 92be 2dd4 b6bc
00000290: ccbd 5ebf 8b43 0cbf dbec 38c0 738f e5bf
000002a0: f04f babf 46ab a53e 08ed ee3d f02d 2abf
000002b0: b895 9dc0 aa7c 663f 7362 9ebf 2810 86bf
000002c0: fc5c 9dbe a115 aa3e e7c3 e53a fcf4 ce3e
000002d0: a571 50bf 7ead a8bf 0220 89bf ac5f 4c3d
000002e0: f03d 83bf e767 0940 3a91 77bf 8a7b 44bf
000002f0: 3d4d 69c0 70e6 2d3f 474c 61be 957c 0abf
00000300: 0999 563f d4dc 633f 0277 043e 9813 2bbf
00000310: ef7f 0340 edc4 e23e 1422 9e3f ceec 093f
00000320: a350 3cbf 98c9 833f cdb6 9ebf 4ace 4e3f
00000330: 0fe5 32bf 56f6 03c0 0747 3f3e ee23 2abf
00000340: 0800 29bf 7839 773e 2f5b 75bf c90e 093f
00000350: 4d44 523f cfdc 483f 4e0f 0e3f 4c2b 0d3f
00000360: 0c84 2ec0 1a9b 48bf 965a b2be 7e7e 193f
00000370: 539d 023f 6bf0 6b3e e62a 5f40 0fb0 753d
00000380: 41f7 1cbe e255 013f d2cb 9bbf 0953 033e
00000390: 1b1a 9c3f f7e1 8a3f 01a9 e73e add7 583f
000003a0: e794 03c0 175e d8bd bd24 eebf f2e1 f13f
000003b0: 1194 3d3f 4726 cbbf 793f 0a40 39ce d7bd
000003c0: e9d6 5cbd ba6c 81be 84a6 273f 3a1b 18bf
000003d0: 07a3 093e 19d4 5d3e 47a2 603f 493c 303f
000003e0: bff4 dfbf 28e2 26be f60d 99bf d92f 11bf
000003f0: 3ed5 08bf d5cf 33be 9e92 0640 487a ee3d
-0.59842896 -1.478222 -0.03786838 -0.12054165 -2.4363637 -1.1459075 0.08027835 1.5403575
-2.521147 0.24827735 0.044219937 0.7621623 0.9160293 1.5761812 0.5542116 1.2712361
0.16036588 -0.23273002 0.952895 0.93899983 3.468873 0.117986925 0.39515764 0.05074534
2.4540539 0.15772833 3.7702296 -2.7965438 -0.49604946 -2.0823073 -1.0629984 0.60694724
0.08926738 -0.2920785 -0.42097786 -0.54813665 -2.1855311 1.1068748 -1.5029843 1.0116473
-1.9012192 -0.7046847 1.6863114 0.2736389 0.0817694 0.3863494 -1.0552455 0.22891684
-0.084028326 0.5627493 -0.2564413 0.3178633 0.6448629 0.47008654 -0.021210277 0.50622153
0.32881537 -0.25200588 -1.6557966 2.8650959 1.2696308 -0.068021566 -2.9510777 -0.21746491
0.3963439 1.0061451 2.2852623 -0.043645922 -0.8012468 0.87963957 0.52411246 -1.270065
-1.8611265 -0.20727669 -1.2176996 -1.3042775 1.0106163 0.5876149 2.7450585 -0.81860197
0.030149393 -2.715691 1.5184952 -0.98367023 -0.16547985 -2.5970469 1.0289539 -0.63529986
0.91232854 -0.5685594 -1.2381235 -0.32496342 -0.37360573 0.60987264 1.9435211 0.33211252
-0.5940435 -0.540292 -0.81808966 0.50707084 -0.46508437 -0.48857558 -0.23452567 2.091402
-3.6236687 -0.2579233 -1.430734 2.4262736 2.5350575 1.0699373 -0.84994364 0.8911224
-0.41259715 0.14404386 1.9846555 -1.4627744 -1.1727302 1.138354 1.1371511 -0.8645669
1.9769844 0.6548064 -1.5276576 -0.22839627 -0.6826289 0.10805005 0.51574177 -0.7059124
1.4253256 2.5227737 -1.302506 0.46644732 0.08813043 0.22133179 -0.32839257 -0.052276872
-1.867679 0.35234493 -1.4712565 0.79176486 0.5394864 -1.4246628 -1.7986828 0.36993113
-0.56739205 -1.6102746 0.15818398 0.104284234 -0.24788925 0.5065868 -0.38770545 0.9980813
1.0776893 -0.6958721 -0.14543173 1.6664464 0.022550272 0.05315637 -0.10012852 -1.0404409
-0.16797623 0.37925127 -0.28673342 -0.02231797 -0.8700836 -0.5479056 -2.8894565 -1.7934402
-1.4555645 0.32357234 0.11666304 -0.66476345 -4.924526 0.9003397 -1.2373794 -1.047368
-0.30735004 0.33219627 0.0017529697 0.40421283 -0.8142341 -1.3177946 -1.0712893 0.049895927
-1.0253277 2.1469667 -0.96705973 -0.76751006 -3.6453393 0.67929745 -0.22001754 -0.5409635
0.83827263 0.8900883 0.12936023 -0.6682677 2.0546834 0.44290867 1.235415 0.5387696
-0.7356054 1.0295897 -1.2399536 0.8078352 -0.69880766 -2.0619102 0.18679439 -0.66461074
-0.6601567 0.24143016 -0.9584226 0.53538185 0.8213547 0.7846193 0.55492103 0.5514419
-2.7268095 -0.78361666 -0.34834737 0.59958637 0.5102131 0.23040931 3.4869933 0.059982356
-0.15328695 0.5052167 -1.2171576 0.12824644 1.2195467 1.0850209 0.45246127 0.84704095
-2.0559633 -0.10564821 -1.8604962 1.8897078 0.74054056 -1.5871056 2.160124 -0.10537381
-0.05391589 -0.25278264 0.6548846 -0.59416544 0.13441096 0.2166294 0.87747616 0.6884199
-1.7496566 -0.1629721 -1.1957386 -0.56713635 -0.5345038 -0.1755975 2.1026988 0.11644417

attention_layer.value.weight f4 [16, 16]
00000000: 2934 5abe f2aa ad3e 8e69 6fbd 2619 6dbd
00000010: e1d7 243f 1f75 a3bd a483 d53f 5a3e de3d
00000020: ed8b b13e bf98 c3be cbc5 bdbf f1e6 893f
00000030: 957e aabf 1440 04bc 7f04 0340 a347 83bf
00000040: f66c d3bd f27c 583d e8d4 8539 62d1 e2bc
00000050: 326f 123e 69c1 833f 8166 a33f eb9e b9bf
00000060: 4e21 0fbf 5df3 fc3f f00e 733f c4d4 81bf
00000070: d6fa 1ec0 dab8 273f 07c2 5cc0 da51 3cbf
00000080: 2ff6 eebd a371 abbb 0855 f23e 4b37 813f
00000090: 0586 ad3e 99cc 18bf 8693 b73f 07b8 a8bf
000000a0: cc32 c73e e4fe a43f 03e3 f23f f477 b2bf
000000b0: 93bc e5bf c18b d4be aef4 1040 4844 58be
000000c0: 0055 dcbd 8a22 9c3d 8c3f 733f 0a47 3b3f
000000d0: c71c da3e e6d5 c2bf e271 18c0 f30a 64bf
000000e0: 099d 3340 be9c a6bf 5980 843f fc20 24bf
000000f0: 6aa1 553f 73a2 733e b747 52bf 3092 2c3f
00000100: 2ffb 553e fc5f 9cbf ed30 f63d 122e 6abf
00000110: eebe cd3e 2cbc 5dbf 840f 41be 1e15 d73f
00000120: fe64 b43f dc3d 863e 1ecb 5f3f 4331 453f
00000130: 2555 d1be b8b4 ac3f 396f 4cc0 23e0 a73f
00000140: c4b0 3abf 8542 afbd 0e97 1b3f 0191 cf3e
00000150: 3ac4 103e ecae aebe 6977 6a3f 586b f4be
00000160: 9bc0 98be 6c28 de3f 2ad4 22bf 838a ed3e
00000170: 940e aebf 5420 66be 35f4 b6be 7289 adbe
00000180: 5a77 a43c c365 803e 68a1 803d a279 74be
00000190: d82b 493e 37a4 0940 6aca 343f daae afbe
000001a0: 02c2 d9bf 6024 3dbf 6541 e5be df2f 0a3f
000001b0: 0b82 3b40 35eb 9bbf 9fc9 93bf 9776 4f3f
000001c0: c24b d53c f093 ea3d 2327 01be 826e f2bd
000001d0: 0c8d f4be f401 a43e 57ee aabf 4887 ac3e
000001e0: 0b7b 763f 128e efbf dc90 473f 04cb b2be
000001f0: 22cc 16c0 fe54 0f40 8ce2 11c0 4f37 4dbf
00000200: 3f30 37be 6c3c f5be 1284 413f f1de 323f
00000210: 2a2d a63f b1ec 95bf 5f8a b2bd 6a33 1fbf
00000220: 3980 3040 ea4a a33e e3e2 ac3f f7b0 24c0
00000230: 6bc5 1cbe 9fd0 16be 31e8 3940 40d6 603e
00000240: e6db 313f b43e 0cbe 91a3 123e efd6 3bbb
00000250: 4d4e 89bd 65df 513f fa5f 1140 335f 00bf
00000260: 58a2 673e 7264 893f a018 3a3f 10cd 90bf
00000270: 9039 cbbf ea16 78be 223e 983f 7442 66be
00000280: b1f8 03bf 06b3 a43f b3e2 07be 9f14 d33d
00000290: 374b 86bf af4a 37bf 667c e23e 947a 8cbf
000002a0: 0054 e83d 0640 8dbf fd00 63bf 33fd 34bd
000002b0: 0c87 bd3f 708a 88be bd65 1bbe 3f85 f43e
000002c0: 2f04 9cbf 85b9 12c0 1eff 363e 5957 45bf
000002d0: 9a51 673f 9e7d 4ebe 7489 21bf 28da b23e
000002e0: 6839 853f 6a3f 163f dca6 843f 7a24 07bf
000002f0: ae48 90bf dce8 403f a83b 96be 8406 27bf
00000300: c98d d73e b3ce f63c 1be7 8dbd b380 4b3d
00000310: deb5 89bf 3903 5f3f 9a65 f03f 754f 663e
00000320: d8d5 87bf 8c65 bf3e be52 ac3f 7d72 74be
00000330: 77b2 e9bf 764e 2abf af66 fd3f c212 2bbe
00000340: 9bf0 543f 6015 a6be bd43 c03d 686b 323f
00000350: d711 c5bf 8ef1 98bf fa3c cf3f 78d3 143c
00000360: 2586 b23e c4ac d9bd 7374 c4bf 87a4 893e
00000370: 4532 313f 3727 803f d1b6 2c3f 0a36 dfbe
00000380: b730 f53d 7f71 2bbe ef34 a4bd 1fe9 d5bd
00000390: 95e1 943f dc8e 9b3f aeaa 98be 7d10 1340
000003a0: a0d9 5c3f 5f55 f3bf be65 983f 245f 9fbf
000003b0: 5edf f23f 1727 6fbe db81 5140 912d 18bf
000003c0: b093 5e3e 5d93 57be 1906 16be 3fd1 adbe
000003d0: a1e3 8cbd ec6e ee3e b6c6 4f3e afaf ca3f
000003e0: abb1 2d3f 778a 1b3f ff20 793e 30d7 a93c
000003f0: e4dd 31c0 9f70 dd3e aaeb debe 52a4 11c0
-0.2130896 0.33919483 -0.058450274 -0.05788531 0.64391905 -0.079813235 1.6680799 0.10851736
0.34677067 -0.38202474 -1.4825987 1.0773603 -1.331988 -0.008071918 2.0471494 -1.0256237
-0.10323517 0.052853532 0.00025526364 -0.027687732 0.1430023 1.0293399 1.2765657 -1.4501623
-0.55910194 1.9761769 0.9494467 -1.0143056 -2.4840598 0.65516436 -3.4493425 -0.73562396
-0.116680495 -0.0052320524 0.473305 1.0094999 0.3389131 -0.5968719 1.4341896 -1.3181161
0.38905942 1.2890286 1.8975528 -1.3942857 -1.7948173 -0.41512874 2.264934 -0.21119797
-0.107584 0.07623775 0.9501884 0.7315527 0.4260008 -1.5221527 -2.3819509 -0.8907921
2.8064597 -1.3016584 1.0351669 -0.6411283 0.83449423 0.23792438 -0.8214068 0.67410564
0.208966 -1.2216792 0.120210506 -0.9147655 0.4018473 -0.8661525 -0.18853575 1.680332
1.409332 0.2621907 0.8741931 0.7702829 -0.40885273 1.3492651 -3.1942885 1.3115276
-0.7292597 -0.085576095 0.60777366 0.40540317 0.14137354 -0.3411783 0.91588455 -0.47738147
-0.29834446 1.7356086 -0.63604987 0.4639474 -1.3598199 -0.2247327 -0.3573319 -0.33893925
0.020076443 0.25077638 0.06280786 -0.23874524 0.19645631 2.1506479 0.7062136 -0.3431309
-1.7012331 -0.7388363 -0.44776455 0.53979295 2.9298122 -1.2181154 -1.1545905 0.8104033
0.0260371 0.11453998 -0.12612586 -0.11837484 -0.4776386 0.3203274 -1.3353986 0.3369696
0.962815 -1.8715231 0.7795541 -0.34920514 -2.3562093 2.2395625 -2.2794523 -0.8016252
-0.17889498 -0.4789766 0.7559215 0.6987143 1.2982533 -1.1712857 -0.087177984 -0.62187827
2.757826 0.31893092 1.350674 -2.573301 -0.15309684 -0.1472802 2.9047968 0.2195673
0.69476163 -0.13695794 0.14320208 -0.0028662046 -0.06704388 0.819815 2.271483 -0.5014526
0.22620523 1.0733778 0.72693825 -1.131258 -1.5876942 -0.24227491 1.1893961 -0.22486287
-0.5155135 1.2867134 -0.13270073 0.103066675 -1.0491704 -0.71598333 0.44235533 -1.0974908
0.11344147 -1.1035163 -0.88673383 -0.044186782 1.4806838 -0.2666812 -0.15175529 0.4775791
-1.2188777 -2.2925732 0.17870757 -0.77086407 0.9035889 -0.20165107 -0.6310036 0.34932065
1.0408144 0.5869051 1.0363421 -0.52790034 -1.127218 0.75355315 -0.2934239 -0.6524432
0.4210036 0.030127859 -0.069288455 0.049683284 -1.0758626 0.8711429 1.8781006 0.22491248
-1.0612135 0.37382162 1.3462751 -0.23871799 -1.8257588 -0.6652597 1.9796962 -0.16706374
0.83179635 -0.32438183 0.0938792 0.6969514 -1.5396069 -1.1948717 1.6190484 0.009083621
0.3486797 -0.106286556 -1.5348037 0.26883337 0.6921733 1.0011967 0.67466456 -0.43595916
0.11972182 -0.16742514 -0.08017909 -0.10444855 1.1631342 1.2152972 -0.29817718 2.2978814
0.8626957 -1.9010428 1.1906049 -1.245091 1.8974416 -0.23354755 3.2735507 -0.5944453
0.21736026 -0.21052308 -0.14650764 -0.33948705 -0.06879354 0.46569002 0.20290646 1.5834864
0.67849225 0.60758156 0.24328993 0.020732492 -2.7791681 0.43249986 -0.43539172 -2.2756543
