Sleep_stage_classifier/Local_classifacation/ConvTran/output/20250721110409/model.pth (torch, 258565 bytes, 28 tensors)

embed_layer.0.weight f4 [64, 1, 1, 8]
00000000: 4e1d f7bd de91 193d dfac ddbe a2e2 53bf
00000010: 2512 f7bd a374 0c3f e08c 193f 985a db3d
00000020: b37a d9bd 7409 7c3e b150 cb3f a5e6 d23f
00000030: 037c 7d3e f498 2bbe b35b abbe bc64 6b3d
00000040: 16c3 ef3e 668a 07be 5b52 0abf c4c2 a1be
00000050: 73b0 1b3f 6339 8abe f364 153e 1605 f3be
00000060: b0ad 0f3c f105 00be f6d4 313d eff2 6fbf
00000070: cf49 29be 50a6 2b3f 4a07 283f 1e00 b7bd
00000080: 9778 0abe 6e97 1fbf 9437 a0be 8eb8 7abe
00000090: 674d 72be f6d2 53bf 46f9 7bbe d02c d3be
000000a0: d7a1 99bf f677 a43d 02bd 96be d4d7 9d3e
000000b0: 5212 143f 051b 6c3d ab0b 063d 6d1f 9ebe
000000c0: a2f3 f5bc c052 4bbe 3034 00bf 4347 253e
000000d0: 5b9e 5e3d f5c1 27bf c418 393f 5025 f03e
000000e0: 6bbe 1bbf e4e1 37bf bda6 e8be f3d5 523d
000000f0: 5417 e43e f302 f33e 8bee a03e 489c 26be
00000100: a1a2 edbe f4ad 1ebf 1ef6 9dbe eda2 1abe
00000110: ff8b 703e 7304 503d 2710 063f 74fd 133f
00000120: b110 373e 629d 13be 9be1 483d f2ba 6bbe
00000130: 270a a0be 3fda 4dbf 41b7 a03e 4f06 413f
00000140: 9a66 1b3f 6415 8f3e 2d9f 1bbf 5e67 0fbf
00000150: de81 f2bd 3539 33bf 26ba cf3e e77d e93e
00000160: 5e70 d83e bf8a 3b3f fcd1 323f 9416 0c3e
00000170: b407 b93e 94c3 e43e 94c6 7dbe ecf3 7ebb
00000180: b927 babd fa4e 903f 53c2 d1bd 3dea 693f
00000190: f722 6ebe d39d 4b3c f7c8 b0be 1a17 463e
000001a0: 520e 44be 81b6 58be 084e 833f 3e0c 4fbf
000001b0: 5eaa 5a3f 0b32 b5be 2476 943e b8f9 f4bd
000001c0: 4b65 2ebe 04af 57be e797 2c3d 2c91 42bf
000001d0: c9ad 3a3d 4b12 2d3f 9be4 a73c e6d9 dfbd
000001e0: 233a 1d3e 2a85 163f 31b4 ad3e 431b 18bf
000001f0: 6f79 893e ef18 b6be 9d7e 04bf 1cf3 8c3e
00000200: 0643 21bf 5f66 a8be 9260 c53e 8269 2e3d
00000210: 0c09 123e c71a df3e e0d2 493e 7513 2f3e
00000220: cb69 a83d 8eeb 37bd 9b34 bebe 72de d9be
00000230: 1ce5 24bf 7ba1 853d a2ce ea3d 1d4c 5d3e
00000240: 6dc6 32bf 0d48 073f 30c4 7f3e c276 9bbe
00000250: f4d9 85be 0119 b13e c622 10bf d1ad ee3e
00000260: 9165 893e 4696 0dbf 7e7d 47bf c1a5 d83a
00000270: 599d 0fbe a567 dd3e 91d7 743e a394 fa3e
00000280: 2975 c5bd ba9e 18bf 5812 b83e 1382 8dbd
00000290: a98c 02bf d301 df3e bd42 933e 776b a2be
000002a0: 15d2 e63e 7dc4 d33e c359 053f fc26 7a3d
000002b0: dda7 aa3e 929e 8c3d 524d 263d 3a14 38be
000002c0: 09ba 44bf e06e 3d3d 95aa 653e 3f82 703e
000002d0: 6eaa 993e 9fdb 18bf ce63 e73d 4ce0 983e
000002e0: 3dfd a4be 6556 77be ff40 81be b7a0 5bbe
000002f0: 632c b03d 3371 5b3e a100 3fbb 7796 7e3f
00000300: d63e 493e a1f4 cfbe 1ae0 283f 453a 4abf
00000310: 9cb0 923e 8ba9 ebbe 92fe f83d 3c61 c13d
00000320: 3c2b 5a3f d9a4 303f 3f68 b2be 8ed4 c0be
00000330: 15aa ffbe bd64 e7bd c5dd 57bd 9d7b 6f3e
00000340: 1b1f c9be b504 463e 18c5 64be 7957 92bf
00000350: 1156 00bf c78e b0bc 7f57 0ebe 5470 f63d
00000360: eacc e03e 39f8 08bf 8982 07bf 27a8 033f
00000370: bc88 3e3e 282a 93be a872 05bf cece 153f
00000380: 1a12 11bf d555 bcbd 2b5d 023e 5146 4a3f
00000390: 1d94 593c a853 21bf 1c5f 663e 7dac 273e
000003a0: 36ba 0b3d f8b2 4bbd 7171 84bd 0f6e a2be
000003b0: 721f 993e 7889 32bf ae8c 913e 8d0d a3bf
000003c0: 2cdd b63d a74e 873f d9f3 d6be ffe5 c9be
000003d0: 71b2 4d3e a41c 13bf 454a 553e 34c4 33be
000003e0: 72eb 193d a530 123c 6cfc 4bbe 70ec 2bbe
000003f0: b1fb f6be 31d4 42bd 7574 37bf 3bcc 343f
-0.12066136 0.037492625 -0.43295953 -0.8276769 -0.12064008 0.54865474 0.59980583 0.10710639
-0.10619106 0.24612981 1.5884 1.6476637 0.24754338 -0.16757566 -0.33468398 0.057469115
0.46828526 -0.13236389 -0.54031914 -0.31593907 0.60816115 -0.26996908 0.1458929 -0.47464818
0.008769438 -0.12502266 0.043415986 -0.9373006 -0.16532062 0.6705065 0.6563612 -0.08935569
-0.13522564 -0.6234044 -0.31292403 -0.24484465 -0.23662339 -0.82743776 -0.24606809 -0.41245127
-1.2002515 0.08030693 -0.29441077 0.30828726 0.57840455 0.057642955 0.03272597 -0.3088335
-0.0300234 -0.19855785 -0.5007963 0.16140465 0.05435024 -0.6553033 0.72303414 0.46903467
-0.6083743 -0.71829057 -0.4543971 0.05147357 0.44549048 0.47463188 0.31431994 -0.16270554
-0.46413139 -0.6198418 -0.30851835 -0.15101214 0.23490904 0.050785493 0.52368397 0.57808614
0.17877461 -0.14415506 0.04904328 -0.23020533 -0.31257746 -0.8041114 0.31389812 0.7540025
0.6070343 0.27946007 -0.6078976 -0.560171 -0.118411765 -0.70009166 0.40571707 0.45603868
0.4227323 0.73258585 0.6985166 0.13680488 0.3613869 0.44680464 -0.24782783 -0.0038902713
-0.09089608 1.1274102 -0.102421425 0.91373044 -0.23255526 0.012427765 -0.34528324 0.1934475
-0.19146088 -0.2116337 1.0258188 -0.80878055 0.8541621 -0.35389742 0.28996384 -0.119616926
-0.17030828 -0.21062857 0.042137053 -0.76002765 0.04557589 0.6760604 0.02049475 -0.10930233
0.15354209 0.5879694 0.33926538 -0.594166 0.2685046 -0.35565898 -0.51755697 0.27529228
-0.62992895 -0.32890603 0.3855024 0.04258109 0.14261264 0.43575117 0.19709349 0.17097266
0.082233034 -0.044902377 -0.3714951 -0.42552525 -0.64412093 0.065249406 0.11465193 0.21611066
-0.69834024 0.52844316 0.24977183 -0.30364043 -0.26142848 0.3458939 -0.5630306 0.46616986
0.26835302 -0.55307424 -0.7792586 0.0016528891 -0.14024867 0.43243137 0.23910357 0.48941526
-0.09641487 -0.596172 0.35951495 -0.06909575 -0.5099588 0.4355608 0.28761855 -0.31722614
0.45082155 0.41360846 0.5209009 0.061072335 0.33331195 0.068661824 0.040601082 -0.17976466
-0.7684637 0.046248317 0.22428353 0.23487185 0.3001284 -0.59710115 0.11298333 0.29858625
-0.32224455 -0.2415405 -0.252449 -0.21448027 0.08602216 0.21429901 -0.0029144662 0.9944834
0.19652876 -0.40616325 0.6596695 -0.7899516 0.28650367 -0.4602779 0.121579304 0.09442374
0.8522222 0.6900154 -0.34845158 -0.37662166 -0.4993445 -0.11298511 -0.05270173 0.23386998
-0.39281544 0.19337733 -0.2234081 -1.1432945 -0.50131327 -0.021552457 -0.13900565 0.12033144
0.43906337 -0.5350376 -0.52933556 0.51428455 0.18606848 -0.287431 -0.52128077 0.58518684
-0.56668246 -0.09196059 0.12730853 0.79013544 0.013279942 -0.63018274 0.22497219 0.16374393
0.03411313 -0.049731225 -0.0646695 -0.31724593 0.29906803 -0.6974101 0.28427643 -1.273851
0.08928904 1.0570878 -0.41982916 -0.39433286 0.20087601 -0.5746558 0.20829113 -0.17555314
0.037578054 0.008922731 -0.1992051 -0.16789412 -0.482389 -0.047565643 -0.71662074 0.7062413

embed_layer.0.bias f4 [64]
00000000: c2b9 b03d c089 aa3e db87 9fbd e312 173e
00000010: f0de 413e a89b fa3d aa11 be3e b13e b5bd
00000020: bcd3 59be 3695 493e 2120 a3be 17f8 69bd
00000030: 9b52 1ebe e8b3 a83c 31a2 d9bd 6ad4 513e
00000040: 4f99 a53c ce69 4bbe 6814 fd3d a42b 023e
00000050: f23f aebc 3375 9a3e 26da 093e a119 26be
00000060: 659b 24be e96f 763e 5e5e c8bd 464b 97bd
00000070: 826a 92be a4a8 573d 99b5 85be 7e49 8abc
00000080: 20e4 913e eb1e 9dbe 4c35 743e 4363 e73c
00000090: 111e 7cbe b529 55be fc02 16bd 379e c4bd
000000a0: 5db6 6cbe 0597 733e 1c0d 3d3c d8ba 513b
000000b0: 5b61 5f3d ddbd 653d d0a6 c23d f6ec 063e
000000c0: e77a 0fbe f9fa 443e deca a5be 1bef bfba
000000d0: e68a db3d 2099 62bd 093e 8f3e a76d a6be
000000e0: bb43 7b3e 1e85 0b3e 33b4 633e f849 7bbe
000000f0: 86b5 f0bd 47ce 44be 8ebb 2a3e 9a9b 993d
0.086291805 0.3330822 -0.07789584 0.14753298 0.189327 0.1223672 0.37122852 -0.08849848
-0.21272177 0.19685826 -0.3186045 -0.057121363 -0.15461199 0.020593598 -0.10626639 0.20491186
0.020214705 -0.1986458 0.12357408 0.1271196 -0.021270726 0.3016754 0.13462123 -0.16220714
-0.16074903 0.24066128 -0.09783624 -0.07387404 -0.28596884 0.052651063 -0.2611511 -0.016880747
0.28494358 -0.3068765 0.23848456 0.028245574 -0.24620844 -0.20816691 -0.03662394 -0.096004896
-0.23116441 0.23788078 0.01153877 0.0032002237 0.054536205 0.05608927 0.09504473 0.13176331
-0.14011727 0.19236363 -0.32381338 -0.0014643403 0.10719852 -0.055321813 0.27977017 -0.32505533
0.24537556 0.13624999 0.2223671 -0.24539936 -0.11753373 -0.19219314 0.16673109 0.07500382

embed_layer.1.weight f4 [64]
00000000: a59d 3240 d175 723f aa84 913f 2207 0440
00000010: f379 8e3f 038c d23f 9743 0b40 8492 0c40
00000020: 7c1e 1340 eabf ff3f 8d45 3e40 df0a 3e3f
00000030: c4d3 143f dd6f 953f f918 c63f 67e1 a83f
00000040: 9ff3 6a3f 7427 213f f8dd c53f f9a8 953f
00000050: 0b2e 423f 088e d03e 3285 903f 6c77 7e3f
00000060: c8e6 d73f fb27 b33f a451 a83f 2776 f13f
00000070: cc58 923f b21d fd3f 80b7 ac3f 0a75 ec3f
00000080: 20e0 f43f 9aa7 0140 32ef 893f 9cda b63e
00000090: 3fdd 0140 e5ef ff3f 836c 8c3f 6eca 643f
000000a0: 26e3 e43f 3393 703f 1570 d23f 0895 e73f
000000b0: c615 3d3f 3197 8d3f 92f6 0d40 7234 333f
000000c0: 2bac 1a40 f872 743f 1e0e 0240 988b e53f
000000d0: 001f dc3f a493 933f 927e 2040 00b7 df3f
000000e0: 35d8 0f3f 664b df3f a9b0 4d40 1867 8c3f
000000f0: 80a5 1040 8fbb 5140 bc13 cb3f 9ccd aa3f
2.7908719 0.94711024 1.1368611 2.0629354 1.1130966 1.6448978 2.1760004 2.1964426
2.2987356 1.9980443 2.972995 0.7423534 0.5813563 1.1674763 1.5476371 1.3193787
0.91777986 0.62950826 1.5458364 1.1692191 0.75851506 0.4073336 1.1290648 0.99400973
1.6867304 1.3996576 1.3149915 1.8864182 1.1433349 1.9774687 1.34935 1.8473217
1.9130898 2.0258546 1.0776122 0.3571366 2.0291288 1.9995085 1.0970615 0.89371383
1.788182 0.9397461 1.6440455 1.8092356 0.7386135 1.1061765 2.2181745 0.700019
2.4167583 0.9548793 2.0321116 1.7933226 1.719696 1.1529431 2.5077252 1.7477722
0.5618928 1.7444885 3.2139075 1.0968962 2.2601013 3.2770727 1.5865397 1.3343997

embed_layer.1.bias f4 [64]
00000000: bdb6 75be f3cc 81be 3905 7bbd 5ff7 06bf
00000010: 0684 d03e b914 bfbd a825 123f f1fc 09bf
00000020: c3c4 45bf ec5e 413f 6e4e 39bf c5b1 003e
00000030: 313b 03bf feea 21bf 8def 7abb bdf5 123f
00000040: 885e 223e 9c3f 03bf a4e0 1cbe b965 0e3f
00000050: fc64 b1bf 926f c63e 7f76 88bf 3371 88bf
00000060: 1e55 34bf 039a b9be 14c7 173f 104b aabf
00000070: c98f 5cbf 98fd adbe 63fa a3bf 83f4 f33e
00000080: 2ebe 4fbf f4b9 683e 29f0 b33e 708e d2be
00000090: b641 013f 0841 2ebf 0aff 85bf 0341 85bf
000000a0: 6d71 12bf aeea 2bbf 6f6c bbbf f053 4e3e
000000b0: 4815 89bf 7f93 dd3d b483 cabf 0d47 22bf
000000c0: dc88 613e 2213 94bc ea72 8fbe 368e 553f
000000d0: f4fc 453e f6bf 5dbf d68d 2ebf 67f0 a53f
000000e0: 9d76 95bf 0789 f13e a349 d0be 1921 d8bd
000000f0: 5472 a2bf 96df 5bbe ab9e 403f 7def 013f
-0.2399549 -0.25351676 -0.061284278 -0.5272121 0.40725726 -0.093301244 0.5708871 -0.5390158
-0.7725336 0.75535464 -0.723853 0.12567814 -0.51262194 -0.63249195 -0.0038289756 0.57406217
0.15856373 -0.51268935 -0.15320069 0.55623966 -1.3858943 0.38756996 -1.0661162 -1.0659546
-0.7044238 -0.36250314 0.59288144 -1.3304157 -0.861569 -0.3398254 -1.2810787 0.47647485
-0.81149566 0.22727185 0.35144165 -0.41124296 0.5049089 -0.6806798 -1.0468457 -1.0410465
-0.57204324 -0.6715497 -1.4642466 0.20149207 -1.070962 0.10819148 -1.5821443 -0.63389665
0.22024864 -0.01807553 -0.2801736 0.8342012 0.19334775 -0.86621034 -0.68185174 1.296399
-1.1676823 0.47174856 -0.4068118 -0.10553188 -1.269114 -0.2147201 0.7524211 0.50756055

embed_layer.1.running_mean f4 [64]
00000000: c3f5 edc0 8288 d442 4d7d 8bc1 d7b8 d23f
00000010: e9b3 c6c2 f3d8 bcc1 a154 463f 91d5 aac1
00000020: 3f8f c9c0 eef8 e1c0 6d76 0bc1 4e21 a942
00000030: 92e9 4242 a6c7 8941 53a1 6fc1 00e5 b740
00000040: 23ad 5341 c7d9 0bc2 c95a 09c1 0067 cfbf
00000050: f73d 5bc1 9b7d 6542 06ed 9fc0 7085 0941
00000060: 6c91 23c1 a236 4a41 5bf6 8ec2 a6e5 9bc0
00000070: 4eb2 9d3f 7973 6cc2 e572 023e 6bb4 eac1
00000080: 4633 e0c1 b53c 73c1 ae75 adc2 965a 0342
00000090: 5261 48c2 4da1 5640 93c6 59be 27e0 8e41
000000a0: bcfb 42c2 b14e 2942 6373 83bf 750b c7c2
000000b0: 3d9d 8a41 c61e f8c1 95db dbbe 5caa 35c2
000000c0: dc7e b7c2 0c4a a642 784e 95c1 0fc0 86c2
000000d0: d0ce 02c1 4b67 00c1 6b2c ebc0 9755 dd3f
000000e0: 8e00 b8c0 e401 c2c1 681d edc0 295a c442
000000f0: 3432 81bd fe92 aac0 fc54 e1c2 d9f8 9ac2
-7.43625 106.26662 -17.436182 1.6462659 -99.35139 -23.605932 0.77472883 -21.35428
-6.298736 -7.061637 -8.716413 84.56505 48.728096 17.222485 -14.976886 5.746704
13.22977 -34.962673 -8.584664 -1.6203308 -13.702628 57.37266 -4.9976835 8.5950775
-10.223003 12.638338 -71.48116 -4.8717833 1.2320039 -59.112766 0.12739141 -29.338095
-28.025036 -15.202321 -86.72984 32.838463 -50.09504 3.353595 -0.21267156 17.85945
-48.745834 42.326847 -1.0269588 -99.52238 17.326777 -31.015026 -0.42940965 -45.416367
-91.74777 83.14462 -18.663315 -67.375114 -8.175491 -8.025218 -7.349172 1.7291745
-5.7500677 -24.250923 -7.4098396 98.176094 -0.063084036 -5.3304434 -112.665985 -77.48603

embed_layer.1.running_var f4 [64]
00000000: 3d93 4643 2dc3 3a46 fa68 cf43 0090 2043
00000010: a217 2546 cb2d 4244 8f51 0543 4586 2044
00000020: 74f4 6c43 eec2 2343 0c3b 5e43 fdad ed45
00000030: 5d0a 2545 0583 0344 682f 9a43 250b 1b43
00000040: 8ae2 9743 b644 a344 ab72 4943 662b 1f43
00000050: f111 8d43 80b8 5845 6a84 0443 608f 8143
00000060: 4e4f 6043 0327 a743 cb67 a945 e50b 2243
00000070: 91d1 ef42 325a 7545 9ab5 2443 01e4 7644
00000080: 839c 7744 5b79 ae43 eb18 fc45 4f07 9544
00000090: 0371 2845 a00d 2e43 0ab7 c542 9476 e443
000000a0: fbee 2345 621d fb44 2eb4 b942 5452 2446
000000b0: cc49 d343 5064 9144 3b2c 1343 9a3b 0a45
000000c0: 1679 0d46 a547 e445 eb36 f143 aee9 9745
000000d0: a973 3943 2822 7a43 c19a 2643 d775 3243
000000e0: 14c6 e242 2872 3c44 bf18 5643 a2f4 2546
000000f0: a859 1043 bc68 2543 34dd 5146 4be7 c845
198.57515 11952.794 414.82013 160.5625 10565.908 776.7155 133.31859 642.09796
236.9549 163.76144 222.23065 7605.7485 2640.6477 526.0472 308.37036 155.04353
303.76984 1306.1472 201.44792 159.16953 282.14017 3467.5312 132.51724 259.12012
224.30978 334.30478 5420.974 162.04646 119.90931 3925.6372 164.70938 987.56256
990.4455 348.9481 8067.1147 1192.2284 2695.0632 174.05322 98.8575 456.9264
2622.9363 2008.9182 92.85191 10516.582 422.57654 1163.1348 147.17278 2211.725
9054.271 7304.9556 482.42905 4861.21 185.4518 250.13342 166.6045 178.46031
113.38687 753.7837 214.09666 10621.158 144.35022 165.40912 13431.301 6428.9116

embed_layer2.0.weight f4 [16, 64, 2, 1]
00000000: 9458 9e3e 66ac 923c 3b78 1c3d 2aa8 783f
00000010: 82a4 51bd 5c5b e53e 6924 d33d be6c 2dbf
00000020: 8569 b83e ca60 ef3e 6dcd e1bd 14f3 c53e
00000030: 8700 30be e04b 70be 3308 ee3c aff7 0a3f
00000040: 2ad9 ad3e 079f 113f d684 ecbd b47e 24bd
00000050: d8f9 833d c2e6 963e d474 a23c e7ad 5bbd
00000060: 08e0 8fbc c1f7 903e cb4c 953d 26b0 babf
00000070: ef8b 1cbe cb23 353e 1853 663e 8523 663e
00000080: 38e5 40be 1afc 8c3e 6ad2 413c 0c3c e13d
00000090: 31f8 883e 25d2 fa3d a256 56be 3488 983d
000000a0: ee66 81bd 6936 933d 66b6 013e 31c1 c0be
000000b0: a603 493e f832 a7be 3572 a8bd 8db9 ca3d
000000c0: 1ae4 a0bf ceca 843e 432c 8f3d 7420 3a3e
000000d0: 9437 28be c5ed 953e 1c8e bb3d 8c3c 693e
000000e0: c64e b63d 8f16 803e c4ce fd3d 933b f73e
000000f0: 2de7 fd3c 49fe 98be 575b 543f 2f49 27be
00000100: 87f1 133c b377 a0be 38cb 4abf 3e1e 363f
00000110: d208 883d 8581 90bd a5cf 233e e63e 86bd
00000120: 165c 2dbd 1ff2 663f fb28 e3bd c707 43bd
00000130: 4c90 97be 772f b93c ef8c 113e 43a4 673f
00000140: 15c1 0cbe 0747 8f3c 2573 49bb 9abc b7be
00000150: f025 323d 89d3 10bf a39c ab3d 01af da3e
00000160: 2850 1cbe 018a f4be ac54 90be 3ff0 98be
00000170: e10f 6b3d dee7 14bf b8bc 283d c1d0 98be
00000180: 1bfb 57bc d2fa 463e d606 903a 76b7 863e
00000190: 4638 b23e e4cf 3abe 786e 953e 2f6a 573e
000001a0: 29d5 f4be 58c1 83bd c3bb 42bf 3914 c53e
000001b0: 4f89 bebe 5435 b13e 0b3b 1dbf 9736 2bbf
000001c0: 3da3 c83d c53d 3b3e 0a73 ce3e f274 8b3e
000001d0: f9b4 7ebf 6a71 343f b80a d93b 91e6 9e3e
000001e0: 90c8 a4bd 314d b1be a786 d13e 0479 d23c
000001f0: abaf 513e 6f71 fb3e e444 f73c 071a d6bd
00000200: 4dc2 7abb 50b0 983e cb7a d93d c240 153f
00000210: 0342 0dbf 9cb2 bfbe b084 53be d28c a2bd
00000220: 97f1 68be f8a5 55be ecb6 13be 15ba d0be
00000230: 6258 b2be 7bd2 7cbf a039 c5be 4337 ac3d
00000240: e32f d83d 5791 f7bd 2b56 17be f46a da3d
00000250: 49a4 003f 39f3 16bf 8227 073e 54ca 46be
00000260: 85db 513d 938c b1be 23f4 453d 4035 d73e
00000270: e9b4 88be b4f2 7c3e 0b04 6cbe 4e04 98be
00000280: 8adc 4c3d dffe 27be 9261 903d daf4 a93e
00000290: 97dc 9b39 9d7e 25bd 4918 1d3d 7d1a 143e
000002a0: 5491 d83c cb4a 34bf 3821 973d f0f2 efbd
000002b0: 910c a63d 79a4 363f 818c bcba c1ac 72be
000002c0: a052 14bf 4eb6 853e d945 a53c e8a2 023e
000002d0: c951 7cbc 61bf d13d 5e9f a0be 695f 9a3e
000002e0: 5ea6 1d3e 7233 153f 84b1 823c c719 ecbe
000002f0: 2a66 993e d8de 6b3f dc3c b3be edd6 af3e
00000300: 48ee c3be dde1 99be b7e3 283f 9257 71bf
00000310: 5114 8dbe 726e 0d3d beb0 3c3e 87db cf3e
00000320: 3113 7bbe d47f 12bf ad90 3fbe dbc4 5a3d
00000330: 6a1b 713d 4032 863e ce3a d03d b715 18bf
00000340: 6725 fcbd f4b5 913e a2d0 1a3e 2b1c 91bd
00000350: c458 e33d 887c 8a3f bd02 0cbd dd77 ef3d
00000360: ad91 a83e 41ea 8c3f c692 6bbe 1f81 133d
00000370: 3ab6 5c3e 91da 8c3f 5c64 3fbd 7667 a3be
00000380: 017f f23d 5437 d23e 685d be3d 184c 0d3d
00000390: 0d4a aa3d 80c6 bbbe fcf5 42be 2115 babe
000003a0: 59a3 a33e 6075 28bf dd18 30bf b7c6 8a3b
000003b0: 8301 983e 6b3b 32be 613f ad3d 8c28 f73e
000003c0: 2103 c23d 6ced b9be 193a 10bf af18 94bf
000003d0: a7e7 80be 93ea e43e e2af a93d d1d3 ebbe
000003e0: 10b0 31be 3cd1 5abf bc5d f63d 6bb2 f1bd
000003f0: 5fcb 7abe 93db 1b3e 3585 2abe 4cda 2d3e
0.30926955 0.017904472 0.0382006 0.971316 -0.051182278 0.44796264 0.10309679 -0.6774405
0.36018005 0.46753532 -0.1102551 0.38662016 -0.17187701 -0.23466444 0.029056644 0.54284185
0.33954746 0.5688328 -0.11548774 -0.040159896 0.06444138 0.2947293 0.019831099 -0.053632643
-0.017562881 0.2831402 0.07290038 -1.4585006 -0.15287755 0.17689435 0.22492635 0.22474487
-0.1883744 0.27536088 0.011829952 0.10997781 0.26751855 0.12247113 -0.20931485 0.07447854
-0.063184604 0.07188112 0.12667236 -0.37647393 0.19630298 -0.32656074 -0.08224908 0.09898672
-1.2569611 0.25935978 0.06990864 0.18176442 -0.16427451 0.29282966 0.091579646 0.22777003
0.089017436 0.2501721 0.12392953 0.4828764 0.030994022 -0.29881504 0.82951874 -0.16336511
0.009029753 -0.31341323 -0.7921634 0.71139896 0.06642307 -0.07055954 0.15997179 -0.06554966
-0.042324148 0.902132 -0.11091801 -0.04761484 -0.29602277 0.02260564 0.14213918 0.9048502
-0.1374553 0.017489923 -0.0030738798 -0.3588608 0.04349321 -0.5657278 0.083794855 0.42711642
-0.15264952 -0.4776154 -0.281896 -0.29870793 0.05738819 -0.581663 0.0411956 -0.29846767
-0.013182427 0.19431618 0.0010988365 0.26311845 0.34808558 -0.18243366 0.29185843 0.210366
-0.47818878 -0.06433362 -0.7606775 0.3849199 -0.37214133 0.34611 -0.6141822 -0.6688017
0.0979676 0.18285282 0.40322143 0.2723766 -0.9949489 0.70485556 0.006623592 0.31035283
-0.08046067 -0.34629205 0.40923044 0.02569247 0.20477168 0.4910998 0.030184217 -0.10454183
-0.0038262785 0.29822016 0.10619124 0.5830194 -0.5517885 -0.37440956 -0.20656085 -0.079370156
-0.22748409 -0.20864093 -0.14425248 -0.4076697 -0.34833056 -0.9875867 -0.38520527 0.08408978
0.10556009 -0.12088268 -0.14778964 0.10664931 0.5025068 -0.5896488 0.13198665 -0.1941312
0.05123474 -0.34677562 0.04832853 0.42032814 -0.26700523 0.24701959 -0.23048417 -0.29690784
0.05001501 -0.1640582 0.0704986 0.3319462 0.00029728256 -0.04040395 0.03835324 0.1446323
0.026436485 -0.70426625 0.07379383 -0.117162585 0.081078656 0.71344715 -0.0014385135 -0.23698713
-0.57938576 0.2611565 0.020174908 0.12757456 -0.0154003585 0.10241581 -0.31371588 0.30150917
0.15395495 0.58281624 0.015953787 -0.46113417 0.29960757 0.9213691 -0.3500737 0.34343663
-0.38267732 -0.30055133 0.65972465 -0.94274247 -0.27554563 0.034529157 0.18426797 0.40597174
-0.2451904 -0.572263 -0.18707533 0.053410392 0.058864035 0.26210213 0.10167466 -0.59408134
-0.123118214 0.28459132 0.1511865 -0.07085451 0.11100915 1.0819254 -0.0341823 0.11692784
0.32923642 1.1008989 -0.23005208 0.03601181 0.21553889 1.1004201 -0.04672657 -0.31914872
0.1184063 0.41057837 0.092951596 0.034496397 0.08314905 -0.3667488 -0.19039148 -0.36344245
0.31960562 -0.658041 -0.6878794 0.0042351144 0.29688653 -0.17405479 0.08459354 0.48273122
0.09473253 -0.3631395 -0.5633865 -1.1570033 -0.25176737 0.44710216 0.082855 -0.4606004
-0.17352319 -0.85475516 0.12029597 -0.11801609 -0.24491642 0.1522048 -0.16652377 0.16977805

embed_layer2.0.bias f4 [16]
00000000: 3aa2 b73d 21cf d6bd 4c41 9dbe 28d5 87bd
00000010: a85a a8bc 48c2 fb3b d789 373e 5d10 8d3f
00000020: a9a9 723f 2533 d93d 72fe dfbd 7002 573e
00000030: 5a46 c43d f346 d53d 47b8 2d3e b5a3 9abd
0.08966489 -0.104887255 -0.3071388 -0.06632453 -0.02055104 0.0076830722 0.17923675 1.1020619
0.9479013 0.10605458 -0.109372035 0.20997024 0.09583731 0.10413923 0.16964827 -0.07550756

embed_layer2.1.weight f4 [16]
00000000: 7dac 2940 ecb1 0740 d846 fe3f 6fdb 2440
00000010: a335 c63f 36f7 cb3f e47d 0940 7649 4440
00000020: bead 5540 69a8 eb3f da42 1340 fb74 f53f
00000030: d04d d53f 152b 2040 3011 2340 4548 ec3f
2.6511528 2.1202345 1.986537 2.5758932 1.5485119 1.5934818 2.1483088 3.0669837
3.3387294 1.841077 2.3009553 1.9176325 1.6664371 2.5026295 2.547924 1.8459555

embed_layer2.1.bias f4 [16]
00000000: 1b65 e8be b1fb 43be 4db6 b5be de4c f03d
00000010: 7075 adbe 2133 4b3e 3f2d 29bf 1d9e 40be
00000020: 6e92 17bf 33a9 b3bd 0986 353e 1eec fcbd
00000030: b7b2 a03e f3dc 5dbe b951 f7be 3d29 ba3d
-0.45389637 -0.19138981 -0.35490647 0.11733411 -0.3387866 0.19843723 -0.66084665 -0.18810315
-0.5920781 -0.087725066 0.17726912 -0.12349723 0.3138635 -0.21666317 -0.48304537 0.09089897

embed_layer2.1.running_mean f4 [16]
00000000: f567 1141 712b b4c0 96ed a240 ac1e ef40
00000010: b436 bf3f 7c15 acc0 07b5 3141 2bec 87bf
00000020: 7590 1c40 4f73 1141 8a11 2941 446b 6fc1
00000030: d4cf 80c0 1750 85c0 89f9 82bf 8f43 8ec0
9.08788 -5.630303 5.091502 7.472494 1.4938569 -5.3776226 11.106696 -1.0618948
2.446317 9.0906515 10.566782 -14.963688 -4.0253696 -4.1660266 -1.0232402 -4.445747

embed_layer2.1.running_var f4 [16]
00000000: 780b 8940 844f ae40 9a70 a040 5f92 0b41
00000010: 6754 b340 d7b2 3d41 79e3 8740 4eb2 bd40
00000020: 743b af40 3b0d 8640 82ea 3e41 be32 bb40
00000030: 84e5 2c41 fee4 d140 a0ca b640 352e 7141
4.28265 5.4472065 5.0137453 8.723235 5.604053 11.856162 4.2465177 5.9280157
5.4760075 4.189115 11.932253 5.849944 10.806034 6.559203 5.7122345 15.073781

Fix_Position.pe f4 [1, 150, 16]
00000000: 0000 0000 0000 803f 0000 0000 0000 803f
00000010: 0000 0000 0000 803f 0000 0000 0000 803f
00000020: 0000 0000 0000 803f 0000 0000 0000 803f
00000030: 0000 0000 0000 803f 0000 0000 0000 803f
00000040: 110a da3d 878b 7e3f c522 0a3d b8da 7f3f
00000050: 65c2 2e3c 46fc 7f3f 0e0f 5d3b a1ff 7f3f
00000060: 63cf 8b3a f7ff 7f3f ebd8 b039 ffff 7f3f
00000070: 3ab2 df38 0000 803f 5a7a 0d38 0000 803f
00000080: d3cc 583e 5732 7a3f a70e 8a3d ed6a 7f3f
00000090: d9bf ae3c 16f1 7f3f bb0e dd3b 82fe 7f3f
000000a0: 5ecf 0b3b daff 7f3f ead8 303a fcff 7f3f
000000b0: 3ab2 5f39 0000 803f 5a7a 8d38 0000 803f
000000c0: de0e a13e 1801 733f b7e3 ce3d beb0 7e3f
000000d0: b40c 033d 73de 7f3f a6ca 253c a5fc 7f3f
000000e0: 00b7 513b aaff 7f3f afa2 843a f8ff 7f3f
000000f0: acc5 a739 ffff 7f3f 8737 d438 0000 803f
00000100: a8e2 d33e b70c 693f 43be 093e 62ac 7d3f
00000110: abb5 2e3d 5bc4 7f3f 710d 5d3c 09fa 7f3f
00000120: 49cf 8b3b 67ff 7f3f e7d8 b03a f1ff 7f3f
00000130: 3ab2 df39 ffff 7f3f 5a7a 0d39 0000 803f
00000140: ef26 023f 2c72 5c3f 8ce2 2b3e 245e 7c3f
00000150: 8b59 5a3d d1a2 7f3f cc27 8a3c aef6 7f3f
00000160: 08c3 ae3b 11ff 7f3f 1f0f dd3a e8ff 7f3f
00000170: 65cf 0b3a feff 7f3f f0d8 3039 0000 803f
00000180: cde1 183f 2656 4d3f c6d4 4d3e 66c6 7a3f
00000190: 87fb 823d d479 7f3f 79c8 a53c 94f2 7f3f
000001a0: b9b6 d13b a8fe 7f3f aaa2 043b deff 7f3f
000001b0: abc5 273a fdff 7f3f 8737 5439 0000 803f
000001c0: cadf 2d3f 9ae4 3b3f 0f8b 6f3e 9fe5 783f
000001d0: 79c6 983d 6649 7f3f ab68 c13c bbed 7f3f
000001e0: 5caa f43b 2cfe 7f3f c5bd 1a3b d1ff 7f3f
000001f0: f2bb 433a fbff 7f3f 1d96 7739 0000 803f
00000200: d1e3 403f 4b50 283f c87d 883e 5abc 763f
00000210: f78c ae3d 8911 7f3f 4b08 dd3c 24e8 7f3f
00000220: f6ce 0b3c 9dfd 7f3f ddd8 303b c3ff 7f3f
00000230: 38b2 5f3a faff 7f3f 5a7a 8d39 ffff 7f3f
00000240: 8ab6 513f 34d2 123f 490e 993e 394b 743f
00000250: 604e c43d 3ed2 7e3f 47a7 f83c cee1 7f3f
00000260: b348 1d3c fbfc 7f3f f4f3 463b b3ff 7f3f
00000270: 7fa8 7b3a f8ff 7f3f a529 9f39 ffff 7f3f
00000280: 0327 603f be51 f73e 3772 a93e f292 713f
00000290: 100a da3d 878b 7e3f c422 0a3d b8da 7f3f
000002a0: 65c2 2e3c 46fc 7f3f 0b0f 5d3b a1ff 7f3f
000002b0: 63cf 8b3a f7ff 7f3f f0d8 b039 ffff 7f3f
000002c0: 350b 6c3f 632f c63e cba4 b93e 5094 6e3f
000002d0: 66bf ef3d 653d 7e3f 80f1 173d e5d2 7f3f
000002e0: 0a3c 403c 7dfb 7f3f 1e2a 733b 8dff 7f3f
000002f0: 86ca 993a f5ff 7f3f 3b88 c239 ffff 7f3f
00000300: 8740 753f 57cc 923e 4ea1 c93e 3150 6b3f
00000310: e1b6 023e dde7 7d3f c8bf 253d 52ca 7f3f
00000320: a0b5 513c a2fa 7f3f 98a2 843b 77ff 7f3f
00000330: a9c5 a73a f2ff 7f3f 8737 d439 ffff 7f3f
00000340: 2eac 7b3f 347c 3b3e 1863 d93e 8ac7 673f
00000350: 408a 0d3e ee8a 7d3f 958d 333d 01c1 7f3f
00000360: 272f 633c b3f9 7f3f 21b0 8f3b 5fff 7f3f
00000370: ccc0 b53a f0ff 7f3f d2e6 e539 feff 7f3f
00000380: 793b 7f3f 4f7c 9e3d 92e5 e83e 62fb 633f
00000390: 8059 183e 9e26 7d3f de5a 413d f0b6 7f3f
000003a0: 9da8 743c b1f8 7f3f a8bd 9a3b 45ff 7f3f
000003b0: eebb c33a edff 7f3f 1c96 f739 feff 7f3f
000003c0: 0ee4 7f3f e333 efbc 3524 f83e d4ec 5f3f
000003d0: 5024 233e edba 7c3f 9527 4f3d 22ac 7f3f
000003e0: 0011 833c 9df7 7f3f 2ecb a53b 29ff 7f3f
000003f0: 11b7 d13a ebff 7f3f b4a2 043a feff 7f3f
0.0 1.0 0.0 1.0 0.0 1.0 0.0 1.0
0.0 1.0 0.0 1.0 0.0 1.0 0.0 1.0
0.10646451 0.9943165 0.033724565 0.99943113 0.010666464 0.99994314 0.0033730897 0.99999434
0.0010666664 0.99999946 0.00033730952 0.99999994 0.00010666666 1.0 3.373097e-05 1.0
0.21171884 0.9773306 0.06741076 0.9977253 0.021331714 0.9997724 0.006746141 0.99997723
0.0021333317 0.99999774 0.000674619 0.99999976 0.00021333332 1.0 6.746194e-05 1.0
0.31456655 0.94923544 0.10102027 0.9948844 0.031994537 0.99948806 0.010119116 0.9999488
0.0031999946 0.9999949 0.0010119284 0.9999995 0.00032 0.99999994 0.000101192905 1.0
0.41383862 0.91035026 0.13451485 0.9909116 0.04265372 0.9990899 0.013491974 0.999909
0.0042666537 0.9999909 0.0013492376 0.9999991 0.00042666664 0.99999994 0.00013492387 1.0
0.5084066 0.8611171 0.1678564 0.9858115 0.05330805 0.99857813 0.01686468 0.9998578
0.005333308 0.99998575 0.0016865468 0.99999857 0.00053333334 0.9999999 0.00016865483 1.0
0.59719545 0.8020958 0.20100698 0.9795898 0.06395631 0.9979527 0.020237194 0.9997952
0.006399956 0.9999795 0.0020238557 0.999998 0.0006399999 0.9999998 0.00020238581 1.0
0.679196 0.73395693 0.2339289 0.97225374 0.07459731 0.9972137 0.02360948 0.9997212
0.0074665975 0.9999721 0.0023611647 0.9999972 0.00074666657 0.9999997 0.00023611677 1.0
0.7534762 0.6574752 0.26658463 0.9638115 0.08522981 0.9963613 0.026981493 0.99963593
0.00853323 0.9999636 0.002698473 0.99999636 0.00085333316 0.99999964 0.00026984775 0.99999994
0.8191916 0.57351995 0.2989371 0.9542728 0.09585261 0.99539554 0.030353202 0.99953926
0.009599852 0.9999539 0.003035781 0.9999954 0.0009599998 0.9999995 0.0003035787 0.99999994
0.8755953 0.48304552 0.33094952 0.94364846 0.106464505 0.9943165 0.03372456 0.99943113
0.010666464 0.99994314 0.003373089 0.99999434 0.0010666664 0.99999946 0.00033730967 0.99999994
0.922046 0.38708028 0.3625854 0.93195057 0.11706428 0.9931243 0.037095547 0.99931175
0.011733064 0.99993116 0.0037103961 0.99999315 0.001173333 0.99999934 0.00037104063 0.99999994
0.95801586 0.28671524 0.39380878 0.9191924 0.12765075 0.9918192 0.0404661 0.9991809
0.01279965 0.9999181 0.004047703 0.99999183 0.0012799996 0.99999917 0.00040477162 0.99999994
0.983096 0.18309098 0.42458415 0.9053885 0.1382227 0.99040115 0.043836195 0.99903876
0.013866222 0.99990386 0.00438501 0.9999904 0.0013866662 0.99999905 0.00043850258 0.9999999
0.99700123 0.07738554 0.45487648 0.89055455 0.14877892 0.9888705 0.0472058 0.99888515
0.014932779 0.9998885 0.004722316 0.99998885 0.0014933327 0.99999887 0.0004722335 0.9999999
0.9995736 -0.029199546 0.48465124 0.87470746 0.15931821 0.98722726 0.050574858 0.9987203
0.015999317 0.999872 0.0050596213 0.9999872 0.0015999993 0.99999875 0.0005059645 0.9999999

attention_layer.relative_bias_table f4 [299, 8]
00000000: 7b22 d23f 18b5 4cbe f6df c53e 52aa 993e
00000010: 1845 b6be 3158 94bf a57d dfbe 9b90 4e3e
00000020: 47f6 6a3e 7664 83be 97c6 893f 62d0 76bc
00000030: f999 273f 62b8 63be e42e 2abf 0369 4ebe
00000040: 2070 af3f 3d29 21be 86a5 903f 2144 5e3e
00000050: 6977 0b3f 20d6 d0be 3500 2c3b e0b0 973e
00000060: dfb9 473f e538 093e 1183 a23e 5fa8 edbe
00000070: f2a6 5ebe c210 c33c 54b8 be3e ae8e a9be
00000080: 0a80 513f a47d a6be 020b 79bd c9a6 4ebf
00000090: 7505 d23e 78f5 26bf fda2 6a3f 5eb8 9ebe
000000a0: 4520 283f db6a 8c3e 2959 5a3e 0352 633e
000000b0: 4806 3bbd ad8d c2be aa12 823f a0d6 a93e
000000c0: 74dc 673e c017 03bd cd15 01bf 127f 4dbd
000000d0: 7ff3 f63e 7e1b 1fbf 9eb8 d83e eabb babe
000000e0: 4873 aabe e40e c0bd 752e d53c 52d1 d5be
000000f0: dbf0 9dbd 0696 b1be ab73 2c3e 3f8a 0c3f
00000100: 8890 1cbf 2747 d8bc 2272 ecbe 6140 93be
00000110: 2108 0c3e c443 bbbd c0ba aabe 556c 233d
00000120: d319 22be 8c24 b1be 05d3 3abe 1096 a7be
00000130: dc9f 40be e0a1 73bd 761d 0c3e 13c0 03be
00000140: b956 cb3e 880a 6ebd 887e 00bf 67df 9fbc
00000150: d045 8c3d 9a0f 8fbe ccb1 16be 7f20 2cbd
00000160: 6d65 ba3b 6cda 193c b208 51bf 4dc6 e6be
00000170: b6e4 4a3e bfd5 1fbe 39ff b83e a9d2 cdbd
00000180: 65be 47be 4fa0 12be d777 debe d63c d8be
00000190: 97c1 1cbe f36f 0fbe c267 a93d 3c98 67be
000001a0: 2ce0 8d3e 5acd 49be 964f 65be 32b9 dabe
000001b0: 6224 f13d 5924 97be 6f0f f73e 2492 cbbd
000001c0: 6265 1dbe 55e7 c83d e3e6 cabd 322c 74bd
000001d0: 4b33 07bd 8bb9 21be 8e95 3f3d 58ca 6cbd
000001e0: e802 febd e0ba 4fbd f0f0 66be ea34 2cbe
000001f0: 893f 8a3e 41c1 01bd c783 1e3e ee85 833e
00000200: 6e7c 033d d7ed 8a3b 6132 94be 90aa 2f3d
00000210: 7414 d33d 26ff 20bd 67da 773e 9846 6f3e
00000220: b960 ec3e 1abd 58bd 8ced 95be 0019 4bbe
00000230: ef58 66be b8db a5be e49b 1b3e 3bec e33d
00000240: 0066 0dbe 5fe2 3dbd ecc1 f6b8 9aca 11be
00000250: eaf6 c23d d948 6abe 45ee 6e3d 2c74 b9be
00000260: 2841 e73d 8e1a afbd b6a2 93be 0040 22be
00000270: bc47 25be 047b 7fbd d1f9 4e3d 7d73 f23d
00000280: 66c1 333e 4658 4abd 6e08 e13d 76e6 1f3e
00000290: 6806 0abe ed25 dcbd 9b5b 453e bed9 3cbd
000002a0: 3ee4 223d 9a7d 5c3c 381b 59be a739 663e
000002b0: 9f65 02bd a557 84be d9fc d0bd c793 1f3d
000002c0: ab5e 8fbd 77de 6fbd e28a 02be d5e5 ccbd
000002d0: 2ad7 943d aa93 2bbe 2b4e 413e 5750 aa3b
000002e0: 9415 773c ab76 393d 9311 7dbe fa22 a4bc
000002f0: 5d25 9c3d b5cb d4bd 445d 873e e6b1 39ba
00000300: 0cb4 06be d419 ecbd 0c0f cebd aa01 ccbb
00000310: 6cd7 bdbd 3898 00be dd4a 8b3e 4910 d03d
00000320: c15c 483e b945 82be 6af4 afbe 0c84 8a3e
00000330: cf2a 05be 018a 6bbe 863e 873e 8735 b33d
00000340: 885f c9bc 9df0 54bd ae4b b5bd 67ae 4dbd
00000350: 8f9f d03d fb2d bcbe f43b 12be 2011 673d
00000360: f988 f8bd 4d04 623c 3820 063e e8df aabd
00000370: 9411 2e3d 8510 81be de28 1a3e 1a8b 6fbd
00000380: ae4a 343c 57c3 3c3d bb0d 00be 4a30 ba3d
00000390: 023f c6bd e879 e7bd 5323 073c 8566 33bd
000003a0: 454a a2be 5f81 8fbc a756 14be 4130 0fbd
000003b0: 661d 173e 4481 ecbd a655 03be 01d6 81bd
000003c0: bdce 8cbd d4e1 3abe 5e21 ccbd ae48 043e
000003d0: 25d0 07be 12d2 edbd 75c6 d03e 996a cfbc
000003e0: 261e 91bd dc33 afbd be7e 8abe 6910 15be
000003f0: 7215 b4bb b409 6abe 3b53 0dbb 4a86 3d3e
1.6416773 -0.19990957 0.3864743 0.30012757 -0.3559959 -1.1589414 -0.43650547 0.2017235
0.2294551 -0.25662583 1.076373 -0.015064331 0.6546932 -0.22238305 -0.664778 -0.20157246
1.3706093 -0.15738387 1.1300514 0.21705677 0.5447908 -0.40788364 0.002624524 0.29627132
0.7801799 0.1340061 0.3174062 -0.4641752 -0.21743372 0.023811702 0.37250006 -0.33116668
0.81836 -0.3251773 -0.060801513 -0.80723244 0.41019788 -0.65218306 0.9165495 -0.31000036
0.6567424 0.27425274 0.21323074 0.22199254 -0.045660287 -0.37998715 1.0161946 0.33171558
0.2264269 -0.03200507 -0.5042389 -0.05017001 0.48232648 -0.62151325 0.42328352 -0.36471492
-0.33291078 -0.0937784 0.026023129 -0.4176126 -0.07711955 -0.3468477 0.16840999 0.54898447
-0.6115804 -0.026401116 -0.46180826 -0.28760055 0.13674976 -0.09143785 -0.33345604 0.039898235
-0.15830164 -0.34598196 -0.1824456 -0.32731676 -0.18810982 -0.059480548 0.13683113 -0.12866239
0.39714602 -0.058115512 -0.5019307 -0.019515706 0.06849253 -0.2794159 -0.14716262 -0.04202318
0.0056883604 0.009390455 -0.81653893 -0.45073166 0.19813809 -0.15608881 0.3613222 -0.10049946
-0.19506223 -0.14318965 -0.43450806 -0.42233914 -0.15308224 -0.14007549 0.08271743 -0.22616667
0.27710092 -0.19707242 -0.22393641 -0.42719418 0.117745176 -0.2951992 0.48253962 -0.099399835
-0.15370706 0.09809748 -0.099073194 -0.05961246 -0.0330079 -0.15793435 0.046773486 -0.057810158
-0.12402898 -0.050715327 -0.22552848 -0.1681706 0.27001598 -0.031678442 0.15479957 0.25688118
0.032101087 0.0042397785 -0.28944686 0.04288727 0.103066355 -0.03930583 0.24204408 0.23366773
0.46167544 -0.052914716 -0.29282796 -0.19833755 -0.22494863 -0.32394195 0.15196186 0.11129042
-0.13808441 -0.046358462 -0.00011766315 -0.14237443 0.09519751 -0.22879352 0.0583327 -0.36221445
0.112917244 -0.08549987 -0.28835076 -0.15844727 -0.16140646 -0.062373176 0.050531212 0.11838434
0.17554244 -0.04940059 0.10987936 0.15615258 -0.13479006 -0.10749421 0.19273226 -0.046106093
0.03976845 0.01345768 -0.2120179 0.2248293 -0.031835195 -0.25848117 -0.10204477 0.03895929
-0.07000478 -0.05856177 -0.12748292 -0.100047745 0.07267602 -0.16755548 0.18877475 0.0051975655
0.015080828 0.045279186 -0.24713735 -0.02003621 0.07624314 -0.103904165 0.26438344 -0.0007083699
-0.1315462 -0.11528364 -0.10061464 -0.0062257843 -0.09269604 -0.12558067 0.27205554 0.10159356
0.19566633 -0.2544382 -0.3436616 0.2705387 -0.13004611 -0.23001863 0.2641489 0.08750444
-0.024581686 -0.05198728 -0.088523254 -0.05021515 0.101866834 -0.3675383 -0.14280683 0.056412816
-0.121355005 0.013794971 0.13098228 -0.08343488 0.042497233 -0.25207916 0.15054652 -0.058482267
0.011004133 0.046084728 -0.12505238 0.09091242 -0.096799865 -0.11302549 0.008248168 -0.043798942
-0.31697288 -0.017517744 -0.1448618 -0.034958128 0.14757308 -0.11548093 -0.12825641 -0.06339646
-0.0687537 -0.18250209 -0.09967302 0.1291835 -0.13262995 -0.11612333 0.4077641 -0.025319384
-0.070858285 -0.08554813 -0.27049822 -0.14557041 -0.0054957205 -0.22855264 -0.0021564502 0.18508258

attention_layer.key.weight f4 [16, 16]
00000000: bb81 6f3e fff5 973c 2d05 2f3e 25e3 2bbe
00000010: 6179 44bf 43c5 19bf 1a7b db3e 0b3b a2be
00000020: 996d 163f 0278 89bf 08ed c83f 982a 283c
00000030: 3e2b 083e 9bd6 92bf 9f85 bf3c 93c4 7f3e
00000040: e6b1 133e 73cc e9be 22fe d13d d296 f03d
00000050: f871 ce3e 953f 39bd 143b 7c3f beb9 513d
00000060: 55dc b23d 0dac 93bf 9ae4 843f c6a8 f83e
00000070: a068 47be 4c93 26be 0eb2 8ebe b940 43be
00000080: 8016 6ebe f484 85be 8936 d5be ba11 b6be
00000090: 40a4 2cbf a6e4 cf3e 0630 c3bf c817 2ebf
000000a0: 431f 3ebe e0c5 b7be c4c5 623f c701 e73e
000000b0: 292c a63e 55ac 01bf f16d a83d 646d 50be
000000c0: a447 bebb 0a9d 543b 1ce2 cb3e 5448 2a3e
000000d0: 3831 153f b461 113e e554 ad3f e66f 313f
000000e0: f3c3 74be 0e2a 0d3f 6fb8 b6bf cdf3 80be
000000f0: ec05 8abe d858 243e 1997 c93d 376b dbbc
00000100: b1bb e83d e1e5 583e a078 e83e 62e1 b13e
00000110: ccb6 893f c8e0 d73d 81fe f13f 646f 6cbe
00000120: 12de 523f 1774 123d e548 ff3e a7de 34bf
00000130: 4837 9a3f c473 c2be f5c5 08be 9e10 abbd
00000140: 8885 b2be 3944 b0be 53d2 12bf 87d2 0fbf
00000150: ba59 cebf 2ecf c0be 9e90 5cbf 1911 0ebe
00000160: 6f1f eebf fa60 21bc 002b 6b3f ef18 813c
00000170: 1d46 1a3e 8f46 563e 7d98 6a3c fc3e 2b3e
00000180: 8b14 98bd 18b8 32be ee72 803e 270f 5bbf
00000190: be6d 233e 7a80 173f b2de 2fbf e3a8 14be
000001a0: da3d 093e 21cf 5fbd 7674 48bf 4ca3 b5bf
000001b0: 9492 a5be 8b87 e73e e549 063f 9476 26bf
000001c0: f272 f33c c4e2 f7be c3a5 44be 2914 d1be
000001d0: ea82 0e3e 2a01 8c3f 4bd9 03be 8501 88bf
000001e0: 1114 35c0 1858 d1be ac71 f93e 42fe b5bc
000001f0: 3b2c b4be b5e9 25be a62d 72be 824e 4a3f
00000200: 719e 633d 67c2 b93e 02f4 75bd 7e04 a3bd
00000210: 4c5d 1abe 61a9 fdbe 9ac3 1abe 88c7 96bf
00000220: 9ae0 ae3e 83b3 c03d 2be3 fe3e 95f7 bebe
00000230: ab22 12be 5435 c6be 5996 07c0 4a48 d93f
00000240: 19e1 74be c778 e6be f847 02bf 2954 98be
00000250: a0c5 97bf e09e 4d3f 3669 74be 6f6d 5e3e
00000260: cf94 073f 3d39 1ebf c5ac 0540 eda8 1ebf
00000270: 9eb1 de3f 58f6 20bf 0bd9 3cbf dbb3 d4be
00000280: 6c53 71bc 9881 7c3e 1e26 3bbc 243a d23e
00000290: 1d5b b6be c2ab 5abe cb84 0c3f 6b6d b43e
000002a0: bb05 eebd c8b8 57bf aa2f 35bf b787 febe
000002b0: d57b 573e f3f2 953e 1c91 423f 6d19 5bbf
000002c0: 27c4 87bd 50d3 15be 8428 ac3d 5254 a0be
000002d0: 0ace 06bf 2b22 82bf 9fb3 1a3e fed9 883d
000002e0: 9009 a8be 3188 04bf f2df 00bf 28e5 3ebc
000002f0: 0af1 ac3f 5db9 dfbd 72c1 113f 41c2 39bf
00000300: 8431 e23e 7334 8d3d e51e d53e fce2 b23e
00000310: 52cc 1fbf 1f8d 0bbf 2731 363e 1242 cb3b
00000320: d84e d03e 2d70 8fbf 3a6e bbbe 30a4 1abf
00000330: 980d 02bf bda4 81bc 4f25 0bbd ebb9 2dbf
00000340: 3037 06bf 8179 26be 4382 e73e eefc 253f
00000350: 60fd 14bf 054a 80be 84dc 6f3e 6bdd 26bf
00000360: 73da 83bc 0ec0 81be 0aae 0840 26d6 31bf
00000370: e931 85bf 4a5a 4ebf eb13 b3be d145 813f
00000380: de6b 433f 1d12 1ebf 26cd 723f 7ceb dbbe
00000390: 1f3f 8b3f 2193 8f3e 678f 893e e213 04be
000003a0: de8d b73e ce25 e63d d0c2 083f f41a 16be
000003b0: 8380 98be 993c 353f 00c3 fd3e 8c02 30bf
000003c0: d3b0 673e 1e03 f93e f9a9 543f 0c40 df3e
000003d0: 71a1 263f f919 eebe 82af f33e cb7b 77be
000003e0: 61db d53e ace7 fb3e f4f4 ad3f 9d93 f5be
000003f0: b900 2c3e aa6a ac3d dac9 1cbc 46a3 363e
0.23389332 0.018549917 0.17091818 -0.16785868 -0.7674771 -0.6006662 0.42867357 -0.3168567
0.5876098 -1.0739748 1.5697336 0.010264061 0.13297746 -1.1471742 0.023379145 0.24977331
0.14423332 -0.45663795 0.1025355 0.11747517 0.40321326 -0.045226652 0.98527646 0.05120253
0.08733431 -1.1536881 1.0382264 0.48566264 -0.19473505 -0.16267127 -0.2787022 -0.19067658
-0.2325077 -0.26077998 -0.4164317 -0.355604 -0.67438126 0.40604132 -1.524903 -0.6800504
-0.18566613 -0.35893154 0.88583016 0.45118544 0.32455567 -0.5065358 0.08224095 -0.20354229
-0.00580688 0.0032442235 0.39820945 0.16629153 0.58278227 0.14197427 1.3541533 0.6931137
-0.23902874 0.55142295 -1.4275035 -0.25186005 -0.26957643 0.16049516 0.09843273 -0.026784522
0.11363924 0.21181442 0.4540453 0.34742266 1.075891 0.105409205 1.8905793 -0.23089367
0.823701 0.035755243 0.49860302 -0.7065224 1.204812 -0.37978947 -0.13356765 -0.08352779
-0.348675 -0.3442705 -0.5735218 -0.56180614 -1.6121132 -0.37658066 -0.8615817 -0.1387371
-1.8603343 -0.009849781 0.9186249 0.01575896 0.15065809 0.20925353 0.014318583 0.16723245
-0.07425793 -0.17453039 0.25087684 -0.85569996 0.15959832 0.59180415 -0.6869918 -0.1451755
0.13402501 -0.054640893 -0.78302705 -1.4190459 -0.32338393 0.452206 0.52456504 -0.65024686
0.029717896 -0.48415196 -0.19203858 -0.40835693 0.13917127 1.0937855 -0.1287586 -1.0625464
-2.8293498 -0.40887523 0.48719537 -0.022215966 -0.35189995 -0.16202433 -0.23650226 0.79026043
0.055571023 0.3628113 -0.060047157 -0.07959841 -0.15074652 -0.49543288 -0.15113679 -1.1779642
0.34155732 0.09409239 0.4978269 -0.37298265 -0.14271037 -0.3871256 -2.1185515 1.6975186
-0.23913993 -0.4501402 -0.50891066 -0.2975171 -1.1857185 0.8032055 -0.2386826 0.21721433
0.5296144 -0.6180609 2.08867 -0.6197651 1.7397954 -0.6287589 -0.7376868 -0.4154347
-0.014729362 0.24658811 -0.011422662 0.41059983 -0.3561639 -0.21354583 0.54890126 0.3523973
-0.11622187 -0.8426633 -0.70775855 -0.49712917 0.21043332 0.29286918 0.7600267 -0.8558567
-0.0662921 -0.1463139 0.08406165 -0.3131433 -0.5265814 -1.0166677 0.15107583 0.06682204
-0.32819796 -0.5177031 -0.50341713 -0.011651315 1.3511059 -0.10924027 0.569358 -0.7256203
0.44178402 0.068947695 0.41625133 0.349388 -0.62421143 -0.5451221 0.17792188 0.0062029446
0.40685153 -1.1206108 -0.36607534 -0.6040678 -0.5080199 -0.015825624 -0.033971127 -0.67861813
-0.5242796 -0.16257288 0.4521657 0.64839065 -0.5819912 -0.25056472 0.23423964 -0.65181607
-0.016095376 -0.2534184 2.1356225 -0.6946739 -1.0405856 -0.8060652 -0.34976134 1.0099431
0.7633647 -0.6174639 0.9484428 -0.42953098 1.0878638 0.28041938 0.2686722 -0.1289821
0.35850424 0.112376794 0.5342226 -0.1465872 -0.29785547 0.7079559 0.49562836 -0.68753886
0.22626047 0.4863519 0.8307186 0.4360355 0.6509009 -0.4650419 0.4759484 -0.24168317
0.41768935 0.4920019 1.3590379 -0.47964182 0.1679715 0.08418782 -0.00956961 0.17835721

attention_layer.value.weight f4 [16, 16]
00000000: 3f4d 943e 5c58 8f3e 5d03 293e 89dd 923e
00000010: ff8e f23e 945a eabe 4e3a cc3e 9a4a b4bd
00000020: 9688 c1be 4b70 4fbe 541e 693e 3e7c 573e
00000030: 3587 54bd e8b2 7a3e 2dc3 7b3e 23f9 02bf
00000040: 4218 6cbe f257 23bb c82d 6d3e 6507 1e3e
00000050: 36fc 20be 0f82 133b ff83 0b3f 80eb a0bd
00000060: d602 2f3f e104 14bf db9e 6c3e 0088 1d3f
00000070: 7346 863e fe15 64bc 955a 853d 6adc f5be
00000080: 8b5b 793d 3252 33bc e101 573e 9093 fc3c
00000090: 1722 6bbe a908 7bbd b634 ba3d a076 78bd
000000a0: c0bd d23f d38b d0bd d956 b9be 26ab c7be
000000b0: 065a a3bd 624d 163e e7b0 3abf 1352 d63c
000000c0: d985 9b3d 7fea 8ebc 9f1a 70bc 39dc 133e
000000d0: c984 3dbe 2bd0 15be 96ef c03f 7889 2cbe
000000e0: c339 f63d e112 7cbe f857 323f 291c cebd
000000f0: ae7e 933e 7adc 243e 4f5d 1bbf 770e 1bba
00000100: 0abb 333c 7a44 473c 7fbb 813e 5598 8dbe
00000110: 0ec6 5ebe 2a11 6cbd c6af ef3d 19ce 0ebf
00000120: 9578 2bbf ce29 cebd 7762 093e 3c8e 2b3f
00000130: b2b9 61be 58d2 3c3f 3c9e 4abf 2e9e be3d
00000140: ff61 c6bb d031 06bc fe03 2d3d 6469 4e3d
00000150: ee54 2b3f 34be 343f 06a8 c73e 2060 12bd
00000160: 9635 2e3f 3ae6 63be 715b 5abe f247 39bd
00000170: 6f8e 52bf 1394 b2be 648f e8be 6e7f e0bc
00000180: 6848 05bd e259 f2bc abb4 3cbe 4071 dc3c
00000190: 2844 9fbe fa9b 00be d692 923e b950 3b3e
000001a0: bb25 e8be 01ec 8cbd c071 0cbf b5e9 1a3f
000001b0: 1c40 44be b791 ac3e 535e 593f 7b39 ddbe
000001c0: 5747 51bd 14cf 61bc 17cc b6be 3bcd 5ebd
000001d0: 826e d43d 5c9f 85be 0752 9abf 9b14 9d3e
000001e0: 1e17 dcbd acc5 193e 0eba 92be 3dfc 56be
000001f0: d18f 0c3e ccfa a73e c967 873e 2304 e23d
00000200: 5e40 f13c 92c7 7f3d fdbb 0c3e fce2 77be
00000210: 830a 703e 3d04 eebd a6cd e8be d921 23bd
00000220: a081 d4be ee13 dfbe b6b9 6b3f 478e 8ebd
00000230: 1507 05be 7cea 363e e268 45bf 33fa de3e
00000240: bc68 003d a69f 603c 9577 bd3e 00d4 31be
00000250: 34c4 abbe a220 c2bd 14ad c2be f004 edbe
00000260: bf7b 3d3f 85c9 303d a68c a3be d737 5e3e
00000270: 703e eabc 5bfd 303f fe49 143e cf1c e3bc
00000280: 4c57 ac3c 2a96 913c 1d84 e4bd 2aea 93bd
00000290: 7596 3cbe dba4 233e 6c17 c13b 25df 5c3e
000002a0: 86d5 4d3f 8bfe b1be 9e32 0fbf eb51 7d3e
000002b0: 4c55 bebe 9960 4b3d 24d9 a7bf de8c b13c
000002c0: 852c e23c 7827 7b3c d8ba 84bd 740f 903d
000002d0: b9c6 2a3f ea93 2a3f 1f6e 7a3e 307a 5abd
000002e0: 318f 69be 7962 b3bd 172f abbe 290c b5bd
000002f0: 9597 93bf d140 c33d 492c 47bd 95ac 5dbe
00000300: 1d88 a23c ec67 70be 643d 383e 900a ae3e
00000310: 76b4 4ebb 5890 f03b fa8b 713e 6eef 9b3e
00000320: c600 023f 8514 2ebe a0dc 45be 9e60 b53e
00000330: ca24 e1be 9f36 9dbe ded5 c53d bf6e 69bb
00000340: 0964 04be f56d cf3e 2431 98be a628 143e
00000350: c1c5 083e d76d 823d 5f26 22be 4ffc cc3d
00000360: 984f 83bf cde8 653d cc63 763e 8a1a f43e
00000370: 7b37 3a3e 0628 643e d85a ba3e 6fc1 a63e
00000380: f3ed 23bd 66d7 503d 0742 7b3c 0043 4cbc
00000390: e84a cb3e 5cdc 863e d7de dfbe 620c 853e
000003a0: b3fe 523e 7d12 afbe ca6a 42bf 2fe2 213f
000003b0: 7ec4 6ebe 92c1 4ebe 7188 893f d07d e2be
000003c0: f6bd 053a 5a7e 5d3d edf1 a2bd 130e 25be
000003d0: da43 3e3e 8526 3ebd 5f4a 18bf c847 1abf
000003e0: b6a3 1bbf 6163 523e 19c6 ab3e 81dc 5a3d
000003f0: 933f e6be 5547 363f 1cc9 d83e 1362 813e
0.28965184 0.279971 0.16505189 0.28684643 0.47374722 -0.4577223 0.39888233 -0.088032916
-0.3779952 -0.2025768 0.22765476 0.21043488 -0.051886756 0.2448231 0.24586172 -0.511614
-0.23056129 -0.0024924246 0.23161995 0.15432508 -0.15721211 0.002250794 0.54498285 -0.07857418
0.683637 -0.57819945 0.23107474 0.61535645 0.26225623 -0.013921259 0.06511418 -0.48019725
0.060878318 -0.01094489 0.2099681 0.030832082 -0.22962223 -0.061287556 0.09092085 -0.060660005
1.6464157 -0.10182919 -0.36199072 -0.38997763 -0.07976155 0.14677957 -0.7292618 0.026162183
0.07593889 -0.0174458 -0.014654784 0.14439477 -0.18507685 -0.14630191 1.5073116 -0.16849315
0.12022736 -0.24616577 0.6966548 -0.10063965 0.28807586 0.1609973 -0.6068925 -0.0005914936
0.010969887 0.012162322 0.2533836 -0.27655283 -0.2175524 -0.057633556 0.11703448 -0.5578323
-0.6698087 -0.10066567 0.13416468 0.6701391 -0.22043493 0.7375846 -0.79147696 0.09307514
-0.0060541625 -0.008190587 0.042240135 0.050393477 0.6692647 0.70602727 0.3899538 -0.035736203
0.68050516 -0.22255793 -0.21323945 -0.045234628 -0.82248586 -0.34878597 -0.45421898 -0.027404513
-0.032539755 -0.029583875 -0.18428294 0.02690947 -0.31106687 -0.125595 0.28627652 0.18292512
-0.45341286 -0.06880952 -0.5486107 0.6051286 -0.19165081 0.33704922 0.8490955 -0.43207917
-0.051093426 -0.013782281 -0.35702583 -0.05439494 0.1037264 -0.26098144 -1.2056283 0.30679783
-0.10746597 0.15016812 -0.28657573 -0.20994659 0.13726737 0.3280853 0.2644637 0.11035945
0.029449638 0.062446184 0.13743587 -0.24207681 0.2344151 -0.11621902 -0.45469397 -0.0398272
-0.41505146 -0.43569893 0.9208025 -0.06960731 -0.12990983 0.17862886 -0.77113163 0.43550262
0.031349882 0.013709938 0.37005296 -0.17366028 -0.3354813 -0.094788805 -0.38022673 -0.4629283
0.74016947 0.043160934 -0.31943244 0.21700989 -0.028594226 0.6913659 0.14481351 -0.027723698
0.02103772 0.0177718 -0.11158011 -0.072223976 -0.1841677 0.15980856 0.0058926847 0.21569498
0.80403936 -0.34764513 -0.5593661 0.2473828 -0.3717445 0.04965267 -1.3113141 0.021673616
0.02760912 0.015329234 -0.0648095 0.070341974 0.66709477 0.6663195 0.2445607 -0.053339183
-0.2280853 -0.087590165 -0.33434364 -0.0884021 -1.1530634 0.09533847 -0.048626218 -0.21647866
0.019840294 -0.23477143 0.17992169 0.33992434 -0.0031540669 0.007341426 0.23588553 0.30456108
0.5078243 -0.17000015 -0.19322443 0.35425276 -0.4397338 -0.30705735 0.096599326 -0.0035618988
-0.12928785 0.40513578 -0.2972499 0.14468631 0.13356687 0.063686065 -0.1583495 0.100090615
-1.0258665 0.05613022 0.24061507 0.47676498 0.18185227 0.22280893 0.36397433 0.32569453
-0.040021848 0.05098667 0.015335566 -0.012467146 0.39705586 0.26339996 -0.437247 0.2598601
0.20604973 -0.34193793 -0.759442 0.63235754 -0.23317143 -0.20191029 1.0744764 -0.44236612
0.0005101854 0.054075576 -0.079563 -0.1611865 0.18580571 -0.046423454 -0.5948848 -0.6026578
-0.6079668 0.20545723 0.33549574 0.053432945 -0.44970378 0.71202594 0.42340934 0.25270137
