Sleep_stage_classifier/Local_classifacation/ConvTran/output/20241231114404_1n0nnn/model.pth (torch, 257710 bytes, 28 tensors)

embed_layer.0.weight f4 [64, 1, 1, 8]
0	0x3f8470d9	1.0346938
1	0x3ec26dd7	0.37974426
2	0xbf02c059	-0.5107475
3	0xbf34033d	-0.7031744
4	0xbd28ee90	-0.041243136
5	0x3ead32ec	0.33827913
6	0x3ee792e0	0.45229244
7	0xbda5e08d	-0.0809947
8	0x3ed4b683	0.41545495
9	0x3ea4ec93	0.32211742
10	0x3e0d0d3c	0.1377458
11	0x3e407bf6	0.18797287
12	0x3f19c09b	0.6005952
13	0xbf8ee854	-1.1164651
14	0xbe9df382	-0.30849844
15	0x3d32d219	0.043657396
16	0x3e1c95c7	0.1529151
17	0xbe8c10d5	-0.27356592
18	0xbf11be1a	-0.56930697
19	0x3f56b76f	0.8387365
20	0x3ef0d9a3	0.47041044
21	0xbf03671c	-0.5132921
22	0xbeca8d92	-0.39561135
23	0x3e7f4a64	0.24930722
24	0xbf0ea1f5	-0.55715877
25	0x3d82951f	0.06376099
26	0x3e9f4f1f	0.31115052
27	0x3f08d2b3	0.534465
28	0xbf105ddf	-0.56393236
29	0xbf4e0f7a	-0.80492365
30	0x3f5c4bd8	0.8605323
31	0xbe2d6456	-0.16932806
32	0x3e3a9e07	0.18224345
33	0x3ea59a51	0.32344297
34	0xbf7cca3f	-0.98746103
35	0xbf0cebdf	-0.5504741
36	0x3eedb4e7	0.4642708
37	0x3ebd2624	0.3694316
38	0x3e2d0011	0.16894557
39	0xbc3cb213	-0.011517066
40	0xbf79c70e	-0.9756936
41	0xbeb2a6e5	-0.34892955
42	0xbdb9f5e2	-0.090801015
43	0x3e3c4c02	0.1838837
44	0xbd3b56e5	-0.045737166
45	0xbee592fe	-0.4483871
46	0xbef8a211	-0.48561147
47	0xbf29ee3f	-0.6637916
48	0xbe2f260d	-0.17104359
49	0x3ea96ccf	0.33090827
50	0xbe7270e9	-0.23675884
51	0xbf681a73	-0.9066536
52	0x3ea6017c	0.32423007
53	0xbf1c4707	-0.6104588
54	0x3ece6ecb	0.40318903
55	0x3f314c98	0.692575
56	0x3f71da61	0.94473845
57	0x3f50da26	0.8158287
58	0xbf0ab47e	-0.5418166
59	0xbf2e93a7	-0.6819405
60	0x3d242181	0.040071014
61	0xbdbdbc2a	-0.09264405
62	0xbe161b01	-0.14658739
63	0xbd47ec3e	-0.048809282
64	0xbf0efe42	-0.55856717
65	0x3f1c0d1b	0.609575
66	0xbf0a1440	-0.5393715
67	0x3f0596a8	0.5218301
68	0x3f542950	0.8287554
69	0xbeb95bf4	-0.36202967
70	0x3f1ce534	0.61287236
71	0xbef355fa	-0.47526532
72	0xbf2aefa2	-0.667719
73	0xbe1734dd	-0.1476626
74	0xbf066d5c	-0.5251062
75	0x3e45e396	0.19325098
76	0xbeff5997	-0.4987304
77	0x3cd84b78	0.026403174
78	0xbd8a3061	-0.06747509
79	0xbf971853	-1.1804298
80	0x3db4f2cf	0.088353746
81	0xbd66dd5d	-0.056363452
82	0x3ee264f3	0.44217643
83	0xbf82de9d	-1.0224186
84	0xbf89ef2f	-1.0776118
85	0xbe90ca00	-0.28279114
86	0x3eb0e5bb	0.3455027
87	0x3e8728f1	0.26398423
88	0xbf3f535c	-0.7473657
89	0x3ea85366	0.32876128
90	0xbf326b0c	-0.6969459
91	0xbe0fe9be	-0.1405401
92	0xbeaf5a36	-0.34248513
93	0xbd4b4290	-0.049624026
94	0xbc9fcdd3	-0.019507324
95	0xbf8753a8	-1.0572405
96	0x3f169a40	0.58829117
97	0x3eb220b1	0.34790567
98	0x3efda505	0.49539962
99	0x3ed2aecb	0.4114898
100	0xbd687102	-0.056748398
101	0xbeac833b	-0.3369387
102	0xbee844e5	-0.45365062
103	0xbf783578	-0.96956587
104	0x3e15f462	0.14644006
105	0x3e85b5bd	0.26115218
106	0x3eedff63	0.46483907
107	0x3d225f28	0.03964153
108	0x3f0a5591	0.54036814
109	0x3e36e4b5	0.17860682
110	0xbf4bfe2b	-0.79684705
111	0xbf531a45	-0.8246196
112	0xbe5ac6e5	-0.21364935
113	0xbf4a052d	-0.7891415
114	0x3f36dfd8	0.7143531
115	0x3f735587	0.9505238
116	0xbede3080	-0.43396378
117	0x3e55c40c	0.20875567
118	0x3e9995d3	0.2999712
119	0x3e7a0106	0.24414453
120	0x3f3a50dc	0.7277963
121	0x3ede884a	0.43463355
122	0x3bac3a10	0.005255945
123	0xbf174575	-0.5909036
124	0xbf9261fa	-1.143615
125	0xbe83fd34	-0.25779116
126	0x3e8f8c00	0.280365
127	0x3d63d584	0.055623546
128	0xbe6c6328	-0.230847
129	0xbf0f2ea4	-0.5593054
130	0xbb4f58ba	-0.0031638579
131	0x3faf27e1	1.3684045
132	0xbec0e6d2	-0.37676102
133	0x3ec2b3ec	0.38027894
134	0x3f01b7ab	0.5067088
135	0xbe19a373	-0.15003757
136	0xbf3580f1	-0.70899874
137	0xbf3e409f	-0.74317354
138	0xbe29412b	-0.16528766
139	0x3e682a01	0.22672273
140	0xbe21694b	-0.15762822
141	0xbcf3d26a	-0.02976342
142	0x3efc4ea0	0.49278736
143	0x3f280377	0.65630287
144	0x3f39681d	0.7242449
145	0xbe3644ab	-0.17799632
146	0xbdfc9099	-0.12332267
147	0x3e8f892e	0.28034347
148	0x3ea5f69c	0.3241471
149	0xbeb0fac3	-0.34566316
150	0xbf8f1132	-1.1177123
151	0xbefe3aa3	-0.4965411
152	0x3e351723	0.17684607
153	0xbc2c8ff2	-0.010532366
154	0xbf42d063	-0.7609922
155	0x3ed6722d	0.41883984
156	0x3dc398c5	0.09550623
157	0xbefcb629	-0.49357727
158	0x3f5306d2	0.8243228
159	0x3f3c1ba8	0.734797
160	0xbeb86f88	-0.36022592
161	0x3f5f8484	0.8731158
162	0x3f3a5911	0.72792155
163	0x3a7c3690	0.00096211676
164	0x3e0bb14b	0.1364185
165	0xbf2291ce	-0.6350373
166	0x3ef0d1a6	0.4703495
167	0xbea39b36	-0.31954354
168	0xbeadb570	-0.33927488
169	0xbf07f495	-0.5310758
170	0xbd9d1323	-0.07669666
171	0xbe86a190	-0.26295137
172	0x3e7b8177	0.24561106
173	0x3f066b89	0.52507836
174	0x3f10c757	0.5655417
175	0xbf0bbd57	-0.54585785
176	0x3ec0af4e	0.37633747
177	0xbeb57f8e	-0.3544888
178	0xbc363eb0	-0.011123344
179	0xbe84ec50	-0.25961542
180	0xbe902f4b	-0.28161082
181	0x3eefd432	0.4684158
182	0x3f6dcecb	0.92893666
183	0xbf807ee8	-1.0038729
184	0x3f845384	1.0337987
185	0x3f34a70b	0.7056739
186	0xbea16dc0	-0.31529045
187	0xbf106968	-0.5641084
188	0xbd94674e	-0.07246266
189	0xbe986b84	-0.29769528
190	0x3db351d6	0.08755843
191	0x3d31ac01	0.043376926
192	0xbf1e2dbc	-0.61788535
193	0xbe7395cf	-0.23787616
194	0x3e90ebc4	0.28304875
195	0xbf00da34	-0.5033295
196	0x3ed70d1a	0.42002183
197	0x3edd0fbb	0.43176064
198	0xbf345f64	-0.70458055
199	0x3f22d3b6	0.63604295
200	0xbefc648b	-0.49295458
201	0x3d5f267f	0.054480072
202	0x3c25b0c5	0.010112946
203	0x3e8cabab	0.27474722
204	0xbe88e482	-0.26736838
205	0xbe29d2af	-0.16584276
206	0x3f93e88e	1.1555345
207	0xbf3c610b	-0.73585576
208	0xbf0051e6	-0.5012497
209	0x3eadd6bb	0.3395289
210	0x3e8a4cbb	0.27011666
211	0xbf3d5e3e	-0.7397193
212	0x3e8153a2	0.2525912
213	0xbee31767	-0.44353792
214	0xbf43b859	-0.7645317
215	0xbf152cf2	-0.58271706
216	0x3e5dabcb	0.21647565
217	0xbf183d27	-0.5946831
218	0x3f2bebd6	0.6715673
219	0x3ef7e07b	0.48413453
220	0xbb17aed0	-0.0023144968
221	0xbf11f3cc	-0.5701263
222	0x3d81bb47	0.063345484
223	0x3f27336a	0.65312827
224	0xbed23d12	-0.41062218
225	0x3eb42cd6	0.35190457
226	0xbebe2c95	-0.37143388
227	0x3ec04a9e	0.37556928
228	0xbe45a0bf	-0.19299601
229	0xbe76cc33	-0.24101333
230	0x3ebcb3df	0.3685598
231	0x3f56b2b7	0.8386645
232	0xbe15a191	-0.14612414
233	0x3e0f2617	0.13979374
234	0x3e6128c5	0.21988209
235	0xbf1013f3	-0.5628044
236	0xbf72d8b1	-0.94861895
237	0x3e8054ef	0.250648
238	0x3f848de1	1.0355798
239	0x3e68f8da	0.2275118
240	0x3f17a936	0.5924257
241	0x3e877d44	0.26462758
242	0x3f006267	0.5015015
243	0xbf484b78	-0.78240156
244	0x3f0d3692	0.5516139
245	0xbde5397e	-0.111926064
246	0xbe06ccd9	-0.1316408
247	0x3c605721	0.013692648
248	0xbd824394	-0.06360546
249	0xbe5d61da	-0.21619359
250	0x3dfc3aec	0.12315926
251	0xbe7d23d6	-0.24720702
252	0x3e1a6250	0.15076566
253	0xbe89bede	-0.26903433
254	0x3f9d71b0	1.230032
255	0x3fb07e6e	1.3788583

embed_layer.0.bias f4 [64]
0	0xbeace642	-0.33769423
1	0xbe4ae3f9	-0.19813527
2	0xbe2486d9	-0.16067065
3	0xbea0ac72	-0.31381565
4	0xbd642f10	-0.055708945
5	0x3d6e5ad7	0.0581921
6	0xbe130ec8	-0.14361107
7	0x3eaf752e	0.34269089
8	0x3eb425ba	0.35185033
9	0xbe0b0c4a	-0.13578907
10	0x3e57d922	0.21078923
11	0x3e4b3273	0.19843464
12	0xbe88ce0a	-0.26719695
13	0x3ea01e23	0.31272992
14	0x3e2cb3ff	0.16865538
15	0xbdb9a1d2	-0.09064068
16	0xbea7b22c	-0.32753122
17	0xbc8d7c28	-0.017271116
18	0x3e188c42	0.14897254
19	0x3e29648f	0.16542266
20	0x3d90782a	0.070541695
21	0x3e20282c	0.15640324
22	0x3e9431a8	0.28944135
23	0x3e29f6c5	0.16598041
24	0x3c795767	0.015218592
25	0x3dfe1dd7	0.12408035
26	0x3bd3ac71	0.0064597656
27	0x3e53dabf	0.20688914
28	0x3e36568f	0.17806457
29	0xbdd6057a	-0.10450263
30	0x3dd19c92	0.102349415
31	0xbdf0dc03	-0.11760714
32	0x3e597296	0.21235117
33	0x3df9894f	0.12184393
34	0xbd2356d1	-0.039877716
35	0xbd1078ce	-0.03527146
36	0x3e6a0b4d	0.22855873
37	0x3eae365c	0.34025848
38	0x3e40c2c6	0.188243
39	0xbd43145e	-0.047626846
40	0xbe6c1a88	-0.23056996
41	0x3d9541ba	0.07287927
42	0xbd27c523	-0.04095949
43	0xbe65eeb1	-0.22454335
44	0xbe7bbdfd	-0.24584194
45	0xbdcbdcf9	-0.099542566
46	0xbea3d645	-0.31999412
47	0xbd93dfca	-0.07220419
48	0xbe7431ce	-0.23847124
49	0xbebc30df	-0.36756036
50	0x3dcca3b2	0.0999216
51	0xbe8f3880	-0.27972794
52	0xbe997a16	-0.29975957
53	0x3c2eb477	0.010663143
54	0x3e278c2c	0.16362065
55	0xbe1f1d59	-0.15538539
56	0xbe877769	-0.2645829
57	0x3e50da89	0.20395865
58	0x3eae7708	0.3407519
59	0xbd9b3c0f	-0.07579815
60	0xbe375ca9	-0.17906441
61	0xbe3d98db	-0.18515341
62	0xbe973356	-0.29531354
63	0xbd5871ae	-0.05284279

embed_layer.1.weight f4 [64]
0	0x3f7051a5	0.9387458
1	0x3f848911	1.0354329
2	0x3fe50d90	1.7894764
3	0x4006b7d3	2.1049697
4	0x3f276a76	0.6539682
5	0x3f8b0549	1.0860988
6	0x400dcb7d	2.215545
7	0x3fedb935	1.8572146
8	0x3f587ce5	0.84565574
9	0x3f9827d8	1.1887159
10	0x3fdce533	1.7257446
11	0x3f94d7c1	1.1628343
12	0x4004323e	2.0655665
13	0x3fae3474	1.3609757
14	0x3f863a36	1.0486515
15	0x402c3bba	2.6911454
16	0x3f6f723b	0.93533677
17	0x40246d5d	2.569175
18	0x3ff8bea2	1.9433177
19	0x3f4b89c5	0.79507095
20	0x3f2042d1	0.62601954
21	0x3f8bc50d	1.091951
22	0x3f9724b0	1.1808071
23	0x3fe6946e	1.8014047
24	0x40046743	2.0688026
25	0x3f84351d	1.0328709
26	0x3f87c67e	1.060745
27	0x3f1bfd3f	0.609333
28	0x3f1bf6fb	0.6092374
29	0x4026218e	2.595798
30	0x3f1f32c8	0.6218686
31	0x3f9e4c1d	1.2366978
32	0x3f8f2f75	1.1186358
33	0x40241e0a	2.5643334
34	0x3f78ab24	0.9713614
35	0x4022aab4	2.541669
36	0x40118b1b	2.2741153
37	0x3f88a2d5	1.0674692
38	0x3f99a0ac	1.2002158
39	0x3fedc11f	1.8574561
40	0x3f437bcb	0.7636077
41	0x3f594540	0.8487129
42	0x3f3cff35	0.73826915
43	0x3f409e2e	0.75241363
44	0x3fd380ec	1.6523719
45	0x3eb364be	0.35037798
46	0x3fe26ac7	1.7688836
47	0x401f0bde	2.4850993
48	0x400ad222	2.1690755
49	0x3fa1e67f	1.2648467
50	0x3fa1c89b	1.2639345
51	0x3f5417d0	0.82848835
52	0x40021219	2.0323546
53	0x3f718797	0.9434752
54	0x4011b4a0	2.2766495
55	0x3fbc7a7e	1.4724882
56	0x3f824b85	1.0179297
57	0x3f3daa71	0.740882
58	0x3f82b991	1.021288
59	0x3f8a70bb	1.0815653
60	0x401544cb	2.3323238
61	0x3fa35834	1.2761292
62	0x3fd891e4	1.6919522
63	0x3fa813e7	1.3131074

embed_layer.1.bias f4 [64]
0	0xbf99fbbc	-1.2029948
1	0xbef1d6b0	-0.47234106
2	0xbfc6fcd5	-1.5545908
3	0x3d369272	0.044573255
4	0xbf4c5ce6	-0.7982925
5	0x3e9e54c7	0.30924055
6	0xbf42413e	-0.758808
7	0xbc372f93	-0.011180776
8	0xbf999e0b	-1.2001356
9	0x3ea36566	0.31913298
10	0x3f779821	0.96716505
11	0x3ea2757b	0.31730255
12	0x3fc1b3e6	1.5133026
13	0x3f950fae	1.164541
14	0xbfa93929	-1.3220569
15	0xbf790091	-0.9726649
16	0xbf4b272c	-0.79356647
17	0xbedf207c	-0.4357947
18	0xbf06bf76	-0.52635896
19	0xbf80df2a	-1.0068104
20	0xbf139e82	-0.5766374
21	0xbe19c92b	-0.15018146
22	0xbfe24255	-1.7676493
23	0x3f2f138d	0.6838921
24	0xbf2e6c2c	-0.6813381
25	0xbfe20ce2	-1.7660182
26	0x3ed4dfee	0.41577095
27	0xbf02a1ef	-0.5102834
28	0xbf57e7f5	-0.84338313
29	0x3db9888b	0.09059247
30	0xbf926984	-1.1438451
31	0x3e089a7f	0.13340186
32	0xbe857574	-0.26066172
33	0xbce611c2	-0.02808464
34	0xbf6e2b19	-0.9303451
35	0xbddcbdc9	-0.10778386
36	0xbe8ac536	-0.27103585
37	0xbfbc9224	-1.4732099
38	0x3f8e3e23	1.1112713
39	0x3d13fb8a	0.03612856
40	0xbf8a242e	-1.0792291
41	0xbf84714b	-1.0347074
42	0xbf62b51f	-0.8855762
43	0xbf62232c	-0.8833492
44	0x3f1df371	0.6169959
45	0xbf619eac	-0.8813274
46	0xbefd865a	-0.49516565
47	0xbebc518c	-0.36780965
48	0xbf19ab20	-0.6002674
49	0x3f65d39e	0.8977603
50	0x3e25a1e7	0.16175042
51	0xbd0b65e8	-0.034032732
52	0xbea29195	-0.31751695
53	0xbf1b5467	-0.6067566
54	0x3f732b10	0.94987583
55	0x3ed8e1ec	0.42359865
56	0xbf9dcf2e	-1.2328851
57	0xbe7444a4	-0.2385431
58	0x3e8426e9	0.25810936
59	0xbfabfee4	-1.3437161
60	0xbf352454	-0.7075856
61	0x3f019821	0.50622755
62	0x3f83fc1a	1.031131
63	0x3ec167b3	0.3777443

embed_layer.1.running_mean f4 [64]
0	0x41d2c9b8	26.348495
1	0x41418cfd	12.096921
2	0xbf8686e1	-1.0509912
3	0xc129e74b	-10.618968
4	0xc000574d	-2.0053284
5	0xc2c1d41e	-96.91429
6	0xc0dda7ff	-6.9267573
7	0x4132765b	11.153895
8	0x41b26427	22.298903
9	0xc2c15ec8	-96.68512
10	0xc23c9e9e	-47.1549
11	0xc2b672b0	-91.224
12	0x400de286	2.216951
13	0x3fe3eb06	1.7806098
14	0x41ff74b6	31.931988
15	0xc1822c42	-16.27161
16	0x41f80ce9	31.006304
17	0xc167890e	-14.470961
18	0xc1fec5da	-31.846607
19	0x4203d06f	32.95355
20	0x41ffd9dc	31.981377
21	0xc153a351	-13.227372
22	0xc01b23d5	-2.424062
23	0x41b9ffce	23.249905
24	0xc12e03ec	-10.8759575
25	0xc0b4799b	-5.6398444
26	0xc291c578	-72.88568
27	0x41db7cbe	27.43591
28	0x41c7d87c	24.980705
29	0x40d56ffe	6.669921
30	0x41f39995	30.449991
31	0x42846c06	66.21098
32	0x4206a2ed	33.659107
33	0xc1202bea	-10.010721
34	0x41cb6f7d	25.429438
35	0xc0f8677d	-7.762633
36	0xc19a70ed	-19.30514
37	0x41d53d6d	26.654993
38	0xc2c8ab36	-100.3344
39	0xc1451261	-12.316987
40	0xc1d00d9c	-26.006645
41	0x41807a0f	16.059599
42	0x41e5ab1f	28.708555
43	0x421bdd22	38.96595
44	0xc2354c3c	-45.324448
45	0x41da2000	27.265625
46	0xc19915f1	-19.135714
47	0xc1ed38b4	-29.652687
48	0xc21281a7	-36.626614
49	0xc0127efc	-2.2890005
50	0xc28bd913	-69.92397
51	0x4183bb90	16.466583
52	0xc0c6c0cf	-6.211036
53	0x41a4347f	20.525633
54	0x4032eeda	2.7958283
55	0xc264b056	-57.172203
56	0x41d23378	26.275131
57	0xc214bf43	-37.18678
58	0x41f73eba	30.905628
59	0x41a51aac	20.638023
60	0xc16a7f08	-14.6560135
61	0xc29fb5d6	-79.85515
62	0xc25adb8f	-54.714413
63	0xc2675111	-57.829166

embed_layer.1.running_var f4 [64]
0	0x447b2384	1004.55493
1	0x43b9342a	370.40753
2	0x4325fd8f	165.99046
3	0x43a4403a	328.50177
4	0x432cb4a0	172.70557
5	0x461feaa1	10234.657
6	0x4377ff1a	247.99649
7	0x43ca0a9d	404.08292
8	0x443acbfa	747.18713
9	0x461ee82f	10170.046
10	0x452186f2	2584.434
11	0x460e56bb	9109.683
12	0x43b600a3	364.00497
13	0x437875dd	248.4604
14	0x44a265c6	1299.1804
15	0x4404e432	531.56555
16	0x44a2dbe2	1302.8713
17	0x43f97bd8	498.96753
18	0x44b590ae	1452.5212
19	0x44b0ddfc	1414.937
20	0x449e06a0	1264.207
21	0x43a2991a	325.1961
22	0x4355cf70	213.8103
23	0x444d7985	821.89874
24	0x439eef62	317.87018
25	0x4369c7b9	233.78017
26	0x45b8bc1b	5911.513
27	0x446bdf6d	943.491
28	0x4452a90a	842.64124
29	0x4390c335	289.52505
30	0x4490d7e7	1158.747
31	0x45a52e9b	5285.8257
32	0x44b7ceff	1470.4686
33	0x43a40a8d	328.08243
34	0x4454ce9e	851.2284
35	0x438c654c	280.79138
36	0x4417aec8	606.73096
37	0x4492463c	1170.1948
38	0x462a4e13	10899.519
39	0x43b6d72d	365.68106
40	0x444f0c90	828.1963
41	0x43e67298	460.89526
42	0x448aedd7	1111.4325
43	0x44eef26c	1911.5757
44	0x45133fb3	2355.9812
45	0x44691e40	932.47266
46	0x442e2448	696.5669
47	0x449e0317	1264.0966
48	0x44def025	1783.5045
49	0x4368195e	232.09909
50	0x45ac3fa6	5511.956
51	0x43d79f5b	431.24496
52	0x437f223d	255.13374
53	0x4428774f	673.8642
54	0x43a79760	335.18262
55	0x4565dc77	3677.779
56	0x447756e9	989.358
57	0x44d185a4	1676.1763
58	0x44a00ab3	1280.3344
59	0x442bd58b	687.3366
60	0x43e4861e	457.0478
61	0x45dbc7a6	7032.956
62	0x4551f0fc	3359.0615
63	0x456556a9	3669.4163

embed_layer2.0.weight f4 [16, 64, 2, 1]
0	0xbe496c8d	-0.19670315
1	0xbd8abeb1	-0.06774653
2	0xbedb1c5f	-0.42795083
3	0x3ea27864	0.31732476
4	0x3ebce688	0.3689463
5	0x3e4b3ef7	0.19848238
6	0xbeaf035a	-0.34182245
7	0x3c87fc21	0.016599717
8	0xbf5ae063	-0.85498637
9	0x3e34a3ca	0.17640606
10	0xbec3ef04	-0.38268292
11	0xbf0e2442	-0.55524075
12	0x3f1021c3	0.56301516
13	0xbe65b8f5	-0.22433837
14	0xbd821535	-0.06351701
15	0x3d68b284	0.05681087
16	0x3eb9a1eb	0.36256346
17	0xbf6a2c9e	-0.9147433
18	0xbe3a82c4	-0.18213946
19	0xbe8e0096	-0.27734822
20	0xbfe52910	-1.7903156
21	0xbd09f938	-0.03368494
22	0xbf16aacd	-0.5885437
23	0xbe5a5dab	-0.21324794
24	0xbf108888	-0.5645833
25	0xbe4f6298	-0.20252454
26	0xbeb66fad	-0.35632077
27	0xbebf43fc	-0.37356555
28	0x3e374fb5	0.179015
29	0xbeee8bfe	-0.4659118
30	0x3de02f3f	0.109465115
31	0x3f083807	0.5321049
32	0x3e00114b	0.12506597
33	0xbfc57e52	-1.5429175
34	0xbe90e3ee	-0.28298897
35	0xbd2f8922	-0.04285539
36	0x3f0f51a1	0.5598393
37	0xbf887e52	-1.066355
38	0x3e89bac2	0.26900297
39	0x3d3b99ea	0.04580108
40	0x3ea00f95	0.31261888
41	0xbfb14415	-1.3848902
42	0xbf512735	-0.8170045
43	0x3efe210c	0.49634588
44	0xbe434d04	-0.19072348
45	0xbf82ecbe	-1.0228498
46	0x3d9fde8c	0.07806119
47	0x3d8ee799	0.069777675
48	0x3d2d7c42	0.04235483
49	0xbe313520	-0.17305422
50	0x3d230b6a	0.039805807
51	0xbf2e9b99	-0.68206173
52	0xbf5e2c77	-0.867866
53	0xbf5d982b	-0.86560315
54	0x3e968e15	0.29405275
55	0xbe395419	-0.18098487
56	0x3ef9a69a	0.4875992
57	0x3e8110af	0.2520804
58	0x3eae41a4	0.34034455
59	0xbf3ad27b	-0.7297742
60	0xbe70ed3c	-0.23527998
61	0x3e2c12be	0.16804025
62	0x3f13c1cb	0.5771758
63	0x3f3003de	0.687559
64	0x3e8cf56c	0.27530992
65	0xbfd1a844	-1.6379476
66	0xbd0f23b4	-0.03494616
67	0x3e8bc612	0.27299553
68	0x3e0272d6	0.12739119
69	0xbf1ad3be	-0.6047934
70	0x3d964d0e	0.07338916
71	0xbe6c7e17	-0.23094974
72	0x3f1f6bd4	0.6227391
73	0xbd796364	-0.060885802
74	0x3ebac5b1	0.36478952
75	0xbf1a53b8	-0.60283995
76	0xbee7fa7d	-0.45308295
77	0xbe50e8e6	-0.20401344
78	0x3e559c1c	0.20860332
79	0xbf01fafe	-0.5077361
80	0xbe1658c4	-0.14682299
81	0xbf025249	-0.5090681
82	0x3f02d5a7	0.5110726
83	0xbf818cac	-1.0121055
84	0x3f0fafd8	0.5612769
85	0x3e900bc7	0.28133985
86	0x3ed88915	0.42292085
87	0x3f40b84e	0.75281227
88	0xbfe869a1	-1.8157235
89	0x3da49ea3	0.0803807
90	0xbe29174f	-0.16512798
91	0xbe027a12	-0.12741879
92	0x3e505edd	0.20348687
93	0x3b8246db	0.003975732
94	0x3eba24a9	0.36356094
95	0x3ea46ab8	0.3211267
96	0x3f8a351c	1.0797458
97	0xbe1d7943	-0.15378289
98	0x3e4b795f	0.19870518
99	0xbe286e8e	-0.16448423
100	0x3da218c0	0.07914877
101	0xbd89a15e	-0.067202315
102	0xbd3484bc	-0.044071898
103	0x3f0fac0a	0.56121886
104	0xbfa74071	-1.3066541
105	0x3eb9e042	0.36303908
106	0xbe14d295	-0.14533456
107	0xbf1056ce	-0.56382453
108	0xbe785919	-0.24252738
109	0x3d2aab5f	0.04166734
110	0xbf929ef4	-1.1454759
111	0x3f193dd4	0.5985997
112	0x3f642ede	0.89134014
113	0xbf5e036c	-0.8672397
114	0xbd8e9ec0	-0.06963873
115	0x3ecc5e1c	0.3991555
116	0x3eb2f1b8	0.34950042
117	0x3ed103e9	0.40823296
118	0x3edfdb78	0.4372213
119	0x3f652f7c	0.8952558
120	0xbeea85b3	-0.4580513
121	0x3e92768b	0.28606066
122	0xbf42192c	-0.7581966
123	0xbf52b378	-0.823051
124	0xc0029924	-2.040597
125	0xbe5da4be	-0.21644875
126	0xbfbf5e4f	-1.4950656
127	0x3e9a768f	0.30168578
128	0xbe9e328a	-0.30897933
129	0x3e0eea36	0.13956532
130	0xbce78342	-0.02826083
131	0x3e1e74d3	0.15474252
132	0x3e584284	0.21119124
133	0xbd0d5cda	-0.03451238
134	0xbf626e80	-0.8844986
135	0x3b8db952	0.0043250704
136	0x3db8ebfb	0.09029385
137	0x3d2c08ef	0.042000707
138	0x3cf12032	0.029434297
139	0xbf0b7011	-0.54467875
140	0x3e46d96f	0.19418882
141	0xbe5534ad	-0.20820875
142	0xbef83eb6	-0.48485345
143	0x3e3994d3	0.18123178
144	0xbd3993ae	-0.045306854
145	0x3d8ff226	0.07028608
146	0x3d7f955d	0.062398303
147	0xbf1a7fb2	-0.603511
148	0xbe855f44	-0.26049244
149	0x3d04e30b	0.032443088
150	0x3e2a8260	0.16651297
151	0xbf2cb6ff	-0.6746673
152	0xbe025ccd	-0.12730713
153	0x3e245725	0.16048868
154	0xbe87ac93	-0.2649885
155	0xbebd69c8	-0.36994767
156	0x3e68833b	0.2270631
157	0x3f3efb40	0.7460213
158	0x3ee9afd0	0.45641947
159	0x3e2c68f1	0.16836907
160	0x3e039655	0.12850316
161	0xbe249a90	-0.16074586
162	0x3d6ceaea	0.05784122
163	0xbf82f4a0	-1.0230904
164	0xbb8df7ad	-0.004332504
165	0xbdab03d1	-0.08350337
166	0x3e2e5380	0.1702404
167	0xbe13605e	-0.1439223
168	0xbdd2d5b1	-0.10294665
169	0xbe8e4447	-0.27786466
170	0x3e92a5fe	0.28642267
171	0xbee1069c	-0.43950355
172	0xbe3c21da	-0.18372288
173	0xbf054e87	-0.5207295
174	0xbeb8b867	-0.36078188
175	0x3ed2cb19	0.41170576
176	0xbe298bdd	-0.1655726
177	0xbf6be14c	-0.9214065
178	0xbea5dcb7	-0.32394955
179	0xbe54a197	-0.20764767
180	0x3e0c217b	0.13684647
181	0xbeaffffa	-0.34374982
182	0x3d5345eb	0.05158035
183	0x3e68913e	0.22711655
184	0xbd0c6ee6	-0.03428545
185	0xbdffad7c	-0.124842614
186	0xbf11d614	-0.5696728
187	0x3c7c5961	0.015402169
188	0xbe418968	-0.18900073
189	0xbcad39f6	-0.021145802
190	0x3dad5ae9	0.08464605
191	0x3d356617	0.044286814
192	0xbd5b3682	-0.05351878
193	0x3ddb25bb	0.10700556
194	0xbf438ef0	-0.7638998
195	0xbe7d0917	-0.24710499
196	0x3d92f178	0.07174963
197	0x3db1a9b2	0.08674945
198	0xbf33fd04	-0.70307946
199	0xbf0224a6	-0.5083717
200	0x3ec99f6a	0.39379436
201	0xbe893330	-0.26796865
202	0x3d1c0c10	0.03809744
203	0xbf040774	-0.5157387
204	0xbe15e10c	-0.1463663
205	0xbe878875	-0.26471296
206	0xbef92684	-0.48662198
207	0x3f0316db	0.5120675
208	0xbe6714bd	-0.22566505
209	0xbf37c573	-0.7178566
210	0x3d4c149c	0.049824342
211	0xbf3f78f8	-0.7479396
212	0x3e4d1a77	0.20029627
213	0xbc680a83	-0.014162662
214	0x3c9b9fdf	0.01899713
215	0xbea01836	-0.3126847
216	0xbf0031b7	-0.5007586
217	0xbf125531	-0.5716124
218	0xbd2a1b35	-0.041529853
219	0xbc0e9543	-0.008702579
220	0xbe22d926	-0.15903148
221	0xbdd44367	-0.103644185
222	0x3b0bcead	0.0021332905
223	0xbbc05829	-0.0058698845
224	0x3e496e77	0.19671045
225	0x3d8fdd7f	0.07024669
226	0xbf2b3b5f	-0.6688747
227	0xbf993daf	-1.1971949
228	0xbde9831f	-0.114019625
229	0xbec3c73c	-0.3823794
230	0xbf07741b	-0.5291154
231	0xbf5b2cf4	-0.8561547
232	0xbd9696df	-0.07352995
233	0xbe3677ba	-0.1781911
234	0xbd82e9a5	-0.063922204
235	0x3f3c3743	0.7352182
236	0xbf1538af	-0.5828962
237	0xbf44688e	-0.7672204
238	0xbe7349f5	-0.23758681
239	0xbe8ecc42	-0.2789021
240	0xbc88691d	-0.016651684
241	0x3e1c69ed	0.15274782
242	0xbebe0f65	-0.3712112
243	0xbf234717	-0.6378035
244	0xbd2de25f	-0.042452212
245	0x3e63ec51	0.22258116
246	0xbd822725	-0.063551225
247	0x3ea3c379	0.3198507
248	0x3e98a361	0.29812148
249	0xbf5650f9	-0.83717304
250	0x3e822d18	0.2542503
251	0xbeb6a4b6	-0.3567254
252	0xbdfe2978	-0.12410253
253	0xbf033634	-0.5125458
254	0xbf114cff	-0.5675811
255	0xbe8480b6	-0.2587945

embed_layer2.0.bias f4 [16]
0	0xbdc29b73	-0.09502306
1	0xbd0b1db8	-0.03396389
2	0xbd61e87c	-0.055153355
3	0xbde280ea	-0.11059745
4	0x3dedd9f8	0.1161384
5	0xbe45782e	-0.19284126
6	0xbeb7fdd9	-0.35935858
7	0x3e622d01	0.2208748
8	0xbd6f3dcb	-0.05840854
9	0x3de98aac	0.11403403
10	0x3df6837f	0.120368
11	0x3dbccb6d	0.09218488
12	0xbda4c433	-0.080452345
13	0x3c8fd9ba	0.017559875
14	0xbe51fab9	-0.205058
15	0xbde3bc77	-0.11119931

embed_layer2.1.weight f4 [16]
0	0x3fb490b9	1.4106666
1	0x3f9decf6	1.233794
2	0x400d5923	2.2085655
3	0x4064b3dc	3.5734777
4	0x3fdb222e	1.7119806
5	0x406605e2	3.594109
6	0x400cc1e2	2.1993337
7	0x3fcbc7db	1.5920366
8	0x3f8ffb27	1.1248521
9	0x3ffa3002	1.9545901
10	0x3ff51ff5	1.9150378
11	0x3fa281de	1.2695882
12	0x3ff41a8c	1.9070601
13	0x3fe89c9c	1.8172793
14	0x4007bdce	2.1209598
15	0x4001893c	2.0240011

embed_layer2.1.bias f4 [16]
0	0xbc2cf38d	-0.010556114
1	0xbd715c82	-0.058926113
2	0xbe9c875f	-0.3057203
3	0xbe9e695f	-0.30939767
4	0xbe264899	-0.16238631
5	0xbf31f408	-0.6951299
6	0x3cdd74f4	0.027033307
7	0xbe110bf5	-0.14164717
8	0xbdd72079	-0.105042405
9	0x3d9e5c4b	0.07732447
10	0xbe25f108	-0.16205227
11	0xbe2f242a	-0.17103639
12	0xbe8cbf18	-0.27489543
13	0xbc125ca0	-0.008933216
14	0xbe081d1c	-0.13292354
15	0xbe838aa5	-0.25691715

embed_layer2.1.running_mean f4 [16]
0	0xc045ab34	-3.0885744
1	0xc18df367	-17.743849
2	0xc097312a	-4.7247515
3	0x3e8729f0	0.26399183
4	0x40cb955b	6.361982
5	0xc08ad9dd	-4.3390946
6	0xc0d2a720	-6.582901
7	0x41b99c90	23.201447
8	0xbff1483b	-1.8850168
9	0xc03d2b1b	-2.955756
10	0xc10846cd	-8.517285
11	0x4019a11d	2.4004586
12	0xc181e208	-16.235367
13	0x3f95caab	1.1702474
14	0x412f7e36	10.968313
15	0xc1278e7b	-10.472285

embed_layer2.1.running_var f4 [16]
0	0x419270cd	18.305079
1	0x420eb6cd	35.678516
2	0x411eb835	9.919972
3	0x416e5684	14.896122
4	0x41612897	14.07241
5	0x413ab1fd	11.668454
6	0x413e5981	11.896852
7	0x414d5962	12.834322
8	0x4175561a	15.333521
9	0x41cca39e	25.579891
10	0x411feaad	9.994794
11	0x4195313c	18.64904
12	0x418be70d	17.487818
13	0x41a9693b	21.176382
14	0x410498c1	8.287293
15	0x419ebda9	19.842607

Fix_Position.pe f4 [1, 150, 16]
0	0x00000000	0.0
1	0x3f800000	1.0
2	0x00000000	0.0
3	0x3f800000	1.0
4	0x00000000	0.0
5	0x3f800000	1.0
6	0x00000000	0.0
7	0x3f800000	1.0
8	0x00000000	0.0
9	0x3f800000	1.0
10	0x00000000	0.0
11	0x3f800000	1.0
12	0x00000000	0.0
13	0x3f800000	1.0
14	0x00000000	0.0
15	0x3f800000	1.0
16	0x3dda0a11	0.10646451
17	0x3f7e8b87	0.9943165
18	0x3d0a22c5	0.033724565
19	0x3f7fdab8	0.99943113
20	0x3c2ec265	0.010666464
21	0x3f7ffc46	0.99994314
22	0x3b5d0f0e	0.0033730897
23	0x3f7fffa1	0.99999434
24	0x3a8bcf63	0.0010666664
25	0x3f7ffff7	0.99999946
26	0x39b0d8eb	0.00033730952
27	0x3f7fffff	0.99999994
28	0x38dfb23a	0.00010666666
29	0x3f800000	1.0
30	0x380d7a5a	3.373097e-05
31	0x3f800000	1.0
32	0x3e58ccd3	0.21171884
33	0x3f7a3257	0.9773306
34	0x3d8a0ea7	0.06741076
35	0x3f7f6aed	0.9977253
36	0x3caebfd9	0.021331714
37	0x3f7ff116	0.9997724
38	0x3bdd0ebb	0.006746141
39	0x3f7ffe82	0.99997723
40	0x3b0bcf5e	0.0021333317
41	0x3f7fffda	0.99999774
42	0x3a30d8ea	0.000674619
43	0x3f7ffffc	0.99999976
44	0x395fb23a	0.00021333332
45	0x3f800000	1.0
46	0x388d7a5a	6.746194e-05
47	0x3f800000	1.0
48	0x3ea10ede	0.31456655
49	0x3f730118	0.94923544
50	0x3dcee3b7	0.10102027
51	0x3f7eb0be	0.9948844
52	0x3d030cb4	0.031994537
53	0x3f7fde73	0.99948806
54	0x3c25caa6	0.010119116
55	0x3f7ffca5	0.9999488
56	0x3b51b700	0.0031999946
57	0x3f7fffaa	0.9999949
58	0x3a84a2af	0.0010119284
59	0x3f7ffff8	0.9999995
60	0x39a7c5ac	0.00032
61	0x3f7fffff	0.99999994
62	0x38d43787	0.000101192905
63	0x3f800000	1.0
64	0x3ed3e2a8	0.41383862
65	0x3f690cb7	0.91035026
66	0x3e09be43	0.13451485
67	0x3f7dac62	0.9909116
68	0x3d2eb5ab	0.04265372
69	0x3f7fc45b	0.9990899
70	0x3c5d0d71	0.013491974
71	0x3f7ffa09	0.999909
72	0x3b8bcf49	0.0042666537
73	0x3f7fff67	0.9999909
74	0x3ab0d8e7	0.0013492376
75	0x3f7ffff1	0.9999991
76	0x39dfb23a	0.00042666664
77	0x3f7fffff	0.99999994
78	0x390d7a5a	0.00013492387
79	0x3f800000	1.0
80	0x3f0226ef	0.5084066
81	0x3f5c722c	0.8611171
82	0x3e2be28c	0.1678564
83	0x3f7c5e24	0.9858115
84	0x3d5a598b	0.05330805
85	0x3f7fa2d1	0.99857813
86	0x3c8a27cc	0.01686468
87	0x3f7ff6ae	0.9998578
88	0x3baec308	0.005333308
89	0x3f7fff11	0.99998575
90	0x3add0f1f	0.0016865468
91	0x3f7fffe8	0.99999857
92	0x3a0bcf65	0.00053333334
93	0x3f7ffffe	0.9999999
94	0x3930d8f0	0.00016865483
95	0x3f800000	1.0
96	0x3f18e1cd	0.59719545
97	0x3f4d5626	0.8020958
98	0x3e4dd4c6	0.20100698
99	0x3f7ac666	0.9795898
100	0x3d82fb87	0.06395631
101	0x3f7f79d4	0.9979527
102	0x3ca5c879	0.020237194
103	0x3f7ff294	0.9997952
104	0x3bd1b6b9	0.006399956
105	0x3f7ffea8	0.9999795
106	0x3b04a2aa	0.0020238557
107	0x3f7fffde	0.999998
108	0x3a27c5ab	0.0006399999
109	0x3f7ffffd	0.9999998
110	0x39543787	0.00020238581
111	0x3f800000	1.0
112	0x3f2ddfca	0.679196
113	0x3f3be49a	0.73395693
114	0x3e6f8b0f	0.2339289
115	0x3f78e59f	0.97225374
116	0x3d98c679	0.07459731
117	0x3f7f4966	0.9972137
118	0x3cc168ab	0.02360948
119	0x3f7fedbb	0.9997212
120	0x3bf4aa5c	0.0074665975
121	0x3f7ffe2c	0.9999721
122	0x3b1abdc5	0.0023611647
123	0x3f7fffd1	0.9999972
124	0x3a43bbf2	0.00074666657
125	0x3f7ffffb	0.9999997
126	0x3977961d	0.00023611677
127	0x3f800000	1.0
128	0x3f40e3d1	0.7534762
129	0x3f28504b	0.6574752
130	0x3e887dc8	0.26658463
131	0x3f76bc5a	0.9638115
132	0x3dae8cf7	0.08522981
133	0x3f7f1189	0.9963613
134	0x3cdd084b	0.026981493
135	0x3f7fe824	0.99963593
136	0x3c0bcef6	0.00853323
137	0x3f7ffd9d	0.9999636
138	0x3b30d8dd	0.002698473
139	0x3f7fffc3	0.99999636
140	0x3a5fb238	0.00085333316
141	0x3f7ffffa	0.99999964
142	0x398d7a5a	0.00026984775
143	0x3f7fffff	0.99999994
144	0x3f51b68a	0.8191916
145	0x3f12d234	0.57351995
146	0x3e990e49	0.2989371
147	0x3f744b39	0.9542728
148	0x3dc44e60	0.09585261
149	0x3f7ed23e	0.99539554
150	0x3cf8a747	0.030353202
151	0x3f7fe1ce	0.99953926
152	0x3c1d48b3	0.009599852
153	0x3f7ffcfb	0.9999539
154	0x3b46f3f4	0.003035781
155	0x3f7fffb3	0.9999954
156	0x3a7ba87f	0.0009599998
157	0x3f7ffff8	0.9999995
158	0x399f29a5	0.0003035787
159	0x3f7fffff	0.99999994
160	0x3f602703	0.8755953
161	0x3ef751be	0.48304552
162	0x3ea97237	0.33094952
163	0x3f7192f2	0.94364846
164	0x3dda0a10	0.106464505
165	0x3f7e8b87	0.9943165
166	0x3d0a22c4	0.03372456
167	0x3f7fdab8	0.99943113
168	0x3c2ec265	0.010666464
169	0x3f7ffc46	0.99994314
170	0x3b5d0f0b	0.003373089
171	0x3f7fffa1	0.99999434
172	0x3a8bcf63	0.0010666664
173	0x3f7ffff7	0.99999946
174	0x39b0d8f0	0.00033730967
175	0x3f7fffff	0.99999994
176	0x3f6c0b35	0.922046
177	0x3ec62f63	0.38708028
178	0x3eb9a4cb	0.3625854
179	0x3f6e9450	0.93195057
180	0x3defbf66	0.11706428
181	0x3f7e3d65	0.9931243
182	0x3d17f180	0.037095547
183	0x3f7fd2e5	0.99931175
184	0x3c403c0a	0.011733064
185	0x3f7ffb7d	0.99993116
186	0x3b732a1e	0.0037103961
187	0x3f7fff8d	0.99999315
188	0x3a99ca86	0.001173333
189	0x3f7ffff5	0.99999934
190	0x39c2883b	0.00037104063
191	0x3f7fffff	0.99999994
192	0x3f754087	0.95801586
193	0x3e92cc57	0.28671524
194	0x3ec9a14e	0.39380878
195	0x3f6b5031	0.9191924
196	0x3e02b6e1	0.12765075
197	0x3f7de7dd	0.9918192
198	0x3d25bfc8	0.0404661
199	0x3f7fca52	0.9991809
200	0x3c51b5a0	0.01279965
201	0x3f7ffaa2	0.9999181
202	0x3b84a298	0.004047703
203	0x3f7fff77	0.99999183
204	0x3aa7c5a9	0.0012799996
205	0x3f7ffff2	0.99999917
206	0x39d43787	0.00040477162
207	0x3f7fffff	0.99999994
208	0x3f7bac2e	0.983096
209	0x3e3b7c34	0.18309098
210	0x3ed96318	0.42458415
211	0x3f67c78a	0.9053885
212	0x3e0d8a40	0.1382227
213	0x3f7d8aee	0.99040115
214	0x3d338d95	0.043836195
215	0x3f7fc101	0.99903876
216	0x3c632f27	0.013866222
217	0x3f7ff9b3	0.99990386
218	0x3b8fb021	0.00438501
219	0x3f7fff5f	0.9999904
220	0x3ab5c0cc	0.0013866662
221	0x3f7ffff0	0.99999905
222	0x39e5e6d2	0.00043850258
223	0x3f7ffffe	0.9999999
224	0x3f7f3b79	0.99700123
225	0x3d9e7c4f	0.07738554
226	0x3ee8e592	0.45487648
227	0x3f63fb62	0.89055455
228	0x3e185980	0.14877892
229	0x3f7d269e	0.9888705
230	0x3d415ade	0.0472058
231	0x3f7fb6f0	0.99888515
232	0x3c74a89d	0.014932779
233	0x3f7ff8b1	0.9998885
234	0x3b9abda8	0.004722316
235	0x3f7fff45	0.99998885
236	0x3ac3bbee	0.0014933327
237	0x3f7fffed	0.99999887
238	0x39f7961c	0.0004722335
239	0x3f7ffffe	0.9999999
240	0x3f7fe40e	0.9995736
241	0xbcef33e3	-0.029199546
242	0x3ef82435	0.48465124
243	0x3f5fecd4	0.87470746
244	0x3e232450	0.15931821
245	0x3f7cbaed	0.98722726
246	0x3d4f2795	0.050574858
247	0x3f7fac22	0.9987203
248	0x3c831100	0.015999317
249	0x3f7ff79d	0.999872
250	0x3ba5cb2e	0.0050596213
251	0x3f7fff29	0.9999872
252	0x3ad1b711	0.0015999993
253	0x3f7fffeb	0.99999875
254	0x3a04a2b4	0.0005059645
255	0x3f7ffffe	0.9999999

attention_layer.relative_bias_table f4 [299, 8]
0	0x3eafffab	0.34374747
1	0xbf888416	-1.066531
2	0xbf898e1c	-1.0746493
3	0x3bd3b9d8	0.0064613633
4	0x3f58f30c	0.8474586
5	0x3fb80c00	1.4378662
6	0xbe1bedfc	-0.15227503
7	0x3f39686d	0.72424966
8	0x3ee9c72f	0.45659778
9	0xbedd8517	-0.43265602
10	0xbf0f89b1	-0.56069475
11	0xbc46e1e5	-0.012138818
12	0x3d8800f9	0.066408105
13	0x3f766b4f	0.9625749
14	0x3ea6ca95	0.32576433
15	0x3f6dabf6	0.92840517
16	0x3f1a8755	0.6036275
17	0xbee9653d	-0.4558505
18	0x3d83e551	0.06440223
19	0xbed733cb	-0.42031702
20	0x3e2cbabe	0.16868111
21	0x3e32961a	0.17440072
22	0xbeb4cfed	-0.35314885
23	0x3faa323d	1.3296582
24	0x3d403e18	0.046934217
25	0xbff710ee	-1.9302042
26	0xbe1a6323	-0.1507688
27	0xbe4e36d1	-0.20138098
28	0x3efb757c	0.4911307
29	0x3daf2013	0.085510395
30	0x3e16d872	0.14731005
31	0x3f8d9919	1.1062347
32	0x3f2311ac	0.6369884
33	0xbe9ebff7	-0.31005833
34	0x3f22a551	0.635335
35	0xbe97bb30	-0.29635
36	0xbebd6d22	-0.36997324
37	0xbdb1cbe0	-0.08681464
38	0xbbe19968	-0.0068847425
39	0x3f93781a	1.1521027
40	0xbedcfe98	-0.4316299
41	0x3ee7ab23	0.45247754
42	0x3ee35177	0.4439809
43	0x3de03921	0.109483965
44	0xbe43e3e1	-0.19129898
45	0xbf4f3ed7	-0.8095526
46	0x3f1920e2	0.598158
47	0x3f1db692	0.61606705
48	0xbdb9c385	-0.090704955
49	0x3f7b10bf	0.9807243
50	0xbe2ff9de	-0.1718516
51	0x3e1d2909	0.15347685
52	0x3eb526e0	0.35381222
53	0xbf61fec6	-0.8827938
54	0x3f07329a	0.52811587
55	0x3f4d1d67	0.8012299
56	0xbe7530a7	-0.2394434
57	0x3f679063	0.9045469
58	0xbf4d5e64	-0.80222154
59	0xbebc0dbc	-0.36729228
60	0xbb454ecf	-0.0030106788
61	0x3ebb56ec	0.36589754
62	0x3ec961a1	0.39332297
63	0x3ec7f2ac	0.3905233
64	0x3f80e28e	1.0069139
65	0x3eff2f17	0.49840614
66	0xbe150549	-0.14552797
67	0xbe9aa86c	-0.3020662
68	0x3efc85a7	0.4932072
69	0xbedd2bb3	-0.43197402
70	0x3e40a2f6	0.18812165
71	0xbe18d473	-0.14924793
72	0xbf90ca48	-1.1311731
73	0xbf600991	-0.875146
74	0xbd95fba9	-0.07323391
75	0x3f150b24	0.58220124
76	0x3db084c3	0.08619072
77	0x3ebd23da	0.36941415
78	0x3ea5230a	0.32253295
79	0xbf5ea32a	-0.8696772
80	0x3e49db51	0.19712569
81	0xbe4d625e	-0.20057055
82	0xbf53eb22	-0.8278066
83	0x3ee333de	0.4437551
84	0xbe82dc8a	-0.25558883
85	0x3f094839	0.5362583
86	0x3dd3eed9	0.10348291
87	0xbf48a795	-0.7838071
88	0x3e987c3a	0.29782277
89	0x3f0ccc19	0.5499893
90	0xbe9379e9	-0.28803948
91	0xbe45a694	-0.19301826
92	0xbe2c7578	-0.16841686
93	0x3e8e127b	0.27748474
94	0x3f33d746	0.70250356
95	0xbf272f15	-0.65306216
96	0xbeb742af	-0.35793063
97	0xbe43e872	-0.1913164
98	0xbf4bc643	-0.795994
99	0x3e833069	0.25622872
100	0xbdc17266	-0.09445648
101	0x3f0b224d	0.54349214
102	0x3e2a740c	0.16645831
103	0xbd07200a	-0.03298954
104	0xbb748859	-0.0037312715
105	0x3ec960f8	0.39331794
106	0xbdaae21d	-0.08343909
107	0xbea3a52c	-0.31961954
108	0xbf68f626	-0.9100059
109	0xbed4ce23	-0.4156352
110	0x3defd26a	0.11710055
111	0xbf39d902	-0.7259675
112	0xbe7e4ab0	-0.24833179
113	0x3dc26952	0.094927445
114	0x3efe5231	0.49672082
115	0xbe1c71b3	-0.15277748
116	0xbd89855a	-0.06714888
117	0xbd7e980e	-0.06215673
118	0xbf466579	-0.77498585
119	0xbf311f75	-0.69188625
120	0xbf723aee	-0.9462117
121	0x3f45809a	0.77149355
122	0x3d83bed7	0.06432884
123	0xbd78dcf2	-0.060757585
124	0x3de5a90d	0.112138845
125	0xbdf11005	-0.117706336
126	0xbd8c435b	-0.068487845
127	0xbf54764f	-0.82993025
128	0xbdb9add0	-0.09066355
129	0xbeb00865	-0.34381405
130	0xbd6e2126	-0.05813708
131	0xbe7f1b0d	-0.24912663
132	0xbe1fa4aa	-0.15590158
133	0xbe691703	-0.22762685
134	0xbe540319	-0.20704307
135	0xbe8b8ad1	-0.27254346
136	0xbf091354	-0.5354512
137	0xbee92e05	-0.45542923
138	0x3eadaf94	0.33923018
139	0x3f0663f9	0.52496296
140	0xbf2dacdc	-0.6784189
141	0x3e2a6998	0.16641843
142	0xbefea190	-0.49732637
143	0xbf09ab2b	-0.53776807
144	0xbf572b5c	-0.84050536
145	0xbf157c72	-0.58393013
146	0xbc57b1e6	-0.013164973
147	0x3f21e760	0.63243675
148	0xbe4e4812	-0.2014468
149	0x3e4af3f4	0.19819623
150	0x3b669d3d	0.0035188936
151	0x3e604607	0.21901713
152	0x3f18b106	0.59645116
153	0x3f9e8274	1.2383561
154	0x3d1d2c57	0.038372364
155	0x3f00ad01	0.50263983
156	0x3ee8ba4d	0.45454636
157	0x3e0fbc6b	0.1403672
158	0xbe090d6d	-0.13384028
159	0x3ec489d9	0.3838642
160	0xbf9b76cc	-1.2145629
161	0x3f8bde91	1.0927297
162	0xbdc93f02	-0.09826471
163	0xbed2cac1	-0.41170314
164	0xbeaf5f63	-0.34252462
165	0xbd9a5b7d	-0.07536981
166	0x3de35d6d	0.11101804
167	0x3dd0dab1	0.10197962
168	0x3e342ff4	0.17596418
169	0xbbfce851	-0.007718124
170	0x3ea262ac	0.31715906
171	0x3e9cfab4	0.3066002
172	0xbea59519	-0.32340315
173	0xbb69bb35	-0.0035664563
174	0xbe58ef17	-0.21184956
175	0xbf5d9668	-0.86557627
176	0xbfb55d99	-1.4169189
177	0x3e3f21c3	0.18665223
178	0x3dc5ddbc	0.09661433
179	0xbe728bd8	-0.23686159
180	0xbf010b32	-0.5040771
181	0xbec89a32	-0.39180142
182	0xbeb9497b	-0.36188874
183	0xbe35eb19	-0.17765464
184	0xbe9bd25d	-0.30433932
185	0xbcdc502b	-0.026893696
186	0x3d52ef14	0.051497534
187	0x3f04852d	0.5176571
188	0xbeddcbc7	-0.43319532
189	0xbcff8c88	-0.03119494
190	0x3e938c48	0.28817964
191	0xbed27485	-0.41104522
192	0x3e001c2d	0.12510748
193	0x3e87cf66	0.2652542
194	0x3e853c35	0.26022497
195	0x3e4c4860	0.19949484
196	0xbc1df789	-0.0096415365
197	0xbe297785	-0.165495
198	0xbee0dd5a	-0.43918878
199	0xbf096031	-0.536624
200	0xbecf4523	-0.40482435
201	0xbe068a73	-0.13138752
202	0xbba0bbcb	-0.004905199
203	0xbc631f60	-0.013862461
204	0xbefeaca2	-0.49741083
205	0xbe9eb0ad	-0.30994168
206	0xbea03055	-0.31286874
207	0xbf02a80c	-0.5103767
208	0x3e1449f3	0.14481334
209	0x3e708bf6	0.23490891
210	0x3e382af9	0.17985143
211	0xbdced3e0	-0.10099006
212	0x3dabf190	0.08395684
213	0xbe7092d8	-0.23493516
214	0xbd4ddb9b	-0.05025826
215	0xbdc32565	-0.09528617
216	0xbc37e821	-0.011224777
217	0x3eba9120	0.36438847
218	0x3d0652c5	0.03279378
219	0x3d9e80b2	0.077393904
220	0xbf11991b	-0.56874245
221	0x3e2e315d	0.17011018
222	0xbdc82ace	-0.09773789
223	0xbf32e299	-0.6987701
224	0xbe9be1ca	-0.304457
225	0x3e80b65b	0.25139126
226	0x3f1608ac	0.5860698
227	0xbc8e7bb1	-0.017392965
228	0x3ca3bf25	0.019988606
229	0xbda7d490	-0.0819484
230	0x3e81d9b1	0.25361398
231	0xbe02263c	-0.12709898
232	0xbecf7776	-0.4052083
233	0xbe1d0235	-0.15332873
234	0x3eec52d1	0.46156934
235	0xbe52cbd1	-0.20585562
236	0xbe031a0c	-0.12802905
237	0xbe06c8ab	-0.13162486
238	0xbf386936	-0.7203554
239	0x3edb767a	0.42863828
240	0x3f08f4e5	0.5349868
241	0xbe0dd0af	-0.13849138
242	0x3f53529d	0.8254793
243	0x3e97db3f	0.2965946
244	0xbeb0b4ef	-0.3451304
245	0x3f30a70a	0.6900488
246	0xbeaf6bda	-0.34261972
247	0xbe747001	-0.23870851
248	0xbed305a7	-0.4121525
249	0x3f240fd3	0.64086646
250	0x3e5f749e	0.2182183
251	0x3e4717eb	0.19442718
252	0xbe08ad09	-0.13347258
253	0xbf5ed408	-0.87042284
254	0x3e3d7876	0.18502983
255	0xbf347421	-0.704897

attention_layer.key.weight f4 [16, 16]
0	0xbf6469b3	-0.89223784
1	0xbe745a05	-0.23862465
2	0xbfb2339d	-1.3922001
3	0xbea54907	-0.32282278
4	0xbc94dadf	-0.018170772
5	0x3e7ec802	0.24880984
6	0x3dd6cee8	0.10488683
7	0x3e69bbc4	0.22825533
8	0xbf883a49	-1.0642787
9	0x3f1cdfa4	0.6127875
10	0xbed2f4a1	-0.41202262
11	0xbf3b038b	-0.7305228
12	0xbe8b5e43	-0.27220353
13	0xbe846e05	-0.25865188
14	0x3db09764	0.086226255
15	0x3f8e2f5d	1.1108204
16	0xbecd95a4	-0.4015323
17	0x3f0a6a95	0.5406888
18	0x3e2650d2	0.16241768
19	0x3f5cded7	0.86277527
20	0x3ea6d823	0.32586774
21	0x3b914049	0.004432712
22	0xbd7a6209	-0.06112865
23	0x3f41bf4f	0.7568254
24	0x3f0177ba	0.50573313
25	0xbf365931	-0.71229845
26	0xbdee67b9	-0.11640877
27	0x3e3db6fb	0.18526833
28	0xbf73b387	-0.9519581
29	0xbf864a4f	-1.0491427
30	0xbec1faa2	-0.3788653
31	0x3e3864d1	0.18007208
32	0x3eb26e22	0.3484965
33	0xbe442319	-0.19154014
34	0x3ee835f5	0.45353666
35	0xbfe9e82c	-1.8273978
36	0x3eb53cf2	0.3539806
37	0x3e9ab290	0.30214357
38	0xbf9d87df	-1.230709
39	0xbe875a02	-0.26435858
40	0xbc9f263d	-0.019427413
41	0x3f63e409	0.8901983
42	0xbfc77a15	-1.5584131
43	0x3f858123	1.0430034
44	0xc058e889	-3.3891928
45	0xbb1072c4	-0.0022041062
46	0x3e25b2d0	0.16181493
47	0xbf3b755c	-0.7322595
48	0x3dada839	0.084793516
49	0xbe2d0190	-0.16895127
50	0xbf1af1d3	-0.60525244
51	0x3fd74108	1.6816721
52	0xbf2acdbe	-0.6672019
53	0x3ee05c3d	0.43820372
54	0x3f83cf2c	1.0297599
55	0x3e4ffaaf	0.20310472
56	0x3f4cacbe	0.79951084
57	0xbf31e520	-0.6949024
58	0x3fe0877b	1.7541345
59	0x3ee4c893	0.44684276
60	0x401a873e	2.4145045
61	0x3e08f712	0.133755
62	0xbe9b3f16	-0.30321568
63	0x3ec75ef6	0.38939637
64	0xbb54c8ee	-0.0032468396
65	0xbf12bc1e	-0.57318294
66	0x3f0867c8	0.5328336
67	0xbfa6c08b	-1.302751
68	0x39f531fb	0.0004676728
69	0xbe99ddb7	-0.30051968
70	0xbf8ea2e4	-1.114346
71	0xbf102a3b	-0.5631444
72	0x3f3b9fb9	0.7329059
73	0x3f9789d1	1.1838933
74	0x3daa1410	0.08304608
75	0x3d1c3216	0.038133703
76	0xbf285184	-0.6574938
77	0xbd3983de	-0.045291774
78	0x3d81e1a1	0.063418634
79	0x3ebf78ad	0.37396756
80	0x3e192ebf	0.14959238
81	0xbbf1ab81	-0.007375181
82	0xbf96c109	-1.177766
83	0x3f66414c	0.89943385
84	0x3f5bc540	0.85847855
85	0x3efef479	0.49795893
86	0xbdc734df	-0.09726881
87	0x3f8d1a17	1.1023587
88	0xbf4f1df9	-0.8090511
89	0xbf83004c	-1.0234466
90	0xbde8280d	-0.11335764
91	0x3d0d0484	0.034428135
92	0xbe0aab65	-0.13541944
93	0x3dd95d74	0.10613528
94	0x3f4fc6ec	0.81162906
95	0xbf18db87	-0.5970997
96	0x3f0d3ee6	0.551741
97	0x3ebfcbb1	0.37460092
98	0x3ec9dafd	0.39424887
99	0x3e118a51	0.1421292
100	0xbd76814b	-0.060181897
101	0x3d6bc5b2	0.057561584
102	0xbece3d21	-0.40281013
103	0x3f714e97	0.94260544
104	0x3d9712b7	0.073766164
105	0xbf8dadf6	-1.1068714
106	0xbeba52f2	-0.36391407
107	0x3f423445	0.75861007
108	0xbf16a548	-0.5884595
109	0x3f0fdcbd	0.56196195
110	0xbe2c94a0	-0.16853571
111	0xbf814516	-1.0099208
112	0x3ecd528b	0.40102038
113	0xbf253e67	-0.64548343
114	0x3ebeb199	0.3724487
115	0xbe8fd2dc	-0.2809056
116	0xbe7e8bb5	-0.24857982
117	0x3eec95e2	0.46208102
118	0xbe91ed9e	-0.285016
119	0x3f9f49fd	1.2444454
120	0x3e4ecca9	0.20195259
121	0xbea95614	-0.33073485
122	0xbf2036ab	-0.62583417
123	0x3f595cdc	0.8490732
124	0xbec64323	-0.38723096
125	0x3f33c6b8	0.70225096
126	0x3e92fca3	0.28708372
127	0xbf009224	-0.5022299
128	0x3f34ea21	0.7066975
129	0xbf46f13a	-0.7771183
130	0x3e2811de	0.16413066
131	0xbfcbfbba	-1.5936196
132	0x3eb124ab	0.34598288
133	0x3e99c040	0.30029488
134	0xbf7c97b5	-0.98668987
135	0x3e03edc8	0.12883675
136	0x3e400197	0.18750606
137	0x3ea69648	0.3253653
138	0xbe99bbb4	-0.3002602
139	0x3e83cf2a	0.2574399
140	0xbdab54f6	-0.083658144
141	0xbcb415e7	-0.0219831
142	0x3e368820	0.17825365
143	0xbef0c9d1	-0.47028974
144	0xbf0c66c6	-0.5484432
145	0xbe2abad1	-0.16672827
146	0xbf5bfc7e	-0.8593215
147	0x3efb6f1a	0.491082
148	0xbd2a0900	-0.04151249
149	0x3eb27dec	0.34861696
150	0x3ffa6b8b	1.956407
151	0x3ea66252	0.32496887
152	0xbea402d5	-0.3203341
153	0xc000c682	-2.012116
154	0x3f5acf9e	0.8547305
155	0x3e5f3af9	0.2179984
156	0x3f6c5b26	0.9232658
157	0xbebba0af	-0.3664603
158	0xbd9ff2d3	-0.07809987
159	0x3f244954	0.6417439
160	0xbf004bcd	-0.5011566
161	0x3eef90d9	0.46790197
162	0x3ed570ae	0.4168753
163	0xbf0ad204	-0.5422671
164	0x3e93dc6b	0.28879103
165	0x3f491e50	0.7856188
166	0x3e0d52f7	0.1380118
167	0x3e124f0d	0.14287968
168	0xbbc5fdc1	-0.0060422127
169	0xbfbd598a	-1.479295
170	0xbf4df38a	-0.80449736
171	0xbd8b6ca6	-0.068078324
172	0x3e2ba980	0.16763878
173	0xbe6adf47	-0.22936736
174	0xbf6b0188	-0.9179921
175	0x3f4552a0	0.770792
176	0x3e88b9d3	0.26704273
177	0x3e624380	0.22096062
178	0x3fab6079	1.3388816
179	0x3f69e8b5	0.9137071
180	0xbf0f772a	-0.56041205
181	0xbf0da704	-0.5533297
182	0x3ed00530	0.40628958
183	0x3e962200	0.29322815
184	0x3f76cfe9	0.96410996
185	0xbffdf6a8	-1.9840899
186	0xbf7af5d7	-0.9803137
187	0x3ea7ed5f	0.32798287
188	0xbeaa20e1	-0.3322821
189	0x3e58098e	0.21097395
190	0x3f4865e4	0.7828047
191	0xbf5e0ae0	-0.86735344
192	0xbf167c7f	-0.58783716
193	0xbfbddfc1	-1.4833909
194	0xbdab25cb	-0.08356818
195	0xbf87f3dc	-1.0621295
196	0xbef01bf0	-0.46896315
197	0xbe6f6a65	-0.2338043
198	0xbfd15ae4	-1.6355863
199	0x3d36103b	0.044449072
200	0xbf734116	-0.9502119
201	0x3fd1e5af	1.6398219
202	0x3e42d393	0.19026022
203	0xbf312cb3	-0.6920883
204	0xbe819cdb	-0.25314984
205	0x3eb3e773	0.3513752
206	0x3bb72ecc	0.0055902954
207	0xbe701e47	-0.2344905
208	0x3fe6aedc	1.8022113
209	0xbf08cbcf	-0.5343599
210	0xbd56f196	-0.052476488
211	0x3fb25ecd	1.3935181
212	0xbe9fbb26	-0.3119747
213	0xbe580b28	-0.21098006
214	0x401d727e	2.460113
215	0xbe677b98	-0.22605741
216	0x3fde2422	1.7354777
217	0x3c2feea4	0.010738049
218	0xbdcf2a2a	-0.10115464
219	0xbda4c131	-0.08044661
220	0xbdfcfdac	-0.123530716
221	0xbb97ce5b	-0.004632754
222	0xbed45e82	-0.41478354
223	0xbe8cf0e1	-0.27527526
224	0xbf4c913e	-0.7990912
225	0xbf6e164e	-0.93002784
226	0x3e25aa51	0.16178252
227	0xbddcc1cc	-0.10779151
228	0x3e931f79	0.2873495
229	0x3d940977	0.07228368
230	0xbe1792e6	-0.14802131
231	0x3f36f171	0.7146216
232	0x3f65b9fb	0.8973691
233	0xbf3634ac	-0.7117412
234	0xbf8df37a	-1.1089928
235	0x3f3f6448	0.7476239
236	0xbed788a7	-0.42096445
237	0x3ec12ab8	0.37727904
238	0x3f194e3c	0.59885
239	0x3f18cdb3	0.5968887
240	0x3f996bf4	1.198607
241	0x3d79917e	0.060929768
242	0x3f2a5b8e	0.6654595
243	0xbec62589	-0.38700512
244	0x3da4394e	0.080187425
245	0xbf1e33a3	-0.6179754
246	0x3d2222a2	0.03958381
247	0xbed0b29e	-0.40761274
248	0x3ca26097	0.019821448
249	0x3fa168fa	1.2610161
250	0x3d22847e	0.039677136
251	0x3f3f16b7	0.74644035
252	0x3f01870d	0.50596696
253	0x3f8809b1	1.0627958
254	0x3ef46c50	0.47738886
255	0xbed2345e	-0.41055578

attention_layer.value.weight f4 [16, 16]
0	0xbdc8e6f0	-0.09809673
1	0xbcabeef2	-0.020987961
2	0xbec89b96	-0.39181203
3	0xbd8ec528	-0.06971198
4	0x3e28b3b2	0.16474798
5	0x3f619caf	0.88129705
6	0xbeabe65e	-0.33574194
7	0xbe28af5f	-0.16473149
8	0x3ee3990f	0.44452712
9	0xbb71c98f	-0.003689382
10	0xbfa9b8d8	-1.3259535
11	0x3e9320e1	0.28736022
12	0xbf51f98d	-0.8202141
13	0x3df937f2	0.12168874
14	0xbf8d92bc	-1.1060405
15	0xbd981d3a	-0.074274495
16	0xbde5a2d8	-0.112127006
17	0x3deb124e	0.11478101
18	0x3d18c05c	0.037292823
19	0xbd6b527c	-0.05745171
20	0x3b1b4123	0.0023689948
21	0xbdfbd6cb	-0.12296828
22	0x3f19b80d	0.60046464
23	0xbeb4788b	-0.35248217
24	0xbdba6848	-0.09101921
25	0xbeb116d4	-0.3458773
26	0x3f5e543f	0.868473
27	0x3e241cc5	0.160266
28	0xbe52f42d	-0.20600958
29	0x3ea7ce40	0.32774544
30	0xbef21569	-0.4728196
31	0x3d664ead	0.056227375
32	0x3ca23094	0.019798554
33	0x3d872ab8	0.06599945
34	0x3e5d589e	0.21615836
35	0x3cbf9a02	0.023388866
36	0x3ebd3c2a	0.36959964
37	0x3ee760dc	0.45191085
38	0xbefe3f58	-0.49657702
39	0x3e49af77	0.19695841
40	0x3e5d8792	0.21633747
41	0xbd7752bf	-0.060381647
42	0xbf063093	-0.5241787
43	0x3cf88699	0.030337619
44	0x3f69cb13	0.9132549
45	0xbe9895ab	-0.29801688
46	0x3f47b99d	0.780176
47	0xbe7509c8	-0.23929513
48	0x3e5f8442	0.21827796
49	0xbe55f551	-0.20894362
50	0xbe95cbfe	-0.29257196
51	0xbe474986	-0.1946164
52	0xbd4be9f7	-0.049783673
53	0xbf6bf5ce	-0.92171943
54	0x3f106d08	0.5641637
55	0x3f36c079	0.7138744
56	0xbe999ab0	-0.3000083
57	0xbf09f110	-0.5388346
58	0xbec14a7d	-0.37752143
59	0xbe4b9b0e	-0.19883367
60	0x3f00dafb	0.5033414
61	0xbebfb035	-0.37439123
62	0x3f698e68	0.9123292
63	0xbf1ed274	-0.62039876
64	0x3e667dba	0.22508898
65	0x3d92235e	0.07135652
66	0xbe6da961	-0.23209144
67	0xbd63cb1b	-0.05561362
68	0xbf373c20	-0.7157612
69	0xbdc37ae1	-0.09544922
70	0xbeac4c24	-0.3365184
71	0xbe369b1f	-0.17832612
72	0x3fcc4720	1.5959206
73	0x3eb711f7	0.35755894
74	0x3e801e42	0.25023085
75	0x3f359607	0.7093205
76	0x3de83e79	0.11340041
77	0x3e8e7cfc	0.2782973
78	0x3e82f834	0.2557999
79	0xbf66f8b8	-0.90223265
80	0xbe110aa1	-0.14164211
81	0x3c6c80cd	0.014435005
82	0x3ea7d5bc	0.32780254
83	0xbe2cee23	-0.16887717
84	0xbeef627d	-0.46754828
85	0xbeec3abe	-0.46138567
86	0x3f252419	0.64508206
87	0xbc256638	-0.010095172
88	0xbe58963e	-0.21151063
89	0x3ebd0dcf	0.36924598
90	0xbf4d3fe9	-0.80175644
91	0x3e886c6d	0.26645222
92	0xbf7d2a73	-0.988929
93	0x3e8a989a	0.2706955
94	0xbf85bc97	-1.0448178
95	0xbc689ef5	-0.014198055
96	0xbe18e1ae	-0.1492984
97	0xbd391e08	-0.045194656
98	0xbedeabe1	-0.43490508
99	0xbe838e5d	-0.25694552
100	0x3cd7bff2	0.026336644
101	0x3d26be77	0.040708985
102	0xbf4c8992	-0.79897416
103	0x3ee77403	0.45205697
104	0xbe23a9e4	-0.15982777
105	0x3f040245	0.51565963
106	0x3d25a050	0.04043609
107	0x3d7ae9bc	0.061258063
108	0xbe1a7acf	-0.1508591
109	0x3c55c593	0.013047594
110	0x3f738f62	0.9514066
111	0xbe378573	-0.17922
112	0xbe129349	-0.14313997
113	0xbd970239	-0.07373471
114	0x3f002b51	0.50066096
115	0x3f4f4168	0.80959177
116	0xbe3f1640	-0.18660831
117	0xbd0a66f2	-0.033789583
118	0x3f423d76	0.7587503
119	0xbd0a8224	-0.033815518
120	0x3ebc95c3	0.3683301
121	0x3c159cc4	0.009131614
122	0x3e037f6f	0.12841581
123	0x3e4cf51c	0.20015377
124	0xbf0ae902	-0.5426179
125	0x3d15cb9d	0.036571134
126	0x3d7c486a	0.061592497
127	0xbe9ae098	-0.30249476
128	0x3d9e446c	0.07727894
129	0x3df83642	0.12119724
130	0xbf1eae88	-0.61985064
131	0xbea546f0	-0.32280684
132	0xbec20adb	-0.37898907
133	0x3ecf203f	0.4045429
134	0x3e86f071	0.26355317
135	0xbec96682	-0.3933602
136	0x3c8a7573	0.016901707
137	0x3e2c2c53	0.16813783
138	0x3e3a99da	0.18222752
139	0xbe303006	-0.1720582
140	0x3e587691	0.2113898
141	0x3d84c1a8	0.064822495
142	0xbf895d74	-1.0731645
143	0xbd2e262d	-0.042516876
144	0xbe8d9968	-0.27656102
145	0x3e9ab759	0.30218008
146	0xbe7bb1d0	-0.24579549
147	0x3eab4e15	0.3345801
148	0x3ea16776	0.31524247
149	0x3e7a0043	0.24414162
150	0xbe588262	-0.21143487
151	0x3e99bf7f	0.30028912
152	0xbee042be	-0.4380092
153	0xbe17f179	-0.14838208
154	0xbf422c17	-0.75848526
155	0xbebfb1e2	-0.374404
156	0xbe0b384c	-0.13595694
157	0xbe392290	-0.18079591
158	0x3f61325c	0.8796747
159	0xbe4f2d7e	-0.20232198
160	0x3df1dc3d	0.11809585
161	0x3ec7d224	0.39027512
162	0x3e5f8bcb	0.2183067
163	0xbf43f1c3	-0.76540774
164	0xbf16f252	-0.589635
165	0xbf400b54	-0.75017285
166	0xbef88749	-0.48540714
167	0xbe4f062f	-0.20217203
168	0xbf3e9ee1	-0.7446118
169	0x3f3ca6c3	0.7369196
170	0xbf4af1da	-0.79275286
171	0x3e390443	0.18068032
172	0xbdc3a869	-0.09553606
173	0x3ea2e6e2	0.31816775
174	0x3e0aa466	0.13539276
175	0x3eb5a00c	0.3547367
176	0x3e345fdf	0.17614697
177	0xbd3c064c	-0.045904443
178	0x3ebd1bdc	0.36935318
179	0xbd1fc3af	-0.039004978
180	0xbecf751c	-0.40519035
181	0xbe5909c1	-0.21195127
182	0xbf132c0a	-0.57489073
183	0xbde6b78b	-0.11265477
184	0x3e7468b7	0.2386807
185	0x3d254921	0.040352944
186	0x3ef38b4d	0.47567216
187	0x3a7b42aa	0.0009584824
188	0x3f7d8d85	0.99044067
189	0x3e97301a	0.29528886
190	0x3f024f38	0.5090213
191	0xbdd9045f	-0.10596537
192	0x3e96888c	0.29401052
193	0x3df5a783	0.11994841
194	0x3f0b5512	0.5442668
195	0xbf04f919	-0.5194259
196	0xbe1c0992	-0.15238026
197	0xbf75a6b1	-0.95957476
198	0x3e93c0fc	0.28858173
199	0x3e7ec3c1	0.24879362
200	0xbe0571a5	-0.13031633
201	0x3e2193ff	0.15779112
202	0xbf11e025	-0.5698264
203	0x3e26c360	0.16285467
204	0xbf37b929	-0.71766907
205	0xbe8046a9	-0.2505391
206	0x3f025492	0.50910294
207	0x3e11348a	0.14180198
208	0x3dbac686	0.091198966
209	0x3e681adf	0.226665
210	0x3de3825f	0.11108851
211	0xbe8ed3cd	-0.27895966
212	0x3ec48513	0.38382778
213	0xbd723f24	-0.059142247
214	0x3dea1026	0.11428861
215	0xbeb829ed	-0.35969487
216	0xbe6bf60e	-0.23043081
217	0xbeaf14f1	-0.34195665
218	0x3f3f212a	0.7465998
219	0x3d937697	0.072003536
220	0x3f83d5ae	1.0299585
221	0x3e376b67	0.17912064
222	0xbf3afa5d	-0.73038274
223	0x3e52496d	0.20535822
224	0xbec09c0d	-0.37619057
225	0xbe29f9b4	-0.1659916
226	0x3d061a12	0.032739706
227	0xbea4eba1	-0.3221102
228	0x3f05bbcd	0.52239686
229	0xbcbb2d31	-0.022848697
230	0xbed388f2	-0.41315418
231	0x3f0123f9	0.50445515
232	0xbfa498cc	-1.285913
233	0x3e882902	0.26593786
234	0xbf3a0ce2	-0.7267591
235	0x3eb065a7	0.34452555
236	0xbe4cd43a	-0.20002833
237	0x3d98318d	0.07431326
238	0xbe98e891	-0.29864934
239	0x3f2fbc08	0.6864629
240	0xbe2024c8	-0.15639031
241	0xbe4cfa90	-0.20017457
242	0xbefc09fa	-0.49226362
243	0xbd13342b	-0.035938423
244	0x3f0d4594	0.5518429
245	0x3ef2aa90	0.47395754
246	0x3ed23587	0.41056463
247	0xbe2fc9d0	-0.17166829
248	0xbe8c562c	-0.27409494
249	0xbef917b0	-0.48650885
250	0xbece6aea	-0.40315944
251	0xbe9faa09	-0.31184414
252	0xbf9a3c87	-1.2049721
253	0xbe3f37f2	-0.18673685
254	0xbf981d02	-1.1883852
255	0xbecab13d	-0.39588347
