Sleep_stage_classifier/Local_classifacation/ConvTran/output/20241231090821_nnn100/model.pth (torch, 257710 bytes, 28 tensors)

embed_layer.0.weight f4 [64, 1, 1, 8]
0.342889 -1.3064591 0.03356846 -0.7532399 0.6584468 1.4764646 -0.6762338 0.16758463
1.446871 1.2133977 0.9766589 -0.42457527 -0.4448329 0.12609577 -0.83526945 -0.004692713
-0.46703228 -0.5599518 0.1443742 -0.087750494 0.38111168 -0.92018366 -0.4684428 -2.3713994
-1.1375312 -0.7622679 0.5654332 0.019981535 -0.5971016 0.77633226 -0.10347456 -1.963112
-1.9412681 0.37816912 0.02504367 0.58770955 -0.9360837 0.091589525 0.41187915 -0.12757003
0.34371537 -0.599522 -1.2142531 0.30930847 -0.9128071 -0.78400683 1.3702548 0.029213252
-0.06497582 0.24808536 0.16603582 0.0968955 0.6607718 0.6932011 -0.007949371 0.3626715
-0.18260702 -0.1317681 -0.25496855 1.0903354 -1.0079081 -1.4649289 0.81063557 -0.30623692
0.4783747 -0.20162743 1.2964523 -1.8949125 -0.1343854 -0.4425013 -0.137803 0.39240706
-0.08891075 -0.635557 -1.1475905 -1.1946232 -1.5006917 -0.76844543 0.034721013 -0.036857292
-0.11284583 -0.3282296 -1.8780605 1.4240395 -0.25237823 -0.20816782 0.471745 -0.30580798
1.0567034 0.39308357 0.3768593 0.5436142 0.4133681 -0.21140528 -0.08608981 -0.18917401
-0.43001026 -0.83837175 -0.5780671 -0.49521902 -0.5980803 0.009876381 -0.16812313 0.15913017
1.7086381 0.8827782 0.2747794 -0.74244875 -0.4549095 -0.26011392 -0.37235817 -0.54711926
0.12875459 0.42636338 0.64742494 -0.09068112 -0.5335062 1.1052092 -0.12572233 0.23644446
-0.5547887 -0.7757274 0.23479672 -1.3276074 1.4431028 0.882189 -0.28216994 -0.08406762
-0.22947226 -0.723124 1.2096331 -1.0131341 0.5103158 0.423327 0.80261767 0.8801133
1.4137969 0.46740696 0.34030777 0.13892831 0.13062774 0.06330922 -0.27319774 0.04217662
-2.5378816 -0.45183465 -0.26038328 0.11467073 0.31968433 0.26655868 0.7921982 0.45485175
-1.7722697 -0.46824762 0.37796083 0.32326448 -0.54144967 -0.56020105 0.29927278 1.1269703
0.14675584 -0.3066168 -0.18921663 -0.9742994 1.5897151 0.6457265 -0.5690976 1.3842154
0.5363533 0.3695821 1.072791 0.22777511 0.97417873 1.4293717 0.5956176 -0.17134827
0.07057741 0.37170914 0.17419173 0.60147005 0.42647055 0.5982634 0.5412028 0.32653037
1.0593389 0.6534387 0.58693516 0.80624586 1.0979856 0.49946952 0.15553458 0.4166783
-0.86579114 -0.9357512 -0.49536103 -0.4779509 -0.9718232 -1.27162 -0.86645615 -0.2048563
-0.10885341 -0.015811011 0.13247226 -1.8750693 0.26711056 -0.39804125 -0.046251755 1.4935846
0.7812022 -0.76189965 -1.4885397 -0.2552536 0.5875397 -0.807575 -0.5124365 0.8088247
1.5355005 0.9152191 -0.018018164 0.45713276 -0.86452216 -0.14294714 0.21727286 -0.9337075
0.17461401 -0.3619811 -0.23237911 -1.1956309 0.95598036 -1.1200635 0.5000657 -1.747877
-0.6849266 -0.81591076 -0.053859532 -0.25521857 -0.58544385 -0.553063 -0.66275203 -0.7297952
-0.5214021 -1.7642964 0.41371825 0.91869426 -0.9984374 -0.04018818 -0.7029152 -0.102710016
0.3537268 -0.41132885 -0.5554814 -0.48630393 -1.3388683 0.2481475 -0.8801642 0.3294818
00000000: 268f af3e 0d3a a7bf 157f 093d 55d4 40bf
00000010: f88f 283f cbfc bc3f a91d 2dbf 4e9b 2b3e
00000020: 1233 b93f 9e50 9b3f 5106 7a3f ee61 d9be
00000030: 23c1 e3be 401f 013e 38d4 55bf 54c5 99bb
00000040: db1e efbe 0059 0fbf d5d6 133e 88b6 b3bd
00000050: 1221 c33e 2891 6bbf bcd7 efbe 02c5 17c0
00000060: 9f9a 91bf fd23 43bf 3bc0 103f 51b0 a33c
00000070: a7db 18bf b6bd 463f 78ea d3bd 4147 fbbf
00000080: 797b f8bf 629f c13e 6228 cd3c 2274 163f
00000090: 2ea3 6fbf 4a93 bb3d d3e1 d23e b8a1 02be
000000a0: 76fb af3e 467a 19bf a56c 9bbf ae5d 9e3e
000000b0: baad 69bf acb4 48bf 8264 af3f a150 ef3c
000000c0: 0b12 85bd 170a 7e3e 4b05 2a3e 2671 c63d
000000d0: 5728 293f a175 313f 143e 02bc 14b0 b93e
000000e0: 56fd 3abe 38ee 06be 3d8b 82be 1c90 8b3f
000000f0: 2203 81bf ca82 bbbf d085 4f3f 16cb 9cbe
00000100: 87ed f43e 6c77 4ebe 26f2 a53f 7e8c f2bf
00000110: 549c 09be 888f e2be 3b1c 0dbe 94e9 c83e
00000120: d716 b6bd ddb3 22bf 3fe4 92bf 6ae9 98bf
00000130: aa16 c0bf d7b8 44bf 9f37 0e3d acf7 16bd
00000140: b71b e7bd b60d a8be 4964 f0bf ed46 b63f
00000150: b837 81be f229 55be 9088 f13e dd92 9cbe
00000160: 0f42 873f 4042 c93e b4f3 c03e 4d2a 0b3f
00000170: fca4 d33e a07a 58be db4f b0bd d5b6 41be
00000180: 4e2a dcbe 889f 56bf 35fc 13bf 598d fdbe
00000190: ca1b 19bf 8bd0 213c 7828 2cbe 05f3 223e
000001a0: a7b4 da3f c1fd 613f e3af 8c3e 1f11 3ebf
000001b0: e6e9 e8be a72d 85be bba5 bebe 0210 0cbf
000001c0: 3ed8 033e 4d4c da3e a4bd 253f 06b7 b9bd
000001d0: dd93 08bf 7f77 8d3f 5bbd 00be 7f1e 723e
000001e0: a206 0ebf 1296 46bf 8d6e 703e 0aef a9bf
000001f0: 98b7 b83f 23d7 613f 9478 90be a52b acbd
00000200: c7fa 6abe a81e 39bf 42d5 9a3f 61ae 81bf
00000210: 0ea4 023f 51be d83e 5a78 4d3f 1b4f 613f
00000220: 4cf7 b43f f74f ef3e d23c ae3e 3943 0e3e
00000230: 47c3 053e 44a8 813d 93e0 8bbe 64c1 2c3d
00000240: a76c 22c0 df56 e7be f550 85be 7dd8 ea3d
00000250: aaad a33e 617a 883e 80cd 4a3f 54e2 e83e
00000260: bcd9 e2bf 27be efbe 1584 c13e ec82 a53e
00000270: 729c 0abf 5669 0fbf 483a 993e 9040 903f
00000280: 2a47 163e e1fc 9cbe 01c2 41be af6b 79bf
00000290: c97b cb3f 554e 253f 61b0 11bf f82d b13f
000002a0: 734e 093f dd39 bd3e 3751 893f e13d 693e
000002b0: c763 793f a7f5 b63f 657a 183f ec75 2fbe
000002c0: e48a 903d a950 be3e 515f 323e f1f9 193f
000002d0: 595a da3e ca27 193f 448c 0a3f fd2e a73e
000002e0: 6b98 873f c247 273f 6241 163f 2166 4e3f
000002f0: cb8a 8c3f 78ba ff3e 7544 1f3e dc56 d53e
00000300: 7da4 5dbf 648d 6fbf f69f fdbe fbb5 f4be
00000310: 68c9 78bf 72c4 a2bf 12d0 5dbf dac5 51be
00000320: 89ee debd 1886 81bc cfa6 073e 4502 f0bf
00000330: b7c2 883e 10cc cbbe 7b72 3dbd c82d bf3f
00000340: defc 473f db0b 43bf 7888 bebf 9ab0 82be
00000350: 0069 163f 3cbd 4ebf 0a2f 03bf 230f 4f3f
00000360: 488b c43f cd4b 6a3f d49a 93bc 4e0d ea3e
00000370: 5351 5dbf bc60 12be c77c 5e3e 7407 6fbf
00000380: 04ce 323e 9655 b9be caf4 6dbe 6f0a 99bf
00000390: 21bb 743f 3e5e 8fbf 4e04 003f 6fba dfbf
000003a0: 5a57 2fbf 87df 50bf d09b 5cbd 02ac 82be
000003b0: a6df 15bf 8995 0dbf 1eaa 29bf dcd3 3abf
000003c0: 9c7a 05bf 77d4 e1bf e1d2 d33e 8c2f 6b3f
000003d0: 9899 7fbf 5c9c 24bd 40f2 33bf a159 d2bd
000003e0: ae1b b53e b299 d2be 0734 0ebf d4fc f8be
000003f0: 0960 abbf 611a 7e3e 7152 61bf d7b1 a83e

embed_layer.0.bias f4 [64]
-0.3262356 0.23870759 0.30284783 -0.33672324 0.14956382 -0.067521095 -0.077720344 -0.05876532
0.19490583 -0.044207215 -0.18300389 0.04368872 -0.20740227 -0.255264 0.2345353 -0.343885
-0.3265814 -0.34173843 -0.026563523 -0.33795187 0.19974223 -0.31919256 0.23662254 -0.0818092
0.22719641 0.24224505 -0.25800505 -0.04933128 -0.09621788 0.31685165 0.24275158 0.091562845
0.304219 0.04970195 -0.25534493 0.018166622 -0.30490568 -0.099918835 -0.21188794 -0.011116245
-0.020072449 -0.30457172 0.35002187 0.12810408 -0.13791288 -0.054418784 0.003694145 -0.13930984
0.20637469 0.10410557 0.116858326 -0.31029087 0.16966859 -0.15050824 -0.06487009 0.27060887
0.19933358 0.14426261 0.28419784 -0.24680094 -0.14318667 0.23204857 -0.007195085 -0.09390334
00000000: 5a08 a7be c36f 743e df0e 9b3e fd66 acbe
00000010: 4227 193e 8048 8abd d82b 9fbd e7b3 70bd
00000020: 6595 473e a012 35bd 5f65 3bbe f1f2 323d
00000030: 4361 54be f7b1 82be 062a 703e b211 b0be
00000040: ad35 a7be 57f8 aebe bf9b d9bc 0708 adbe
00000050: 3a89 4c3e 356d a3be 2e4d 723e 958b a7bd
00000060: 2da6 683e 160f 783e 3d19 84be 990f 4abd
00000070: e10d c5bd 613a a23e df93 783e 4d85 bb3d
00000080: 98c2 9b3e 4694 4b3d 92bc 82be 2bd2 943c
00000090: 991c 9cbe 3fa2 ccbd 27f9 58be e920 36bc
000000a0: fa6e a4bc d3f0 9bbe 1136 b33e b72d 033e
000000b0: 0939 0dbe 3be6 5ebd 7819 723b 3da7 0ebe
000000c0: e353 533e 4d35 d53d 6b53 ef3d 72de 9ebe
000000d0: 9abd 2d3e d51e 1abe 9cda 84bd 3f8d 8a3e
000000e0: 1a1e 4c3e 94b9 133e 6182 913e 63b9 7cbe
000000f0: 879f 12be 249e 6d3e bfc4 ebbb 6550 c0bd

embed_layer.1.weight f4 [64]
0.9138334 0.9734177 1.6279825 1.3169178 1.2727867 1.433068 0.0026755116 1.5866821
2.6011267 2.0110817 2.250462 0.017807135 -0.0018259957 1.737555 2.6597087e-07 3.1937025
1.330338 -7.218584e-05 2.8583603 1.0998553 0.74091506 0.77585393 0.0065203467 0.8217087
1.9595858 1.7827562 1.1180983 0.8872999 2.5352218 0.06846472 1.5106585 0.20195232
1.4179351 1.5762377 2.8587288e-05 1.3092967 2.148867 1.0872126 1.1848449 1.9574885
1.2251989 0.034109868 -0.027429897 2.2479405 2.4523365 1.5855929 1.643516 1.7695488
3.6405884e-06 1.6895678 -0.008977898 1.3305886 0.5945368 0.52259135 0.89205265 1.4666357
1.9111797 0.7565155 0.9206401 1.6717497 2.2306442 2.5583704 0.012518293 0.9182706
00000000: fcf0 693f e731 793f bb61 d03f c390 a83f
00000010: adea a23f c66e b73f a357 2f3b 6618 cb3f
00000020: dc78 2640 90b5 0040 9207 1040 45e0 913c
00000030: 4056 efba 3468 de3f c2ca 8e34 9f65 4c40
00000040: 8448 aa3f 7a62 97b8 60ef 3640 0fc8 8c3f
00000050: 9cac 3d3f 5d9e 463f a2a8 d53b 805b 523f
00000060: b5d3 fa3f 5b31 e43f d81d 8f3f 1626 633f
00000070: 1341 2240 3b37 8c3d 425d c13f 97cc 4e3e
00000080: e67e b53f 28c2 c93f bcce ef37 0997 a73f
00000090: 0987 0940 c829 8b3f ffa8 973f fc8e fa3f
000000a0: 51d3 9c3f cab6 0b3d aab4 e0bc 42de 0f40
000000b0: 15f3 1c40 b5f4 ca3f bb5e d23f 9380 e23f
000000c0: d550 7436 c243 d83f 0918 13bc ba50 aa3f
000000d0: 9033 183f 8cc8 053f 905d 643f b8ba bb3f
000000e0: 89a1 f43f 00ab 413f 12af 6b3f e5fb d53f
000000f0: e0c2 0e40 57bc 2340 8719 4d3c c813 6b3f

embed_layer.1.bias f4 [64]
-1.477021 0.35276395 -0.049046755 0.30618736 -2.0548 -2.5822341 -0.78084064 -0.2088208
-0.017098013 1.0508385 -0.0015326069 -0.7886112 -0.7735702 1.1085976 -0.75178885 -0.84480596
-0.3361039 -0.74926597 -0.4648614 -2.1970668 -1.1186256 0.67245793 -0.75100213 -0.6911245
1.5062696 -0.41320923 -2.7977579 0.21020964 0.29220006 -0.67837167 -0.056407742 -0.61049
-2.2456954 0.53578687 -0.75184196 -0.07133153 0.43725592 -1.8683255 0.39447886 0.60804445
0.5001865 -0.7840609 -0.8553425 -0.8454718 -0.4807202 0.8839058 -2.4934509 -0.13755153
-0.7517864 1.7224195 -0.755887 0.5950897 -1.8234205 -0.2993373 -1.0910379 -1.4558609
1.4225837 -0.12182012 -0.60985893 1.0139425 -0.7299146 1.3644907 -0.7937395 -2.1801226
00000000: 060f bdbf 7a9d b43e 40e5 48bd 97c4 9c3e
00000010: d881 03c0 5343 25c0 2ce5 47bf 1fd5 55be
00000020: 2211 8cbc e081 863f c1e1 c8ba 6ce2 49bf
00000030: b208 46bf 87e6 8d3f 3c75 40bf 3445 58bf
00000040: cf15 acbe e5cf 3fbf 5002 eebe be9c 0cc0
00000050: 202f 8fbf 3426 2c3f ad41 40bf 89ed 30bf
00000060: 71cd c03f 2990 d3be 770e 33c0 3241 573e
00000070: 3f9b 953e c4a9 2dbf ce0b 67bd 1349 1cbf
00000080: 79b9 0fc0 5429 093f b778 40bf 4416 92bd
00000090: 02e0 df3e 4a25 efbf 22f9 c93e cda8 1b3f
000000a0: 390c 003f 37b8 48bf baf7 5abf d770 58bf
000000b0: f520 f6be a747 623f b394 1fc0 4fda 0cbe
000000c0: 1375 40bf 3e78 dc3f cf81 41bf cc57 183f
000000d0: d865 e9bf bd42 99be 21a7 8bbf a659 babf
000000e0: 3917 b63f d47c f9bd b71f 1cbf dec8 813f
000000f0: afdb 3abf a2a7 ae3f 8332 4bbf 2187 0bc0

embed_layer.1.running_mean f4 [64]
-1.7670902 67.642654 -139.1058 -103.14393 -48.94849 -48.99087 70.08314 -48.760452
-20.949644 -174.58827 -39.45445 75.61035 -96.60355 14.202926 58.683704 -19.082897
58.56022 75.59219 -41.404633 -36.52751 55.127876 163.2141 101.750206 172.83594
-198.2063 -18.623314 -53.74339 36.14418 -98.246765 -140.77507 -90.93622 -87.49437
-37.088814 -65.71347 49.171715 -39.814606 -43.997166 -57.25047 -172.9642 -69.38323
-100.052086 -87.99742 90.38448 -25.048725 -45.147453 -159.4241 -37.51527 28.391506
71.67305 -1.2586346 78.7605 -97.42895 -9.171603 -106.32242 38.15356 2.3430707
-180.39703 -136.94888 45.609913 -196.77048 -62.953556 -196.08212 110.93476 -49.583603
00000000: 0330 e2bf 0a49 8742 161b 0bc3 b149 cec2
00000010: 41cb 43c2 a7f6 43c2 912a 8c42 b40a 43c2
00000020: df98 a7c1 9996 2ec3 5bd1 1dc2 8038 9742
00000030: 0535 c1c2 2f3f 6341 1dbc 6a42 c6a9 98c1
00000040: aa3d 6a42 342f 9742 589e 25c2 2c1c 12c2
00000050: f282 5c42 cf36 2343 1b80 cb42 00d6 2c43
00000060: d034 46c3 8cfc 94c1 3bf9 56c2 a493 1042
00000070: 587e c4c2 6bc6 0cc3 58df b5c2 1efd aec2
00000080: f25a 14c2 4c6d 83c2 d6af 4442 2842 1fc2
00000090: 19fd 2fc2 7b00 65c2 d6f6 2cc3 37c4 8ac2
000000a0: ab1a c8c2 aefe afc2 dbc4 b442 ca63 c8c1
000000b0: fe96 34c2 926c 1fc3 a30f 16c2 ce21 e341
000000c0: 9a58 8f42 f01a a1bf 6085 9d42 9fdb c2c2
000000d0: e3be 12c1 14a5 d4c2 3f9d 1842 dff4 1540
000000e0: a465 34c3 eaf2 08c3 8d70 3642 3ec5 44c3
000000f0: 71d0 7bc2 0615 44c3 99de dd42 9c55 46c2

embed_layer.1.running_var f4 [64]
458.15106 5333.7075 21430.5 11789.869 3052.4883 2904.957 5303.2744 2975.684
976.75696 32197.748 2169.3662 6107.7827 9816.259 863.9073 3758.649 835.873
4292.668 6256.931 2714.034 1966.4639 3876.624 28477.291 10966.121 31603.441
41820.152 857.7089 3390.1936 1912.7753 10718.559 21230.242 9337.941 8301.467
2099.027 5305.6367 2784.728 2128.1765 2873.806 4157.2007 31727.625 5462.3433
10912.491 8234.165 8898.149 1186.4103 2575.427 27110.793 2046.6716 1597.4817
5500.5 772.6294 6604.168 10211.987 536.6055 12127.824 2242.6772 575.6829
34457.406 19899.037 2920.0623 40959.215 4665.1963 40946.94 13007.794 2916.159
00000000: 5613 e543 a9ad a645 006d a746 7a37 3846
00000010: d0c7 3e45 508f 3545 32ba a545 f2fa 3945
00000020: 7230 7444 7f8b fb46 dc95 0745 43de be45
00000030: 0961 1946 11fa 5744 62ea 6a45 dff7 5044
00000040: 5825 8645 7387 c345 8ba0 2945 d8ce f544
00000050: fc49 7245 957a de46 7c58 2b46 e2e6 f646
00000060: 275c 2347 5f6d 5644 19e3 5345 cf18 ef44
00000070: 3c7a 2746 7cdc a546 c4e7 1146 deb5 0146
00000080: 6f30 0345 18cd a545 a60b 2e45 d302 0545
00000090: e59c 3345 9be9 8145 40df f746 bfb2 aa45
000000a0: f781 2a46 a9a8 0046 9908 0b46 214d 9444
000000b0: d5f6 2045 96cd d346 7ed5 ff44 6aaf c744
000000c0: 00e4 ab45 4828 4144 5861 ce45 f38f 1f46
000000d0: c126 0644 4c7f 3d46 d62a 0c45 b5eb 0f44
000000e0: 6899 0647 1376 9b46 ff80 3645 37ff 1f47
000000f0: 92c9 9145 f1f2 1f47 2d3f 4b46 8b42 3645

embed_layer2.0.weight f4 [16, 64, 2, 1]
0.026991235 1.6428132 -1.4173014 0.87785774 -0.1001481 -0.16494088 -0.8995589 0.1342004
-0.2806025 -0.657692 -0.2865433 0.73281515 -0.19467963 0.21337545 -0.43304247 0.6013115
-0.5465264 -0.024176428 -1.2190331 0.0082391845 -0.7502124 0.4534455 -0.020963792 0.03085359
-0.57280904 0.33059373 -0.7109329 -0.24574932 -0.9582012 0.38482913 1.0723561 -0.4823307
-1.7919397 0.36037594 -0.098157376 -0.77952176 -0.1731146 0.69372237 -0.18656978 -0.91419166
-0.7525496 0.36485294 -1.9180075 0.46421638 -0.56036246 -0.222669 -1.7554073 -1.2135231
0.059410963 0.22808279 -0.20895498 0.8859084 -0.7142821 0.49689895 -1.0002633 1.359294
1.1010398 -1.3359346 -0.02553483 0.09122195 -1.9273658 0.80412346 0.4727562 0.559388
-0.52459204 0.0313739 -0.19687694 0.36989865 -0.2720002 -0.004647961 -0.9176191 0.21737921
-1.0883088 0.10597202 -1.8909514 -0.6114579 -0.44031438 -0.061137527 -1.4662971 -0.7443529
0.61975956 0.0975209 -0.230262 -0.10474526 0.15030457 -0.17372613 -1.7642257 1.2303059
0.069885686 0.4240114 -0.8677504 -0.04985147 -0.18753213 0.8524204 -0.74720097 -0.24475968
-0.6403949 -0.19199613 -0.1730759 0.93551475 -0.38796887 0.08004028 -1.3629583 -0.458985
0.5477983 -0.28022602 -0.6052531 0.49625012 -1.0135251 -0.5695392 0.42447007 0.8175678
-0.9307946 -0.26165602 -0.8042798 0.04908867 -1.323117 0.5693663 -0.45851728 -0.038628586
-1.1052351 0.38164085 -0.81495565 -0.07183272 0.0021249403 0.25523397 -0.84015137 0.9569061
-0.18963487 -0.8555719 -0.4313553 -0.9658221 -0.23280527 0.02304715 0.9262152 0.2646008
-0.30516258 0.2620645 -0.2626818 1.8086871 0.042170107 0.18515745 0.75281924 -0.7454548
0.26300365 -0.3714123 0.34168568 -1.0663636 0.055492423 -0.06232479 -0.2592608 0.1517846
0.2057504 -0.4596566 -1.2689973 -0.19799457 0.029040655 -0.29444015 -1.7254533 0.31542155
0.779594 -1.8571913 -0.2620097 0.0388699 -2.584478 -0.23849516 -0.102321826 -1.2517294
0.3573302 -0.5659892 0.46487635 0.5875549 0.15860598 -0.7818612 0.37395915 -1.3768265
0.90721196 -0.8710035 0.4849757 -0.14988697 -1.0774783 1.9097786 -0.66881305 0.21678135
-1.1445051 -0.3854232 -0.012573427 0.037557904 0.09637418 0.39837092 0.07460793 -0.06447514
-0.5834488 1.2165439 0.3100414 -0.32063282 -0.11336096 0.9089648 0.74055266 -0.25885528
-1.2529037 -0.48251995 0.052515313 0.61272985 0.83775026 -0.7829919 -0.017646717 -0.5257956
1.244766 -0.48188052 -0.08161361 0.23793228 -0.14816852 -0.4749581 -0.87592655 0.31947276
-1.736438 -0.9667348 0.72090983 -0.9138724 -0.030188102 1.0040259 0.9671077 -0.37351206
-0.17393696 0.31181064 1.5499845 -0.47321472 -0.04184747 0.920379 0.81909037 0.25211158
1.6435785 0.11408797 0.043207135 -0.22962297 0.42246878 -1.9125444 1.8158947 -0.050939392
0.85499865 -0.8189241 0.287561 -0.5785909 0.7923902 -1.6319336 0.7193297 -0.93982804
-0.4367325 -0.09106102 0.056681976 -1.1727588 -0.13296127 0.11852756 0.10082736 1.4954287
00000000: b91c dd3c b447 d23f 226a b5bf 49bb 603f
00000010: 721a cdbd 43e6 28be 7e49 66bf d46b 093e
00000020: 22ab 8fbe 815e 28bf ceb5 92be c699 3b3f
00000030: 195a 47be 187f 5a3e beb7 ddbe 8def 193f
00000040: 27e9 0bbf a50d c6bc 4709 9cbf a5fd 063c
00000050: eb0d 40bf 022a e83e 42bc abbc abc0 fc3c
00000060: 9da3 12bf 9543 a93e b3ff 35bf b6a5 7bbe
00000070: ad4c 75bf 5308 c53e f742 893f 0df4 f6be
00000080: 485e e5bf 3283 b83e bc06 c9bd bd8e 47bf
00000090: f444 31be ca97 313f 260c 3fbe 7708 6abf
000000a0: 17a7 40bf 01ce ba3e 4581 f5bf c5ad ed3e
000000b0: ea73 0fbf 5803 64be 30b1 e0bf ba54 9bbf
000000c0: e958 733d 898e 693e 4bf8 55be e5ca 623f
000000d0: 31db 36bf 8a69 fe3e a108 80bf 59fd ad3f
000000e0: dfee 8c3f e8ff aabf 6b2e d1bc 93d2 ba3d
000000f0: ecb3 f6bf 09db 4d3f 1a0d f23e 0d34 0f3f
00000100: aa4b 06bf eb81 003d 1c9a 49be 5b63 bd3e
00000110: 9c43 8bbe ec4d 98bb 16e9 6abf a898 5e3e
00000120: b44d 8bbf dc07 d93d b20a f2bf 8188 1cbf
00000130: e370 e1be 586b 7abd a0af bbbf e98d 3ebf
00000140: 90a8 1e3f 0ab9 c73d cdc9 6bbe af84 d6bd
00000150: 71e9 193e 43e5 31be 26d2 e1bf aa7a 9d3f
00000160: 3a20 8f3d 0618 d93e e424 5ebf 0e31 4cbd
00000170: 6c08 40be 3938 5a3f 9048 3fbf 48a2 7abe
00000180: ecf0 23bf a29a 44be cf3a 31be e57d 6f3f
00000190: dba3 c6be 29ec a33d 6b75 aebf 1500 ebbe
000001a0: 823c 0c3f c979 8fbe def1 1abf 7f14 fe3e
000001b0: 31bb 81bf 52cd 11bf 2454 d93e 204c 513f
000001c0: 8e48 6ebf c7f7 85be 48e5 4dbf 3411 493d
000001d0: e65b a9bf fdc1 113f c7c2 eabe 0239 1ebd
000001e0: 5878 8dbf 6e66 c33e efa0 50bf 081d 93bd
000001f0: 9542 0b3b 07ae 823e 2914 57bf ccf7 743f
00000200: a52f 42be c306 5bbf 9ada dcbe 1e40 77bf
00000210: 8164 6ebe 60cd bc3c 701c 6d3f c279 873e
00000220: 453e 9cbe 512d 863e 3b7e 86be 0f83 e73f
00000230: 90ba 2c3d ea99 3d3e c3b8 403f 20d6 3ebf
00000240: 6aa8 863e c129 bebe 6df1 ae3e 9a7e 88bf
00000250: 064c 633d 4748 7fbd d5bd 84be 6c6d 1b3e
00000260: 3cb0 523e 1c58 ebbe 816e a2bf 17bf 4abe
00000270: abe6 ed3c dcc0 96be a7db dcbf ef7e a13e
00000280: 7993 473f 72b8 edbf 2326 86be 0b36 1f3d
00000290: 1668 25c0 1338 74be 1b8e d1bd ab38 a0bf
000002a0: fcf3 b63e abe4 10bf 4604 ee3e ff69 163f
000002b0: 9b69 223e 0e28 48bf 9377 bf3e da3b b0bf
000002c0: 0b3f 683f 16fa 5ebf bc4e f83e f87b 19be
000002d0: cfea 89bf a073 f43f 5537 2bbf eefb 5d3e
000002e0: 257f 92bf 3156 c5be c600 4ebc 51d6 193d
000002f0: d35f c53d 46f7 cb3e 0bcc 983d 8b0b 84bd
00000300: e75c 15bf b6b7 9b3f bfbd 9e3e fc29 a4be
00000310: ca29 e8bd ebb1 683f dc94 3d3f ae88 84be
00000320: 265f a0bf db0c f7be 4c1a 573d dddb 1c3f
00000330: cd76 563f 2872 48bf d98f 90bc 8a9a 06bf
00000340: 7e54 9f3f 0bb9 f6be 0925 a7bd 85a4 733e
00000350: 7db9 17be b52d f3be b93c 60bf ef91 a33e
00000360: 9a43 debf ef7b 77bf 8c8d 383f 8bf3 69bf
00000370: 0a4d f7bc ec83 803f 5f94 773f f93c bfbe
00000380: 881c 32be a5a5 9f3e e465 c63f 3349 f2be
00000390: 4168 2bbd f59d 6b3f e8af 513f c514 813e
000003a0: c860 d23f f4a6 e93d f7f9 303d 4922 6bbe
000003b0: d44d d83e 41ce f4bf 3d6f e83f d3a5 50bd
000003c0: 31e1 5a3f 03a5 51bf 323b 933e 891e 14bf
000003d0: 16da 4a3f 33e3 d0bf fe25 383f 9298 70bf
000003e0: 679b dfbe 337e babd 5c2b 683d f61c 96bf
000003f0: 0027 08be 94be f23d 937e ce3d 356a bf3f

embed_layer2.0.bias f4 [16]
-0.4827104 0.03322211 -0.04524117 0.2398607 0.1708463 -0.17345662 0.12877205 -0.30662835
-0.1796052 -0.04837764 0.38788927 0.36904585 0.022904467 0.049565945 0.16039765 -0.006934783
00000000: d125 f7be e813 083d ce4e 39bd 0b9e 753e
00000010: 55f2 2e3e 9d9e 31be d2dc 033e 64fe 9cbe
00000020: 6dea 37be a227 46bd 6c99 c63e 94f3 bc3e
00000030: 26a2 bb3c a905 4b3d 483f 243e 2d3d e3bb

embed_layer2.1.weight f4 [16]
4.1516275 3.245744 2.1794288 2.8761604 2.812664 2.926778 2.1026213 2.1791344
2.6102808 2.4065113 3.0343468 3.0696647 3.347785 1.7620555 2.5846856 1.8105732
00000000: 22da 8440 45ba 4f40 c37b 0b40 0313 3840
00000010: b002 3440 5550 3b40 5991 0640 f076 0b40
00000020: d70e 2740 4804 1a40 bd32 4240 6375 4440
00000030: 1c42 5640 098b e13f 7d6b 2540 ddc0 e73f

embed_layer2.1.bias f4 [16]
-0.7870686 -1.2309759 0.046986524 -0.6319423 -0.7657407 0.3228535 -1.1165832 -0.08598632
-1.1456481 -0.10237391 -0.17241442 -0.65265185 -1.0158707 -0.85048795 -0.05533724 -0.44817355
00000000: 547d 49bf 9e90 9dbf f174 403d f8c6 21bf
00000010: 9507 44bf 0e4d a53e 33ec 8ebf 9919 b0bd
00000020: 99a4 92bf 6aa9 d1bd 688d 30be 3114 27bf
00000030: 0d08 82bf 94b9 59bf 4da9 62bd 0177 e5be

embed_layer2.1.running_mean f4 [16]
-6.124568 -26.754564 40.02125 6.305296 -0.99493694 6.653698 -2.5759559 -3.4217975
67.12783 25.099098 -8.536655 2.6155615 52.962227 12.095573 51.320866 37.64868
00000000: 76fc c3c0 5909 d6c1 c315 2042 fcc4 c940
00000010: 30b4 7ebf 18eb d440 76dc 24c0 bbfe 5ac0
00000020: 7341 8642 f4ca c841 2496 08c1 5c65 2740
00000030: 52d9 5342 7887 4141 9148 4d42 4098 1642

embed_layer2.1.running_var f4 [16]
20.79453 14.153687 35.212807 25.673344 18.383432 25.867071 16.16674 40.650818
16.219553 16.300598 16.840954 18.557308 39.651817 19.948843 16.61259 48.163174
00000000: 335b a641 8075 6241 ead9 0c42 0263 cd41
00000010: 4511 9341 c3ef ce41 7c55 8141 709a 2242
00000020: a5c1 8141 a067 8241 46ba 8641 5e75 9441
00000030: 769b 1e42 3b97 9f41 96e6 8441 17a7 4042

Fix_Position.pe f4 [1, 150, 16]
0.0 1.0 0.0 1.0 0.0 1.0 0.0 1.0
0.0 1.0 0.0 1.0 0.0 1.0 0.0 1.0
0.10646451 0.9943165 0.033724565 0.99943113 0.010666464 0.99994314 0.0033730897 0.99999434
0.0010666664 0.99999946 0.00033730952 0.99999994 0.00010666666 1.0 3.373097e-05 1.0
0.21171884 0.9773306 0.06741076 0.9977253 0.021331714 0.9997724 0.006746141 0.99997723
0.0021333317 0.99999774 0.000674619 0.99999976 0.00021333332 1.0 6.746194e-05 1.0
0.31456655 0.94923544 0.10102027 0.9948844 0.031994537 0.99948806 0.010119116 0.9999488
0.0031999946 0.9999949 0.0010119284 0.9999995 0.00032 0.99999994 0.000101192905 1.0
0.41383862 0.91035026 0.13451485 0.9909116 0.04265372 0.9990899 0.013491974 0.999909
0.0042666537 0.9999909 0.0013492376 0.9999991 0.00042666664 0.99999994 0.00013492387 1.0
0.5084066 0.8611171 0.1678564 0.9858115 0.05330805 0.99857813 0.01686468 0.9998578
0.005333308 0.99998575 0.0016865468 0.99999857 0.00053333334 0.9999999 0.00016865483 1.0
0.59719545 0.8020958 0.20100698 0.9795898 0.06395631 0.9979527 0.020237194 0.9997952
0.006399956 0.9999795 0.0020238557 0.999998 0.0006399999 0.9999998 0.00020238581 1.0
0.679196 0.73395693 0.2339289 0.97225374 0.07459731 0.9972137 0.02360948 0.9997212
0.0074665975 0.9999721 0.0023611647 0.9999972 0.00074666657 0.9999997 0.00023611677 1.0
0.7534762 0.6574752 0.26658463 0.9638115 0.08522981 0.9963613 0.026981493 0.99963593
0.00853323 0.9999636 0.002698473 0.99999636 0.00085333316 0.99999964 0.00026984775 0.99999994
0.8191916 0.57351995 0.2989371 0.9542728 0.09585261 0.99539554 0.030353202 0.99953926
0.009599852 0.9999539 0.003035781 0.9999954 0.0009599998 0.9999995 0.0003035787 0.99999994
0.8755953 0.48304552 0.33094952 0.94364846 0.106464505 0.9943165 0.03372456 0.99943113
0.010666464 0.99994314 0.003373089 0.99999434 0.0010666664 0.99999946 0.00033730967 0.99999994
0.922046 0.38708028 0.3625854 0.93195057 0.11706428 0.9931243 0.037095547 0.99931175
0.011733064 0.99993116 0.0037103961 0.99999315 0.001173333 0.99999934 0.00037104063 0.99999994
0.95801586 0.28671524 0.39380878 0.9191924 0.12765075 0.9918192 0.0404661 0.9991809
0.01279965 0.9999181 0.004047703 0.99999183 0.0012799996 0.99999917 0.00040477162 0.99999994
0.983096 0.18309098 0.42458415 0.9053885 0.1382227 0.99040115 0.043836195 0.99903876
0.013866222 0.99990386 0.00438501 0.9999904 0.0013866662 0.99999905 0.00043850258 0.9999999
0.99700123 0.07738554 0.45487648 0.89055455 0.14877892 0.9888705 0.0472058 0.99888515
0.014932779 0.9998885 0.004722316 0.99998885 0.0014933327 0.99999887 0.0004722335 0.9999999
0.9995736 -0.029199546 0.48465124 0.87470746 0.15931821 0.98722726 0.050574858 0.9987203
0.015999317 0.999872 0.0050596213 0.9999872 0.0015999993 0.99999875 0.0005059645 0.9999999
00000000: 0000 0000 0000 803f 0000 0000 0000 803f
00000010: 0000 0000 0000 803f 0000 0000 0000 803f
00000020: 0000 0000 0000 803f 0000 0000 0000 803f
00000030: 0000 0000 0000 803f 0000 0000 0000 803f
00000040: 110a da3d 878b 7e3f c522 0a3d b8da 7f3f
00000050: 65c2 2e3c 46fc 7f3f 0e0f 5d3b a1ff 7f3f
00000060: 63cf 8b3a f7ff 7f3f ebd8 b039 ffff 7f3f
00000070: 3ab2 df38 0000 803f 5a7a 0d38 0000 803f
00000080: d3cc 583e 5732 7a3f a70e 8a3d ed6a 7f3f
00000090: d9bf ae3c 16f1 7f3f bb0e dd3b 82fe 7f3f
000000a0: 5ecf 0b3b daff 7f3f ead8 303a fcff 7f3f
000000b0: 3ab2 5f39 0000 803f 5a7a 8d38 0000 803f
000000c0: de0e a13e 1801 733f b7e3 ce3d beb0 7e3f
000000d0: b40c 033d 73de 7f3f a6ca 253c a5fc 7f3f
000000e0: 00b7 513b aaff 7f3f afa2 843a f8ff 7f3f
000000f0: acc5 a739 ffff 7f3f 8737 d438 0000 803f
00000100: a8e2 d33e b70c 693f 43be 093e 62ac 7d3f
00000110: abb5 2e3d 5bc4 7f3f 710d 5d3c 09fa 7f3f
00000120: 49cf 8b3b 67ff 7f3f e7d8 b03a f1ff 7f3f
00000130: 3ab2 df39 ffff 7f3f 5a7a 0d39 0000 803f
00000140: ef26 023f 2c72 5c3f 8ce2 2b3e 245e 7c3f
00000150: 8b59 5a3d d1a2 7f3f cc27 8a3c aef6 7f3f
00000160: 08c3 ae3b 11ff 7f3f 1f0f dd3a e8ff 7f3f
00000170: 65cf 0b3a feff 7f3f f0d8 3039 0000 803f
00000180: cde1 183f 2656 4d3f c6d4 4d3e 66c6 7a3f
00000190: 87fb 823d d479 7f3f 79c8 a53c 94f2 7f3f
000001a0: b9b6 d13b a8fe 7f3f aaa2 043b deff 7f3f
000001b0: abc5 273a fdff 7f3f 8737 5439 0000 803f
000001c0: cadf 2d3f 9ae4 3b3f 0f8b 6f3e 9fe5 783f
000001d0: 79c6 983d 6649 7f3f ab68 c13c bbed 7f3f
000001e0: 5caa f43b 2cfe 7f3f c5bd 1a3b d1ff 7f3f
000001f0: f2bb 433a fbff 7f3f 1d96 7739 0000 803f
00000200: d1e3 403f 4b50 283f c87d 883e 5abc 763f
00000210: f78c ae3d 8911 7f3f 4b08 dd3c 24e8 7f3f
00000220: f6ce 0b3c 9dfd 7f3f ddd8 303b c3ff 7f3f
00000230: 38b2 5f3a faff 7f3f 5a7a 8d39 ffff 7f3f
00000240: 8ab6 513f 34d2 123f 490e 993e 394b 743f
00000250: 604e c43d 3ed2 7e3f 47a7 f83c cee1 7f3f
00000260: b348 1d3c fbfc 7f3f f4f3 463b b3ff 7f3f
00000270: 7fa8 7b3a f8ff 7f3f a529 9f39 ffff 7f3f
00000280: 0327 603f be51 f73e 3772 a93e f292 713f
00000290: 100a da3d 878b 7e3f c422 0a3d b8da 7f3f
000002a0: 65c2 2e3c 46fc 7f3f 0b0f 5d3b a1ff 7f3f
000002b0: 63cf 8b3a f7ff 7f3f f0d8 b039 ffff 7f3f
000002c0: 350b 6c3f 632f c63e cba4 b93e 5094 6e3f
000002d0: 66bf ef3d 653d 7e3f 80f1 173d e5d2 7f3f
000002e0: 0a3c 403c 7dfb 7f3f 1e2a 733b 8dff 7f3f
000002f0: 86ca 993a f5ff 7f3f 3b88 c239 ffff 7f3f
00000300: 8740 753f 57cc 923e 4ea1 c93e 3150 6b3f
00000310: e1b6 023e dde7 7d3f c8bf 253d 52ca 7f3f
00000320: a0b5 513c a2fa 7f3f 98a2 843b 77ff 7f3f
00000330: a9c5 a73a f2ff 7f3f 8737 d439 ffff 7f3f
00000340: 2eac 7b3f 347c 3b3e 1863 d93e 8ac7 673f
00000350: 408a 0d3e ee8a 7d3f 958d 333d 01c1 7f3f
00000360: 272f 633c b3f9 7f3f 21b0 8f3b 5fff 7f3f
00000370: ccc0 b53a f0ff 7f3f d2e6 e539 feff 7f3f
00000380: 793b 7f3f 4f7c 9e3d 92e5 e83e 62fb 633f
00000390: 8059 183e 9e26 7d3f de5a 413d f0b6 7f3f
000003a0: 9da8 743c b1f8 7f3f a8bd 9a3b 45ff 7f3f
000003b0: eebb c33a edff 7f3f 1c96 f739 feff 7f3f
000003c0: 0ee4 7f3f e333 efbc 3524 f83e d4ec 5f3f
000003d0: 5024 233e edba 7c3f 9527 4f3d 22ac 7f3f
000003e0: 0011 833c 9df7 7f3f 2ecb a53b 29ff 7f3f
000003f0: 11b7 d13a ebff 7f3f b4a2 043a feff 7f3f

attention_layer.relative_bias_table f4 [299, 8]
-0.94284517 1.2486326 -1.2458823 1.3424981 0.36842224 0.54907745 1.2295148 0.14322028
0.30798414 1.3711203 -2.6917574 0.098888844 1.0540156 0.24493632 0.51657534 -0.5677369
-0.6969508 1.6423784 -1.6741254 -0.45385838 2.0620966 0.9010361 0.33976185 1.2213883
0.54725295 -1.1701669 -2.104936 -1.7014531 2.8928597 -0.6153318 0.4066308 -0.010712222
-1.3431991 -0.6298498 0.68663955 -0.665496 -0.14520876 0.8680072 -0.6284637 -1.2615436
-1.0278068 -0.9002179 0.59110385 -0.1327115 -0.9455696 0.79196995 0.15933327 -0.27177662
-1.1592159 1.2214143 -0.2422328 0.6290558 -1.7852421 0.7715457 0.08880093 -0.10529861
-1.4394255 -0.8768157 0.36156562 0.2239619 -2.460187 0.15698716 -0.5093875 -0.35970137
-0.76205945 -2.1336467 0.72963166 1.212697 -3.0409968 0.0912581 -0.027002197 0.9563024
-0.9805203 -0.7610053 1.0026417 -1.4864709 -0.7829946 0.63375425 0.1646374 0.8449777
-0.06955064 0.6140091 -0.64789 -0.4216211 -0.4535493 1.422618 0.45194715 1.2952933
0.96522206 0.8104402 -0.4460543 0.41779432 1.3153883 1.7141764 0.4407143 -0.23293269
-0.80368364 -1.2973589 0.1245873 0.079024576 -0.09633546 -1.0071326 1.0181775 -0.97492075
0.24156979 0.11076334 0.07200324 0.01266787 0.4051142 -0.9185799 0.15256807 0.6891972
-1.0095277 0.39634413 1.4181848 -0.5184505 0.34220135 0.643664 -0.87211347 1.309473
-1.4628187 -0.47411346 0.7326683 0.7484057 -1.1250162 -0.7897681 0.92267567 0.8931106
0.10734867 -0.22226323 0.047466505 -0.7773781 -0.9424524 0.16738795 0.986685 -0.13977142
0.71634686 -0.4731148 -0.23788443 0.60745573 1.2810307 0.2480543 1.0657663 -0.08337101
-1.0185338 -0.3004436 0.2034326 -0.15824963 1.1732731 -0.28527015 -0.37999895 -0.66430515
-0.41671094 0.5680592 -0.14512077 -0.5814742 -0.5451375 -0.37572435 -0.9632238 0.607083
-0.7287481 -0.09137695 -0.4572415 0.074820824 -0.04382563 0.27037844 -0.06104184 -0.5590759
0.2456789 -0.4300686 1.0767543 0.38193345 0.31986973 0.6378228 -0.8781495 -0.40721253
0.24003474 0.11945017 -0.1602815 -0.47479215 0.228582 -0.22592501 0.014185841 -0.3293903
0.17146538 -0.04560833 -0.6052355 -0.10244591 0.48114398 -0.6443242 0.37737352 -0.11208776
-1.3735286 -0.64208764 0.86994183 0.30653036 -0.06006163 -1.0708623 0.30205616 -0.5928226
0.58295506 0.30265594 -0.19534656 -0.32718304 -0.4554592 1.037464 -0.6423219 -0.017353524
0.7298737 0.058826692 -0.6029698 0.65363157 -0.26631835 -0.49985507 -0.5285987 -0.47074944
0.35349885 0.23809017 -0.09515996 0.17546564 -0.19250624 1.0379314 -0.48157883 -1.1891935
0.24142343 -0.044565316 -0.3059338 0.498559 0.2539744 -0.9086337 -0.23982964 0.32851562
-0.1903939 -0.080695234 -0.50960577 -0.694433 -0.11225673 -0.40600964 -1.3634918 -0.557764
0.28312874 0.12977174 -1.0674592 0.32437912 0.15014282 -0.58894384 0.023221906 0.06006235
-0.24182816 0.5984248 -0.13988125 -0.041973293 -0.26773006 0.5386703 0.16170974 -0.15653269
00000000: 4d5e 71bf 31d3 9f3f 1279 9fbf fad6 ab3f
00000010: d7a1 bc3e 5790 0c3f be60 9d3f 56a8 123e
00000020: 19b0 9d3e df80 af3f c145 2cc0 3c86 ca3d
00000030: fce9 863f 96d0 7a3e 483e 043f 3557 11bf
00000040: 5e6b 32bf 7539 d23f be49 d6bf 2060 e8be
00000050: 64f9 0340 4daa 663f 44f5 ad3e 7456 9c3f
00000060: c518 0c3f 07c8 95bf 45b7 06c0 37c9 d9bf
00000070: 9d24 3940 6386 1dbf ea31 d03e 5182 2fbc
00000080: f3ed abbf d63d 21bf 9cc7 2f3f f25d 2abf
00000090: 9bb1 14be b835 5e3f ffe2 20bf 437a a1bf
000000a0: 2c8f 83bf ae74 66bf 9552 173f 86e5 07be
000000b0: d910 72bf 8bbe 4a3f 4328 233e 4e26 8bbe
000000c0: 3061 94bf 4e57 9c3f e00b 78be cd09 213f
000000d0: d082 e4bf 0584 453f 43dd b53d cca6 d7bd
000000e0: 183f b8bf fe76 60bf 211f b93e 4556 653e
000000f0: b473 1dc0 3ec1 203e 3867 02bf c72a b8be
00000100: 5416 43bf ab8d 08c0 24c9 3a3f a839 9b3f
00000110: b19f 42c0 87e5 ba3d b633 ddbc 3cd0 743f
00000120: 6103 7bbf 3ed1 42bf 9056 803f ae44 bebf
00000130: 5672 48bf b83d 223f b596 283e 7550 583f
00000140: 9170 8ebd b32f 1d3f 1edc 25bf b9de d7be
00000150: 9d37 e8be 5918 b63f 9e65 e73e 2ccc a53f
00000160: cb18 773f 0279 4f3f 3b61 e4be 23e9 d53e
00000170: a55e a83f 226a db3f 4ea5 e13e e885 6ebe
00000180: 36be 4dbf db0f a6bf a027 ff3d a3d7 a13d
00000190: 874b c5bd b9e9 80bf a453 823f 6894 79bf
000001a0: 125e 773e e4d7 e23d 6f76 933d e68c 4f3c
000001b0: 216b cf3e 0d28 6bbf ce3a 1c3e 3a6f 303f
000001c0: 3438 81bf 9eed ca3e 1487 b53f 2cb9 04bf
000001d0: 0435 af3e 2ac7 243f d442 5fbf d09c a73f
000001e0: a53d bbbf 00bf f2be 2690 3b3f 8497 3f3f
000001f0: 8800 90bf 3e2e 4abf 7934 6c3f e5a2 643f
00000200: 9fd9 db3d f998 63be 3d6c 423d 4002 47bf
00000210: 8f44 71bf bf67 2b3e 6397 7c3f 3d20 0fbe
00000220: 8262 373f 1a3c f2be fa97 73be 3882 1b3f
00000230: d0f8 a33f f201 7e3e 086b 883f 6cbe aabd
00000240: 515f 82bf bed3 99be a350 503e 310c 22be
00000250: d02d 963f ee0e 92be 398f c2be e70f 2abf
00000260: 235b d5be 546c 113f 8a9a 14be 7edb 14bf
00000270: 228e 0bbf f15e c0be d695 76bf cb69 1b3f
00000280: 3c8f 3abf d723 bbbd 8f1b eabe a93b 993d
00000290: 8182 33bd 0b6f 8a3e 0207 7abd 991f 0fbf
000002a0: 4093 7b3e f431 dcbe 16d3 893f c88c c33e
000002b0: f7c5 a33e 5b48 233f 68ce 60bf 297e d0be
000002c0: abcb 753e 4aa2 f43d d520 24be f517 f3be
000002d0: 6611 6a3e e358 67be bb6b 683c d8a5 a8be
000002e0: 9f94 2f3e cdcf 3abd b7f0 1abf 29cf d1bd
000002f0: 8158 f63e 6ef2 24bf 1a37 c13e 448e e5bd
00000300: c9cf afbf db5f 24bf 82b4 5e3f 8cf1 9c3e
00000310: 2f03 76bd 0412 89bf 1ba7 9a3e 39c3 17bf
00000320: 8b3c 153f b8f5 9a3e ee08 48be 8984 a7be
00000330: f331 e9be 9fcb 843f 356f 24bf fa28 8ebc
00000340: 01d9 3a3f 42f4 703d 3b5c 1abf 6654 273f
00000350: e15a 88be 01ed ffbe 3f52 07bf 1206 f1be
00000360: cdfd b43e e9cd 733e 3ae3 c2bd 44ad 333e
00000370: 5b20 45be f0da 843f 8091 f6be 7e37 98bf
00000380: b437 773e 1f8a 36bd 5ba3 9cbe 2043 ff3e
00000390: ef08 823e 389c 68bf e795 75be 3333 a83e
000003a0: 9ef6 42be 8b43 a5bd 8675 02bf 5cc6 31bf
000003b0: dbe6 e5bd 7fe0 cfbe e686 aebf 9fc9 0ebf
000003c0: 40f6 903e e2e2 043e 81a2 88bf 0515 a63e
000003d0: 0abf 193e 06c5 16bf de3b be3c f003 763d
000003e0: cda1 77be 5e32 193f 083d 0fbe 30ec 2bbd
000003f0: ea13 89be 4ce6 093f 3d97 253e 1b4a 20be

attention_layer.key.weight f4 [16, 16]
0.5769049 1.2269611 0.58099544 0.30191928 -0.75256056 -1.4197351 -0.7239396 -0.15392601
-0.10096339 -0.55469155 0.5123861 0.3918736 2.5212703 -1.7065223 -1.3191324 -1.3737285
1.139214 -0.07540258 0.4727045 -0.56203693 1.2285314 0.68783426 0.40844125 -0.03407619
-1.4852875 -0.12168286 0.8936096 -1.8736653 -0.37281883 -2.3110907 -1.5306258 -0.9367258
0.23931539 0.6554956 0.30506584 -0.13047357 -0.84786636 -0.74416363 -0.44492334 0.37799838
0.5118926 -0.043108817 -0.3242098 0.95537305 2.518704 0.116563685 -0.38263324 1.0118628
0.61456436 0.033233292 -0.2857572 0.35344875 1.3750528 0.6264043 0.63618654 0.21756981
0.11900555 -0.37783346 1.4138266 -0.058930937 2.4765165 -0.4914652 -0.6509066 2.0672188
0.2687706 0.81880236 0.20187134 0.43093938 0.82411397 -1.167181 0.09758638 -2.4815712
0.19263266 -1.105106 -0.7215556 -1.4055992 -0.61787146 -0.22874661 -0.44843405 1.362332
1.0054408 -1.5268071 -0.15193965 -0.86759025 1.500684 1.7232345 1.2029201 0.49372372
-0.52220744 -0.74098843 0.76246136 -0.31863987 0.024970464 0.63296616 -0.65431255 0.50613546
0.28394064 -0.6822604 0.63295066 0.40054032 0.44301885 -1.1804036 -1.1576637 1.8469226
-0.0117546115 1.0580205 0.02720221 1.0312643 0.09001438 0.22293825 -0.39817294 0.40909222
0.9106253 0.6709562 -1.1378245 1.327122 1.077403 0.9463817 -0.54962736 1.2321744
0.52763957 -0.26177686 0.17893027 -1.7387887 1.475972 -2.1697788 -0.8577371 1.1527377
-0.98747534 0.54944074 0.040533744 2.2379432 -0.7971191 -1.3597945 -1.4950749 0.24523607
1.379138 0.3425404 -1.2791189 -0.098163284 1.0218127 -0.4798367 1.3260921 1.4143857
-1.3065584 1.0554775 -0.7719605 -0.27741393 -0.8806706 -0.38746163 -0.77668816 0.55465585
1.1575168 -0.499878 0.075565256 1.6254781 -0.03603221 -0.16078441 -0.11253488 0.9325889
1.2006922 -0.29227245 -0.33194602 -1.6823407 0.40641782 -1.1822722 -0.6247562 -0.026926387
-0.5773386 0.8399401 0.43536586 -1.1914173 0.89115834 1.7134303 0.33211827 -0.27141836
-0.41793638 0.15848997 -0.61717993 -1.0885535 -0.49553004 -1.1343129 -0.7259912 1.3232554
-0.063961364 0.88165414 -0.176184 0.10153277 1.2200108 -0.791267 0.8962196 0.19978839
0.037821464 -0.23130764 -0.23745228 -0.72552514 -1.2725197 0.3063648 -1.333858 0.18438536
-0.5829638 -0.19789158 1.7265273 -1.7822076 -0.8859809 -1.5391535 -0.593034 0.73995316
2.063268 -0.09068655 -0.016770609 -2.0898676 0.79090774 -0.43113452 1.7778546 0.70535475
-0.05003137 0.44819868 0.003013425 0.40246183 -0.5927164 -0.4104843 -0.70781094 0.29371554
0.4400285 0.5394538 -1.428968 0.88623434 0.030955605 -1.1825701 -0.6041059 -1.946952
-0.5750726 -1.0913028 0.49585247 0.29360124 -0.67935425 0.622354 -1.8882675 0.57803506
-1.010069 0.0075275567 -0.17949294 -0.87600625 1.6690011 0.2310463 0.67480576 -1.1188083
0.8785025 2.9323812 -0.5560441 -1.2747573 1.2877437 0.5467474 1.220331 0.86416286
00000000: 0ab0 133f 100d 9d3f 1ebc 143f 2a95 9a3e
00000010: cfa7 40bf e1b9 b5bf 1b54 39bf c89e 1dbe
00000020: e5c5 cebd 4400 0ebf bc2b 033f a8a3 c83e
00000030: 7e5c 2140 536f dabf 55d9 a8bf 56d6 afbf
00000040: c4d1 913f ab6c 9abd 5306 f23e a7e1 0fbf
00000050: 8440 9d3f e815 303f 361f d13e 7a93 0bbd
00000060: e71d bebf dd34 f9bd 99c3 643f 44d4 efbf
00000070: 1ce2 bebe e9e8 13c0 8ceb c3bf 43cd 6fbf
00000080: 180f 753e 8fce 273f 9731 9c3e dd9a 05be
00000090: c50d 59bf 8281 3ebf fecc e3be 0189 c13e
000000a0: 650b 033f df92 30bd d4fe a5be 5493 743f
000000b0: 7232 2140 f1b8 ee3d 81e8 c3be b884 813f
000000c0: 1754 1d3f a21f 083d c54e 92be 3cf7 b43e
000000d0: bb01 b03f 085c 203f 1fdd 223f 9fca 5e3e
000000e0: 2fb9 f33d 6373 c1be 45f8 b43f 9161 71bd
000000f0: 3f7f 1e40 54a1 fbbe d1a1 26bf 504d 0440
00000100: 4d9c 893e 089d 513f 5cb7 4e3e 16a4 dc3e
00000110: 22f9 523f 3066 95bf 5edb c73d 10d2 1ec0
00000120: 7f41 453e 1d74 8dbf deb7 38bf adea b3bf
00000130: d32c 1ebf 8d3c 6abe 2699 e5be e560 ae3f
00000140: 49b2 803f 6a6e c3bf 1196 1bbe 651a 5ebf
00000150: 6a16 c03f f392 dc3f 49f9 993f 5bc9 fc3e
00000160: 63af 05bf 6bb1 3dbf ab30 433f c424 a3be
00000170: dc8e cc3c 120a 223f 0781 27bf 1892 013f
00000180: ab60 913e 9ea8 2ebf 0e09 223f 9f13 cd3e
00000190: 5ed3 e23e 7717 97bf 532e 94bf f667 ec3f
000001a0: 6a96 40bc 376d 873f 2bd7 de3c 7800 843f
000001b0: 7659 b83d ed49 643e 53dd cbbe 8974 d13e
000001c0: bd1e 693f c9c3 2b3f 3ca4 91bf 22df a93f
000001d0: 57e8 893f 1246 723f 61b4 0cbf e4b7 9d3f
000001e0: 6313 073f 9e07 86be 7f39 373e a190 debf
000001f0: a7ec bc3f a8dd 0ac0 a994 5bbf e98c 933f
00000200: 2fcb 7cbf 26a8 0c3f b606 263d 763a 0f40
00000210: ff0f 4cbf bf0d aebf 9d5e bfbf 2a1f 7b3e
00000220: 9887 b03f 7561 af3e 2bba a3bf d509 c9bd
00000230: c2ca 823f 28ad f5be 63bd a93f 970a b53f
00000240: 4e3d a7bf e319 873f 349f 45bf 3309 8ebe
00000250: a173 61bf 5f61 c6be 09d5 46bf edfd 0d3f
00000260: 8329 943f 02f0 ffbe f5c1 9a3d ab0f d03f
00000270: 8396 13bd aba4 24be b078 e6bd 25be 6e3f
00000280: 48b0 993f bca4 95be d4f4 a9be f156 d7bf
00000290: ff15 d03e b254 97bf 06f0 1fbf ba94 dcbc
000002a0: 76cc 13bf 5006 573f 46e8 de3e 5d80 98bf
000002b0: f422 643f af51 db3f 680b aa3e 59f7 8abe
000002c0: c2fb d5be 324b 223e 81ff 1dbf b955 8bbf
000002d0: 1db6 fdbe 2a31 91bf 8fda 39bf 6f60 a93f
000002e0: 2dfe 82bd 16b4 613f 9469 34be 6af0 cf3d
000002f0: 5029 9c3f 7990 4abf a66e 653f 5495 4c3e
00000300: aeea 1a3d e9db 6cbe b126 73be 04bc 39bf
00000310: ede1 a2bf d9db 9c3e dcbb aabf 84cf 3c3e
00000320: 1e3d 15bf 17a4 4abe d9fe dc3f 611f e4bf
00000330: a5cf 62bf fb02 c5bf 14d1 17bf 926d 3d3f
00000340: 950c 0440 dfb9 b9bd 8462 89bc 64c0 05c0
00000350: ee78 4a3f aabd dcbe bd90 e33f 2192 343f
00000360: b2ed 4cbd 4c7a e53e e27c 453b 7a0f ce3e
00000370: 43bc 17bf 002b d2be 1933 35bf e261 963e
00000380: 6a4b e13e a519 0a3f 6ce8 b6bf 41e0 623f
00000390: 9c96 fd3c 755e 97bf afa6 1abf b935 f9bf
000003a0: f537 13bf cfaf 8bbf 60e0 fd3e e752 963e
000003b0: 29ea 2dbf 9752 1f3f c0b2 f1bf 1bfa 133f
000003c0: f149 81bf b9a9 f63b ffcc 37be f241 60bf
000003d0: d4a1 d53f 6797 6c3e 12c0 2c3f 1c35 8fbf
000003e0: 8ae5 603f 22ac 3b40 e858 0ebf 3f2b a3bf
000003f0: c9d4 a43f a3f7 0b3f ce33 9c3f c739 5d3f

attention_layer.value.weight f4 [16, 16]
-1.21677 -2.1361344 -0.097256914 -1.3884041 0.8560623 0.29964805 -0.3586283 0.033249404
-0.3843622 0.97232336 0.09988518 0.26448718 -2.0848794 0.9211783 -0.36345756 1.1003704
-2.0941372 -0.6823237 0.052810527 0.6257676 0.13703367 0.26633936 0.29574156 0.46293652
-0.22451596 -0.19742 1.5600483 -0.62290615 -1.0294583 0.09272631 -0.1749927 -0.3703565
-0.15006897 0.035511028 0.28321055 0.35268468 0.6400224 -0.31920385 0.9013642 -0.092078686
0.01720428 0.5967104 -0.59388286 -1.0125155 -0.07812294 0.20965694 1.0229906 0.2666519
-0.10545948 0.3487006 -0.5284362 -0.20989804 -0.7440778 1.1633275 0.17337567 -0.15809758
0.5593651 -0.6005348 -0.0050675957 0.3380377 1.2524908 0.4346533 -2.6052678 0.11471522
-0.565558 -0.30432928 -0.82729805 0.21409155 0.116692595 0.83866066 -0.43695077 0.79222095
-0.72653043 0.095037684 -0.18804838 -0.023354312 -1.313209 -0.10831941 -1.1848185 -0.25477698
-1.1375993 -0.8405274 -0.088158056 -0.21662487 -0.39764333 -1.5023025 -0.8609275 1.2828708
0.57249457 0.7142988 0.88026243 -0.74762905 1.3829125 0.35250834 1.058824 0.77500296
0.30041206 0.5117542 -0.76160204 -1.5950061 -0.22096069 -0.04155159 -2.0644524 0.29214287
1.0521529 1.0832542 0.389894 0.23332408 1.6650659 -0.1051652 -1.6201214 -0.0139600765
0.5200063 -0.59843576 -0.38540262 0.27562258 -0.6925419 -0.05187322 -1.0817624 -0.19822425
0.06490948 -0.7251898 -0.1892232 1.4930888 -1.004619 0.15455458 -0.5582812 0.07485278
0.38103047 0.9123365 0.30423462 -0.29585585 -0.5931992 -0.3674102 -0.64219284 -0.030536762
2.9810026 0.613739 -1.7553734 -0.053512864 0.515262 0.04889714 1.3315655 0.028137574
0.751894 0.21667479 -0.33081487 -0.5137949 -0.49034762 1.1755643 -1.1463358 0.08438854
-1.3821042 0.83621967 -1.9473951 0.7569149 -2.0738256 0.58279806 -0.11480658 0.98635405
-0.14740591 -0.6599348 0.1976492 -0.6397551 0.80551314 -0.28647888 1.3465215 0.27762845
-0.82739645 0.17861727 1.5103627 -0.88088536 -0.5957118 -0.18293075 -0.74502367 -0.09556574
0.13323824 -0.5430624 0.47322077 -0.26458988 -0.0855824 -0.87387663 -1.1681213 -0.30454093
0.34873462 0.0057105515 0.7646063 0.76034415 -1.4577719 -0.5785854 0.82643497 0.35346827
-1.3782984 1.3603661 -0.33616048 -0.040798277 -0.59437835 -0.05119806 0.20134926 -0.066017054
-0.38742882 0.49254036 1.3336942 0.14945087 -0.7333447 -0.27484223 1.759963 0.05585007
0.13915113 2.0789683 0.014810149 -0.32700127 -0.36733702 0.14597148 0.18867853 -0.41519907
1.2653526 0.1379677 -1.1096616 -0.26436844 -0.84551114 -0.62107307 2.0640209 0.012478252
-1.5733327 0.17585863 0.98923284 -0.2573742 -0.9265084 -0.35661533 -1.1795166 0.31024647
1.024027 0.79394704 1.0056274 -0.4811884 -0.34633037 0.13743962 2.352011 -0.02045768
-0.59570175 -0.17329954 0.12857349 -0.5026713 -0.6180662 -0.1527047 1.6888263 1.094809
-1.3929514 1.2090099 0.7480817 -1.3898543 -0.45588726 0.15077731 0.15871969 -0.4474121
00000000: 1fbf 9bbf 6db6 08c0 a22e c7bd 3ab7 b1bf
00000010: e626 5b3f 786b 993e 219e b7be 8730 083d
00000020: 1fcb c4be 2fea 783f 9a90 cc3d dd6a 873e
00000030: aa6e 05c0 57d2 6b3f 1c17 babe f0d8 8c3f
00000040: 5806 06c0 c4ac 2ebf da4f 583d 4e32 203f
00000050: 8e52 0c3e a25d 883e 706b 973e 0406 ed3e
00000060: 83e7 65be 7828 4abe aaaf c73f c776 1fbf
00000070: 4ac5 83bf 4be7 bd3d 4931 33be 5e9f bdbe
00000080: aeab 19be 0374 113d f900 913e 1693 b43e
00000090: 82d8 233f b06e a3be cebf 663f c093 bcbd
000000a0: fdef 8c3c 03c2 183f b508 18bf 1c9a 81bf
000000b0: ecfe 9fbd 4fb0 563e 5bf1 823f 9986 883e
000000c0: 24fb d7bd e388 b23e 9847 07bf 83ef 56be
000000d0: e27b 3ebf eae7 943f 6489 313e 55e4 21be
000000e0: 8d32 0f3f a6bc 19bf 130e a6bb 4713 ad3e
000000f0: 9e51 a03f e18a de3e b5bc 26c0 d0ef ea3d
00000100: 69c8 10bf 0cd1 9bbe cec9 53bf d13a 5b3e
00000110: 87fc ee3d 77b2 563f 03b8 dfbe fece 4a3f
00000120: e6fd 39bf 1ea3 c23d c18f 40be 8b51 bfbc
00000130: 3c17 a8bf 91d6 ddbd 22a8 97bf 2172 82be
00000140: db9c 91bf ce2c 57bf 368c b4bd e9d2 5dbe
00000150: e897 cbbe 734b c0bf bf65 5cbf 1c35 a43f
00000160: 018f 123f 49dc 363f e158 613f 9e64 3fbf
00000170: 4703 b13f f97b b43e 8b87 873f 9866 463f
00000180: 9ccf 993e 5302 033f 5af8 42bf 2929 ccbf
00000190: 8543 62be 0032 2abd fd1f 04c0 c093 953e
000001a0: f2ac 863f 13a8 8a3f 30a0 c73e 82ec 6e3e
000001b0: e120 d53f da60 d7bd 2360 cfbf ceb8 64bc
000001c0: 221f 053f 1633 19bf 7e53 c5be 671e 8d3e
000001d0: 6d4a 31bf 0379 54bd 3177 8abf 4cfb 4abe
000001e0: 43ef 843d 0aa6 39bf bac3 41be 891d bf3f
000001f0: 5b97 80bf 8e43 1e3e 84eb 0ebf 6a4c 993d
00000200: 6d16 c33e e38e 693f a4c4 9b3e 6b7a 97be
00000210: e7db 17bf 311d bcbe c066 24bf 3b28 fabc
00000220: bfc8 3e40 001e 1d3f 13b0 e0bf 4e30 5bbd
00000230: 36e8 033f 5e48 483d bd70 aa3f c580 e63c
00000240: 207c 403f ffdf 5d3e 9160 a9be 1088 03bf
00000250: d80e fbbe e478 963f 22bb 92bf e6d3 ac3d
00000260: cae8 b0bf 7e12 563f 3e44 f9bf 2dc5 413f
00000270: 8fb9 04c0 4132 153f b61f ebbd b381 7c3f
00000280: 93f1 16be 7df1 28bf 8d64 4a3e fdc6 23bf
00000290: 1c36 4e3f 5cad 92be d15a ac3f 5125 8e3e
000002a0: 41d0 53bf 72e7 363e 9153 c13f b481 61bf
000002b0: 9280 18bf 3352 3bbe dfb9 3ebf f8b7 c3bd
000002c0: 9b6f 083e 2306 0bbf fe49 f23e 5378 87be
000002d0: d345 afbd 61b6 5fbf 0085 95bf caec 9bbe
000002e0: 588d b23e 941f bb3b 3dbd 433f eaa5 423f
000002f0: 4598 babf 2c1e 14bf 3e91 533f cbf9 b43e
00000300: 156c b0bf 7a20 ae3f 3a1d acbe 181c 27bd
00000310: 2e29 18bf 0fb5 51bd 802e 4e3e f333 87bd
00000320: 125d c6be 402e fc3e 7eb6 aa3f a609 193e
00000330: 7abc 3bbf 1fb8 8cbe 7846 e13f 0bc3 643d
00000340: a27d 0e3e d10d 0540 44a6 723c b66c a7be
00000350: 9913 bcbe 8c79 153e f234 413e f994 d4be
00000360: 13f7 a13f 6847 0d3e 6409 8ebf 4d5b 87be
00000370: 6b73 58bf a5fe 1ebf eb18 0440 9571 4c3c
00000380: f762 c9bf 4914 343e 5d3e 7d3f 8dc6 83be
00000390: a82f 6dbf 4996 b6be 66fa 96bf a0d8 9e3e
000003a0: 5113 833f 1d40 4b3f 66b8 803f 535e f6be
000003b0: 3752 b1be f9bc 0c3e 5987 1640 dd96 a7bc
000003c0: e97f 18bf 6f75 31be c5a8 033e 11af 00bf
000003d0: 9639 1ebf 9f5e 1cbe 762b d83f b422 8c3f
000003e0: 3b4c b2bf d6c0 9a3f 4882 3f3f bfe6 b1bf
000003f0: 0e6a e9be 5e65 1a3e 6a87 223e 3313 e5be
