Sleep_stage_classifier/Local_classifacation/ConvTran/output/20241221165750_111000/model.pth (torch, 257710 bytes, 28 tensors)

embed_layer.0.weight f4 [64, 1, 1, 8]
000000 5f 4c cd be a2 d0 92 bd bf bd ac be c1 e2 90 bd
       -0.4009733 -0.071687 -0.33738515 -0.070745
000010 6f 60 00 bd 3b 47 c7 be 58 c8 ad 3d a6 7f 7a be
       -0.031341966 -0.38921532 0.08485478 -0.24462757
000020 62 6c 58 bd c7 71 74 3e 52 8a 95 3e ff 35 2f 3f
       -0.052837737 0.23871528 0.29207093 0.68441767
000030 e6 4d b7 3f d4 d9 cf 3e af a0 80 be 43 db 6c be
       1.4320648 0.40595877 -0.25122592 -0.23130517
000040 38 e8 37 be d5 15 cf bd 51 2b 17 40 4b d1 97 3e
       -0.17959678 -0.10111586 2.3620188 0.29651865
000050 aa 7a 45 3e 93 e1 b0 3e d6 f5 9a be 6a 49 e0 bd
       0.19285074 0.345471 -0.30265683 -0.109515026
000060 5f e4 83 be db 72 a2 3e 00 f8 94 be aa 7e b8 bf
       -0.2576017 0.31728253 -0.2909546 -1.4413655
000070 ea 40 99 3e ee e3 24 3e 27 6a 83 3e d5 f3 05 3e
       0.29932338 0.16102573 0.25666925 0.13081296
000080 25 da 02 bf 01 f2 77 3e 94 66 72 3f 21 e2 01 be
       -0.5111411 0.24213411 0.9468777 -0.12683918
000090 dc 64 28 bf cf b6 e9 bb df 39 84 3e 3b 1f 9e be
       -0.657789 -0.007132388 0.25825402 -0.30883202
0000a0 91 f3 c3 3d 9b 23 4c 3f 4b 26 ce 3d 9b a4 e5 3e
       0.09567941 0.7974183 0.100658976 0.44852147
0000b0 7b 23 15 be 8f c3 fa 3e 21 f5 83 be ec 62 d6 bd
       -0.14564316 0.48977324 -0.25772956 -0.104680866
0000c0 84 7c 97 bd 3a fc 09 be e9 85 75 3e a8 ff 82 3e
       -0.07396796 -0.13475123 0.23976864 0.25585675
0000d0 1f 6c 9b be 3d c8 a2 3e 66 d9 67 3f 57 d6 50 bf
       -0.30355927 0.31793395 0.905661 -0.81577057
0000e0 52 aa 0b bf 14 96 6e be c5 06 0b 3e 51 0c 38 bf
       -0.54556763 -0.23299438 0.13576801 -0.71893793
0000f0 ed 2d af be e3 57 06 bf dc 5d 42 bf 8b 44 6a be
       -0.34214726 -0.52477854 -0.7592447 -0.2287771
000100 53 4e fc be e1 16 ea 3e 0c bb d6 be 37 2c e7 be
       -0.49278507 0.4572058 -0.4193958 -0.4515092
000110 8a b3 13 bf 8e b6 98 3d f1 3a 93 3e ae 4c 71 3d
       -0.5769583 0.074566945 0.28755906 0.058911018
000120 e1 12 5f 3f 63 35 14 be 27 de 15 bf b2 d7 4f be
       0.8713818 -0.1447349 -0.585421 -0.20297125
000130 da 8c 7e bd 2e d0 3f 3e 15 23 58 3d a8 91 dd be
       -0.062146045 0.18731758 0.05276783 -0.4327519
000140 4f 0d ed bb aa af 4a be 00 57 00 bd 4b a2 e2 3d
       -0.0072342525 -0.19793573 -0.03133297 0.11066111
000150 42 7c ce bd 82 4b 1a bf 7a e9 04 3e 7c 9c 80 bf
       -0.10082294 -0.60271466 0.12979689 -1.0047755
000160 f9 ab 4c be 5b aa 53 be ce cb 8f bd 5d 59 04 bf
       -0.19987477 -0.20670454 -0.070212945 -0.5169886
000170 76 f9 b6 be 2a 39 05 bf 9d 14 d4 be 51 8a 40 bf
       -0.357372 -0.5204035 -0.41421977 -0.75211054
000180 28 21 34 be dc 8b cb bd 80 06 1f 3f 67 5f 28 3e
       -0.17590773 -0.099387854 0.62119293 0.16442643
000190 77 93 90 be 8f c4 7c 3f 73 fb 3b be 8c 87 63 be
       -0.28237507 0.98737425 -0.18357639 -0.22219676
0001a0 03 59 e4 be 66 01 45 3e 16 ea d3 bd f3 74 a0 bf
       -0.4459916 0.19238815 -0.10347383 -1.253569
0001b0 25 3e e9 3d f6 9d 61 3d 65 9b fa 3c f1 5f ef 3d
       0.11388806 0.055082284 0.030591676 0.11688221
0001c0 b0 7c 65 3d 27 7c 8d 3f a1 b3 0c 3a 7b 6c 0e be
       0.056027114 1.1053513 0.0005367343 -0.1390857
0001d0 30 50 1b bf e8 06 4c be ef 4c 63 be 93 39 9d 3e
       -0.6066923 -0.1992451 -0.22197317 0.30707988
0001e0 47 2e 06 3e 78 a4 2c be a0 47 fd bd a5 ff 34 be
       0.13103591 -0.16859615 -0.12367177 -0.17675646
0001f0 04 e7 62 3f 89 f0 fd 3e 7f 49 1c bf c3 ff 2d be
       0.8863375 0.49597576 -0.61049646 -0.16992097
000200 48 bf 27 be 2b ca 26 3f a5 01 f8 3a cd f5 a4 3e
       -0.16381562 0.65152234 0.0018921389 0.3221878
000210 53 8d 1f 3f 5b 4e 35 3e c6 1d 2d bf 81 86 b6 3e
       0.6232502 0.17705671 -0.67623556 0.35649493
000220 22 bb b5 3d 22 39 70 bf db 33 17 3f c0 f6 0d 3e
       0.088735834 -0.9383718 0.590635 0.13863659
000230 8d 6a 99 be 9e cb 2d 3f eb c5 85 3e 63 e6 08 bf
       -0.29964104 0.6788882 0.26127562 -0.5347654
000240 6f 05 27 3c fa ce 90 bd 31 75 23 bf fc 7e a0 3d
       0.010194167 -0.07070728 -0.63850695 0.0783672
000250 f2 13 43 be 65 38 81 3e 06 cc f7 3e b0 50 11 3f
       -0.19050577 0.25238338 0.48397845 0.56763744
000260 17 e0 41 bd e9 f9 34 3e d1 17 32 be 56 8d 38 bf
       -0.04733285 0.17673458 -0.17391898 -0.7209066
000270 a7 ea c3 be f9 9b db be 9e 4b 85 3e eb b7 02 bf
       -0.38264963 -0.42892435 0.26034254 -0.51061887
000280 4c 85 1d bf 36 b0 3a be 36 3e b0 bd 5f be ee 3d
       -0.6153152 -0.18231282 -0.08605616 0.11657404
000290 46 c2 e0 be 17 7e 12 bf 6e 7c 39 bf f9 3f 88 be
       -0.4389822 -0.5722365 -0.7245549 -0.26611307
0002a0 2e af 0c bf 28 36 0d bf 85 9a 87 be e3 b4 ba be
       -0.54954803 -0.5516076 -0.26485077 -0.3646613
0002b0 a0 09 4f 3e 0e 95 09 be b6 05 19 be e0 e8 27 bf
       0.20218515 -0.13435766 -0.14943585 -0.65589714
0002c0 de 03 ac be 5b 84 99 bf 8e 03 16 3f 69 d9 7c 3e
       -0.335967 -1.1993517 0.58599174 0.2469231
0002d0 40 8d 83 3d dd 59 01 3f a6 66 09 3c fa 4c 9c be
       0.06423426 0.50527745 0.00838629 -0.30527478
0002e0 5a ca 16 3e e7 5b 68 3f 69 03 b0 3d ca 14 6f be
       0.14725628 0.9076523 0.085944004 -0.23347774
0002f0 82 fd 08 bf 12 5f c7 be 0e 18 67 3c aa 22 0d be
       -0.5351182 -0.3893972 0.014104856 -0.13782755
000300 ae a1 56 bf 8b 0a b0 be c7 59 88 bd c4 36 36 be
       -0.83840454 -0.34383044 -0.06657749 -0.17794329
000310 83 4a 38 be 12 84 01 bf a1 8f 07 bf be 2c 8c be
       -0.17997174 -0.5059215 -0.52953535 -0.27377886
000320 0b 30 31 3e a8 13 bf be 3e 8a 17 bd f0 df 3e 3c
       0.17303483 -0.37319684 -0.036997072 0.011650071
000330 16 5b 7f bf 8e ac 6c 3e 97 c8 40 3f 3f 10 14 3e
       -0.9974836 0.231127 0.75306076 0.14459322
000340 0b fb f1 3c 02 aa 87 3d a7 77 bd 3f db 66 a2 3e
       0.029538652 0.06624223 1.480214 0.31719097
000350 10 8b 27 3e c8 af 33 bf c6 80 3e 3e 87 b5 02 3d
       0.16361642 -0.70190096 0.1860381 0.0319114
000360 b9 1a 91 bd 67 17 c3 bd f7 d0 ea be fe 3e e3 be
       -0.07085175 -0.09525948 -0.45862553 -0.44383997
000370 37 ac da 3d f5 15 8b 3e 15 f8 f4 ba 9c cd 88 bf
       0.106773786 0.2716519 -0.0018689657 -1.0687747
000380 f1 03 e0 be b9 38 ae be a8 17 e2 3e e6 af 12 3e
       -0.43753007 -0.3402765 0.44158673 0.14324912
000390 7e fe 34 bf 67 af 03 3f 01 c5 18 3f 0d 3f cb bc
       -0.70700824 0.5143952 0.59675604 -0.024810338
0003a0 ea 0d 14 bf f7 df 10 3e 21 87 18 bf 89 1a 8b bc
       -0.5783373 0.14147936 -0.5958119 -0.016980426
0003b0 5c 9f 87 be 6b 4b 31 bf 3f af 77 3e b0 f8 8b 3e
       -0.2648877 -0.69255704 0.24187945 0.2733817
0003c0 e1 de 47 bf a8 7e 80 be b3 74 9e 3e ee 4f 78 bc
       -0.7807446 -0.2509663 0.3094841 -0.0151557755
0003d0 fd 57 0e 3d 91 91 9a be 08 27 87 3e e7 21 c8 bd
       0.03475188 -0.30189183 0.26396966 -0.09772091
0003e0 86 31 77 3f b9 14 05 3e fa 4d 8b 3e 38 a5 a9 be
       0.9655994 0.12996186 0.2720793 -0.33133864
0003f0 fe 91 c4 be 27 65 10 bf bf 05 45 be 8e d5 dc 3d
       -0.38392633 -0.56404346 -0.19240473 0.1078292

embed_layer.0.bias f4 [64]
000000 ba 2a c9 bd 9d 28 5b 3e 24 1f 8d 3e 14 db a0 be
       -0.098226026 0.21402211 0.2756282 -0.31417143
000010 b3 17 81 3d cf 8d 86 be fe d1 90 3c 10 67 22 be
       0.063033484 -0.26280066 0.017678257 -0.15859628
000020 0b 61 4e be 7a b9 3d 3e ba 0e 0b be dc bb 68 3e
       -0.20154206 0.18527785 -0.13579836 0.22727913
000030 01 ff c0 bc 18 77 15 3e 35 72 3d 3e 17 7a e5 3d
       -0.023559095 0.14596212 0.18500598 0.112049274
000040 70 fe 04 3e 9d 69 a2 be ff 53 05 be ce f9 ce 3d
       0.12987685 -0.31721202 -0.13020323 0.1010624
000050 44 1d 22 be 84 46 61 3e 38 2c 94 be 37 1e 15 be
       -0.15831476 0.21999556 -0.28939986 -0.14562307
000060 45 bb 93 be 3f 95 60 3e c5 ef 8c be 53 47 c7 bd
       -0.28853813 0.21931933 -0.2752668 -0.09730401
000070 79 92 17 be 22 63 a8 3c 9e 30 95 bd 0b b2 fb 3d
       -0.14801969 0.020555083 -0.072846636 0.122898184
000080 be 6c c0 3d 29 42 50 bc 57 c6 1e be aa 49 85 be
       0.09395741 -0.012711086 -0.15505348 -0.26032764
000090 dc 72 a8 be 2c 4e 4a 3e fc 6c 4d 3e 61 b9 00 be
       -0.3290013 0.19756383 0.20061105 -0.12570716
0000a0 c0 a6 8d be 1e c4 96 3d a6 4b 09 be 01 2e a8 3e
       -0.27666283 0.07361625 -0.13407764 0.32847598
0000b0 e3 63 23 3e 8b ef 83 3e c1 dc a7 be a6 ca 63 3e
       0.15956073 0.25768694 -0.3278561 0.22245273
0000c0 bf f8 85 ba f6 8e 2a be 47 0d b0 bc b8 2d 91 be
       -0.0010221227 -0.16656098 -0.021490706 -0.28355193
0000d0 bb 69 bd be cb b2 42 be 20 21 b7 3e c0 21 22 3e
       -0.36994728 -0.19013517 0.3576746 0.15833187
0000e0 fd 14 8e be 0d 53 5a be ac 0a 46 bd 7e cc a3 be
       -0.27750388 -0.21320744 -0.04835002 -0.31991953
0000f0 ca 7a d8 bd 78 e2 a4 be 1c 1d 9a be df 8b 79 3e
       -0.10570295 -0.32204032 -0.30100334 0.24369763

embed_layer.1.weight f4 [64]
000000 9c e2 11 3f fc 12 69 3f 40 f2 85 3f 56 2b b4 3f
       0.56986403 0.9104459 1.0464554 1.4075725
000010 51 70 65 40 82 27 1d 3f 8f d5 6e 3f 7f 61 f7 3f
       3.5849802 0.6138841 0.93294615 1.9326628
000020 db 3a a7 3f f4 55 0f 40 af 03 d4 3f 1b 4a 05 40
       1.3064836 2.2396212 1.6563624 2.082648
000030 bc de 4a 3f 16 6e 9c 3f 1a 35 a7 3f 00 23 e0 3f
       0.79246116 1.2221096 1.306308 1.7510681
000040 9f 29 53 3f 6a 62 a9 3f ba 68 73 3f f0 d1 75 3f
       0.82485384 1.3233159 0.95081675 0.96023464
000050 a6 82 aa 3f 2c f3 a4 3f 6d 52 29 40 6e 63 c1 3f
       1.3321121 1.288671 2.6456559 1.5108469
000060 c2 dd bd 3f 2f 3f 00 40 c0 78 5c 3f 08 e6 80 3f
       1.48333 2.0038564 0.8612175 1.00702
000070 ed 35 20 40 2c cc a1 3f d7 e2 23 3f 22 13 bc 3f
       2.5032914 1.2640433 0.64018005 1.4693339
000080 1e 05 56 3f 38 39 06 40 73 20 06 40 3c 09 a3 3f
       0.8360156 2.0972424 2.0957305 1.2737193
000090 7e 2c b5 3f ae e8 2a 3f df fd a0 3f b2 4b 95 3f
       1.4154203 0.6676129 1.2577475 1.1663725
0000a0 a4 c0 82 3f 2e a4 c9 3f d2 3b 39 40 a4 35 30 3f
       1.0215039 1.5753229 2.8942761 0.6883185
0000b0 b7 4d 62 3f 27 cc 3d 3f 28 ff 42 3f ea 11 48 3f
       0.88399833 0.74139637 0.7617059 0.78152335
0000c0 16 fa 72 3f 09 a2 ca 3e a4 94 39 40 57 66 30 3f
       0.9491285 0.39576748 2.8996973 0.6890616
0000d0 7b 7d bc 3f dd eb 68 3f 0b 41 e8 3f 47 c0 e6 3f
       1.4725794 0.909849 1.814485 1.8027428
0000e0 f4 46 00 40 54 9d 2f 3f 53 e5 c2 3f f6 bc 2e 40
       2.0043306 0.6859944 1.5226234 2.7302833
0000f0 ba 8d f4 3f fc cb f2 3f 27 eb 2b 3f dd e0 3c 3f
       1.9105752 1.8968501 0.6715569 0.73780614

embed_layer.1.bias f4 [64]
000000 94 7b 23 be ae 79 f3 39 0f f3 81 be 25 7c 63 3f
       -0.1596511 0.0004643923 -0.25380751 0.88861305
000010 16 c1 d2 bd 33 34 d2 be 37 d0 6f bf be fc 64 3e
       -0.102907345 -0.4105545 -0.93677086 0.22362038
000020 0c 56 c7 3e 44 be f1 be 56 e3 31 bf 14 29 91 3d
       0.38932836 -0.47215474 -0.6948751 0.07087913
000030 a8 12 57 bf 30 23 4d 3f 58 de eb be b9 1f 01 bf
       -0.8401284 0.80131817 -0.46068072 -0.5043903
000040 cc ea 9f be a8 a8 a7 bf e2 6c ff 3e 50 bb ff 3d
       -0.31233823 -1.3098345 0.49887758 0.12486899
000050 20 aa 08 3e 71 f9 06 3f 52 a6 d7 be a6 96 9e be
       0.13346148 0.5272437 -0.4211908 -0.3097431
000060 69 45 8c 3e ac 5a e8 3e f5 60 d4 be 3f 6e d4 3d
       0.27396706 0.45381677 -0.41480222 0.1037259
000070 54 9c 5d 3e 29 e8 b7 3e f2 2e a9 bf 46 92 be 3f
       0.21641666 0.35919312 -1.3217452 1.4888389
000080 57 e5 eb be 08 95 ef be 0f 57 c7 be 54 f5 9e bc
       -0.4607341 -0.4679339 -0.38933608 -0.019404091
000090 a0 69 1f 3f 01 94 17 bf 26 3e d5 bd 4a 1a ad be
       0.62270546 -0.5921021 -0.104122445 -0.3380912
0000a0 31 ab eb 3d 3f 7a 2b bf 12 ce 0d bf 4e 97 9f bd
       0.115072615 -0.6698341 -0.55392563 -0.07792531
0000b0 8f 45 c8 3c e6 2a 9d 3b 83 bc f9 bd 60 2d 41 bf
       0.02444723 0.0047963737 -0.12194159 -0.7545986
0000c0 91 27 a7 3d ac e5 cf be 54 3f f6 3d 51 0a 0d bf
       0.081618436 -0.40604913 0.12023798 -0.55093867
0000d0 c2 ce a9 3f 77 a1 62 be 73 be c9 be e5 a3 de be
       1.3266222 -0.22131906 -0.39403114 -0.43484417
0000e0 71 2a 64 3e 31 87 5c be 33 2d f1 bd c0 79 08 bf
       0.22281815 -0.21535946 -0.11776199 -0.53310776
0000f0 75 0a c5 3d 4e 87 11 be cf f6 a2 bd a8 ac 62 bf
       0.09621135 -0.14211771 -0.07957231 -0.885447

embed_layer.1.running_mean f4 [64]
000000 36 e0 41 c2 aa 72 a9 42 15 1b a8 42 92 73 e0 c1
       -48.468956 84.72395 84.052895 -28.05643
000010 7b c3 c9 c0 e0 95 3f 42 8a 89 56 41 30 74 d5 c2
       -6.3051124 47.896362 13.408579 -106.72693
000020 e9 05 0e c2 e7 f1 20 c1 86 4a 5e c2 91 b2 c7 c2
       -35.50577 -10.059058 -55.572777 -99.84876
000030 72 72 e4 41 af 82 37 c2 37 b9 24 41 d4 de 02 41
       28.555882 -45.87762 10.295218 8.179401
000040 c5 79 30 42 9b 7e 40 bf de 93 68 41 5e 81 73 c2
       44.118916 -0.75193185 14.5361 -60.876335
000050 ef d8 b5 c2 e6 d6 a2 c2 5b 1d 40 c1 ef 39 cc c0
       -90.9237 -81.41972 -12.007167 -6.382072
000060 53 b2 c0 c2 bb 2b 21 c0 5d f9 4f 42 8f 39 68 c2
       -96.34829 -2.518294 51.99352 -58.05621
000070 cc d9 fa 40 da bb 4d c2 0e 65 df c1 93 ef 93 3e
       7.8390865 -51.43345 -27.924343 0.28893718
000080 bd b0 ad 41 e3 85 6d 40 a7 db 67 c1 44 2b 7b c0
       21.711298 3.7112968 -14.491126 -3.9245157
000090 48 7a 59 c2 78 ce f1 41 0e ad 6d 41 bd 41 35 c2
       -54.369415 30.225815 14.85475 -45.314198
0000a0 64 73 c6 c2 33 e1 26 c2 f2 a6 a6 c0 c3 b2 7c 42
       -99.22537 -41.71992 -5.207879 63.174572
0000b0 a6 15 84 c2 be 9a 3e 42 58 83 73 42 3a fb e2 41
       -66.04228 47.651115 60.878265 28.37267
0000c0 82 fb a1 c2 40 9a 1a c2 7f 52 dd c0 eb 19 03 42
       -80.99123 -38.650635 -6.9163203 32.77531
0000d0 94 fb 13 c0 39 39 b2 42 8e f1 34 c1 5e 54 d5 c1
       -2.31223 89.11176 -11.308973 -26.666195
0000e0 63 a6 51 41 91 dc 1f 42 d8 8f ba c1 f3 79 36 c1
       13.103122 39.965397 -23.320236 -11.404773
0000f0 e6 db d2 40 99 21 a4 c2 e0 c2 93 c2 f1 65 1c c2
       6.589343 -82.06562 -73.880615 -39.099552

embed_layer.1.running_var f4 [64]
000000 58 d6 1c 45 a1 fd f0 45 67 42 f4 45 42 b2 7a 44
       2509.3965 7711.7036 7816.3003 1002.7853
000010 07 6d 58 43 5e cd 1d 45 e9 90 a6 43 6e 4e 3e 46
       216.42589 2524.8354 333.1321 12179.607
000020 50 85 af 44 64 54 79 43 d5 e3 57 45 04 75 28 46
       1404.166 249.32965 3454.2395 10781.254
000030 24 a2 76 44 13 a5 12 45 46 b4 8c 43 21 40 41 43
       986.53345 2346.3171 281.4084 193.2505
000040 2e 98 06 45 e5 38 3f 43 45 76 bf 43 4b 87 7b 45
       2153.5112 191.22224 382.92398 4024.4558
000050 00 6c 0b 46 fb b9 de 45 b1 1d bb 43 72 73 49 43
       8923.0 7127.2476 374.23196 201.45096
000060 68 af 1a 46 cc 48 24 43 d2 29 40 45 c0 49 66 45
       9899.852 164.28436 3074.6138 3684.6094
000070 12 d6 69 43 fe 49 35 45 e3 b9 64 44 47 2a 47 43
       233.83621 2900.6245 914.9045 199.16515
000080 28 68 32 44 e6 be f8 42 c7 ff b4 43 17 e3 0d 43
       713.62744 124.37285 361.99826 141.88707
000090 99 7b 46 45 4e 98 86 44 e5 62 d0 43 a8 c5 0d 45
       3175.7249 1076.7595 416.7726 2268.3535
0000a0 29 e0 25 46 49 61 02 45 cd 8d 10 43 db 72 84 45
       10616.04 2086.0803 144.55391 4238.357
0000b0 95 20 95 45 9f 01 17 45 b8 23 7b 45 3f d4 76 44
       4772.0728 2416.1013 4018.2324 987.31635
0000c0 19 19 dc 45 66 d2 c7 44 37 20 46 43 c5 ca a1 44
       7043.137 1598.575 198.12584 1294.3365
0000d0 c3 5a 5b 43 e1 32 07 46 1c 28 8e 43 17 bf 7d 44
       219.35454 8652.72 284.31335 1014.9858
0000e0 21 6e ad 43 db d3 db 44 0f 29 41 44 94 97 92 43
       346.86038 1758.6205 772.64154 293.1842
0000f0 3c fb 22 43 5c 79 e2 45 10 fd b4 45 fa 9d e1 44
       162.98138 7247.17 5791.633 1804.9368

embed_layer2.0.weight f4 [16, 64, 2, 1]
000000 88 20 49 3d 2b 23 29 be ee a6 bf be be 91 ff 3e
       0.04910329 -0.16517322 -0.37432045 0.4991588
000010 cb 83 7d be d1 3d d5 be a4 f8 1f 3e 0a 90 eb 3c
       -0.24757306 -0.41648725 0.15622193 0.028755207
000020 ac 0d cf be 35 a1 82 3d 10 1a 4a be c0 fd 8a 3e
       -0.40440118 0.06378404 -0.19736505 0.2714672
000030 f7 99 93 3d 73 2c 2b 3e 7f fe 10 bf 9e 76 dd 3d
       0.07207101 0.16716175 -0.5663833 0.1081364
000040 32 c6 dc 3e f2 55 29 be 60 c7 8d 3e 5a 95 3c bf
       0.4311996 -0.16536692 0.27691174 -0.7366539
000050 1b c9 74 be 59 62 dc be ef d5 4b bf 0d 57 ab 3c
       -0.2390484 -0.43043783 -0.7962331 0.020915532
000060 9b a5 0f bd d3 f5 fd be d7 d0 24 3f 99 3c b2 3d
       -0.035070043 -0.49601611 0.64381164 0.08702964
000070 ef 2c 2f bf fd 26 55 3f aa 2a 22 3e 73 cf 75 bf
       -0.6842794 0.83262616 0.15836588 -0.9601967
000080 4b 89 e8 be c6 80 87 3e 0f cd dd bc f6 45 83 bd
       -0.45417246 0.26465434 -0.027075319 -0.06409828
000090 28 a5 2f be ca 11 26 be 84 af e8 be f9 c7 8c 3d
       -0.17152846 -0.16217723 -0.45446408 0.06874079
0000a0 ac cb 4e be be 82 09 be bd 32 91 3e d6 61 e3 bd
       -0.20194882 -0.1342878 0.28359023 -0.11102645
0000b0 67 b4 aa be 9f 7e 71 3e 39 9c c6 3c 30 ec 1e be
       -0.3334076 0.23583458 0.024244415 -0.15519786
0000c0 be 2f 36 be 69 98 d2 bd 6b 72 c4 3d a6 3f 3e be
       -0.1779165 -0.10282976 0.09592136 -0.18578967
0000d0 ca c2 e2 bd 5d 0b 34 bd 27 31 db be a6 b9 12 be
       -0.11072309 -0.04395615 -0.42810938 -0.14328632
0000e0 1c 54 d0 3b 24 5c 0e 3e 90 a3 0e 3f 2c e3 98 be
       0.006357683 0.13902336 0.55718327 -0.29860818
0000f0 7c d9 4f be 8f fd 23 bf e6 d7 8f be 27 ae 9d be
       -0.20297807 -0.64058775 -0.28094405 -0.3079693
000100 a9 3f 93 be 9f b9 e7 3e 09 d0 80 be ad d7 9d 3e
       -0.28759506 0.45258805 -0.25158718 0.3082861
000110 bc 32 dd be ba f4 d4 be f2 65 5c be bd 9e 73 bd
       -0.4320277 -0.41592962 -0.21523264 -0.059477556
000120 47 39 0a 3d 5b d6 d0 bd 8e 86 b3 be 93 25 bc 3c
       0.03374603 -0.10197135 -0.35063595 0.022967136
000130 e3 45 00 be 92 fa 49 3e e0 de cd bc 90 8b 0d bf
       -0.1252666 0.19724491 -0.02513069 -0.5529108
000140 60 45 15 be d5 e6 da 3e 2f 29 33 be 9f b9 4e bd
       -0.14577246 0.42754236 -0.17496179 -0.05046999
000150 dc 2a 2b bf aa 0c e2 3e 19 f2 45 be 6a fa 85 3e
       -0.66862273 0.44150287 -0.19330634 0.26167613
000160 cb 03 a8 bc 0d e9 d6 3e bd 71 18 be cd 26 c0 3e
       -0.020509621 0.4197468 -0.14887138 0.37529603
000170 56 f6 5e be 6b 21 4d 3e 77 d3 66 bd ff 5b ef 3c
       -0.21773657 0.20032279 -0.056354012 0.029218672
000180 5e 25 6a bd 84 f9 9b 3d 98 d9 39 be 60 59 18 be
       -0.057164542 0.07615951 -0.18149412 -0.14877844
000190 42 ac 1b 3f b0 97 e9 be 8c 96 87 3c 06 cd 15 3f
       0.6080972 -0.4562354 0.016551279 0.58515966
0001a0 73 d3 11 3f 01 1d c3 3e b0 18 ed be a1 e4 07 3e
       0.5696327 0.38108066 -0.46307898 0.13270809
0001b0 c5 a4 34 bf cb 2d f6 3d cc fb 99 3e ea be 33 bf
       -0.7056392 0.12020453 0.30074918 -0.70213187
0001c0 f1 d7 ab be 96 13 a4 bd 2f c9 29 be 16 1b a7 3d
       -0.33563188 -0.08011548 -0.16580652 0.08159463
0001d0 7b 2d 49 be 68 e6 18 bd 5d 67 11 bf 55 fc 90 3e
       -0.19646256 -0.037329108 -0.56798345 0.28317514
0001e0 5e 11 09 be 7c 2f 78 be 20 73 6d bf bf ba 49 bc
       -0.13385531 -0.24236864 -0.9275379 -0.01231259
0001f0 c9 d6 bb bd ac 3d 83 3d 95 4f 31 be b1 6b b3 be
       -0.091718264 0.06408247 -0.17315514 -0.350431
000200 df 7e ef 3b 11 33 0e 3f 42 65 45 be 57 23 b4 3f
       0.0073088254 0.5554667 -0.19276908 1.4073285
000210 bd a4 d9 be 85 9d bd 3f 16 5e 71 3f 89 02 2e 3e
       -0.42508498 1.4813696 0.9428419 0.16993155
000220 af 11 97 3e 85 35 27 bf 19 84 aa be da db 4e 3f
       0.2950568 -0.6531604 -0.33303908 0.80804217
000230 dd 41 f4 bd 00 e5 e7 3d a2 8c 29 3f e6 99 b0 be
       -0.11926625 0.11322975 0.66230214 -0.34492415
000240 36 82 06 3f e6 db 4e 3e eb 2e 0e be 65 3b d3 bd
       0.52542436 0.20201072 -0.13885085 -0.10314063
000250 f0 7e 91 3e 9e 24 d3 3d 5d 4a 14 3f 3a 08 16 3d
       0.28417158 0.103097185 0.5792597 0.03662894
000260 77 8c 89 be 5e 3e 40 3f d2 f4 d5 3e 9f ef aa 3d
       -0.2686498 0.75095165 0.41788346 0.08346485
000270 5e 42 53 be ca 17 23 be 79 03 5b 3c d8 7f 90 be
       -0.20630786 -0.15927044 0.013367527 -0.28222537
000280 35 27 a3 be 90 c4 60 3e bb 26 9f bd ef 7f ef bd
       -0.3186585 0.21949983 -0.07771059 -0.11694323
000290 bc 93 a2 3e 9c 5a 99 3e 1b 6c 66 3d fd 65 34 3d
       0.31753337 0.29951942 0.05625544 0.044042576
0002a0 6e be 70 3e e7 0e 6c bd e7 64 95 3e a3 ee 21 3f
       0.23510143 -0.0576314 0.29178545 0.63254756
0002b0 14 4e c3 3e 8c 8a 0f 3d a6 b9 c0 3e ef 45 ab bd
       0.38145506 0.035044238 0.3764164 -0.08362948
0002c0 97 70 dc 3e 8f 7d 90 3d f6 6c 51 3e ed c6 84 3c
       0.4305465 0.070551984 0.20451722 0.016208136
0002d0 a9 70 d8 be f9 1f 65 3f 2f 39 89 3e 83 7c b5 3e
       -0.42273453 0.8950191 0.2680144 0.35446557
0002e0 73 19 12 bf 83 e3 62 3f b7 95 d0 3c 8f cd a3 3e
       -0.5707008 0.88628405 0.025462015 0.31992766
0002f0 27 7d c5 bd dd b1 d5 3e 2d 72 be 3b 79 b7 02 3e
       -0.096430115 0.4173726 0.0058119507 0.12765302
000300 11 91 11 3e 02 ec 8c be b4 97 3e 3d fb a5 09 3f
       0.14215495 -0.2752381 0.046531394 0.5376889
000310 1a 69 7c 3e 25 a7 72 3f 63 aa 2f be 59 65 00 bf
       0.24649468 0.9478629 -0.17154841 -0.50154644
000320 ce 86 f8 3d fa 0a ab 3e d0 6b 46 3e b0 0a ea bd
       0.12135087 0.33406812 0.19377065 -0.1142782
000330 06 49 47 bd b4 55 b9 3d 24 09 e8 3e 6b 69 26 3e
       -0.048653625 0.0904955 0.45319474 0.16251151
000340 42 42 7f 3d 5f 41 74 be 16 d8 98 3d b0 5f 5d bf
       0.062319048 -0.23853062 0.0746309 -0.8647413
000350 cb 7e 2d be 54 30 54 3f 38 2e bd be 7e ea c1 3d
       -0.16942899 0.8288624 -0.36949325 0.09468554
000360 00 d1 52 3e 87 f5 9a be d8 49 a9 be 13 cd 34 3f
       0.2058754 -0.30265447 -0.3306415 0.7062542
000370 9c 2f 49 be 23 2a 12 3f c6 03 d2 bd ac ef b8 3e
       -0.19647068 0.57095546 -0.10254626 0.36120355
000380 c9 89 c1 3d cc 09 6b bd e2 7b fe 3c 05 70 b0 3e
       0.094501086 -0.05738239 0.031064931 0.34460464
000390 ab 0f 62 3d 20 a3 ef bd a8 49 f2 bd 26 fa 06 3f
       0.055190723 -0.117010355 -0.11830455 0.52725446
0003a0 75 b4 4d be 1b a5 dc 3d 79 5e e0 bd 6c aa b2 3f
       -0.2008837 0.10773679 -0.10955519 1.3958259
0003b0 56 52 16 bd 8d 2e 4b 3f 07 e1 9b 3d 39 03 15 bf
       -0.036699615 0.79367906 0.0761128 -0.5820804
0003c0 06 06 47 bd 9e 7b 27 3d 74 0e 9f be 47 81 bb bd
       -0.04858973 0.040889375 -0.31065714 -0.09155517
0003d0 86 b5 9d 3d 54 6a 74 3d 8b 8a 98 3d 7b ed 6d 3e
       0.077006385 0.059671715 0.074483 0.23235123
0003e0 0e 24 bf be 96 d1 64 3d 43 51 c8 3d a4 48 36 be
       -0.37332195 0.05586394 0.097811244 -0.17801148
0003f0 51 ae dd 3d 93 e7 56 3e 6a 54 09 3e 7a af a2 be
       0.10824264 0.20986776 0.13411108 -0.31774503

embed_layer2.0.bias f4 [16]
000000 a8 9d 98 bd 35 b9 df 3c c3 2c ea bc 81 63 42 3d
       -0.074519455 0.027309993 -0.028585797 0.047458176
000010 1d 78 9c bd c1 75 1a be 4a 27 a8 be f5 0f 22 be
       -0.07640097 -0.15083982 -0.32842475 -0.158264
000020 10 54 ce 3d bb 9e ea 3b da 17 7c bd c5 e3 8a 3e
       0.100746274 0.0071600354 -0.061546184 0.271269
000030 9e 21 11 3e 9a af 2f 3e 54 8f 09 3d 66 05 ba bc
       0.1417298 0.1715683 0.033583954 -0.022707652

embed_layer2.1.weight f4 [16]
000000 5a 76 dd 3f bc 5a c2 3f 3a e4 cf 3f 74 a2 89 3f
       1.7301743 1.518394 1.6241524 1.0752702
000010 90 c9 9c 3f 85 a9 ab 3f 3e f3 29 40 f7 96 27 40
       1.2249012 1.3411108 2.6554713 2.6185892
000020 8d 7b 93 3f 3f 0f f0 3f 48 fd 0a 40 6a fa 2d 40
       1.152208 1.8754653 2.171709 2.718409
000030 8e d3 4d 40 e9 8a e5 3f 56 60 0d 40 0d 41 01 40
       3.2160373 1.7933017 2.2090049 2.0195954

embed_layer2.1.bias f4 [16]
000000 c9 52 81 be e5 a0 b6 be 17 08 fa bd 77 66 bc 3c
       -0.25258473 -0.35669628 -0.12208574 0.022998078
000010 a7 84 02 3f 6b c7 d7 3c 29 06 d4 be bc c5 10 bf
       0.5098366 0.026340207 -0.4141095 -0.5655172
000020 3f cf af 3e 44 46 f8 b9 0f ad f0 be 9c d7 a7 be
       0.34337804 -0.00047354598 -0.47007033 -0.32781684
000030 93 40 41 bf 58 4f a2 be e3 15 9a 3d 43 66 95 3d
       -0.7548916 -0.3170116 0.07523706 0.072948955

embed_layer2.1.running_mean f4 [16]
000000 5f ee a5 c0 f6 7a b2 bf 2a de e4 40 44 36 f2 3f
       -5.185348 -1.3943775 7.1521196 1.892281
000010 3c db 7d c0 4e 6d ac 3f 20 7a df c0 59 86 24 c1
       -3.966506 1.3470857 -6.983658 -10.2828
000020 be 40 11 c1 c9 3c 91 40 df 4b ea 40 55 de a7 c0
       -9.078306 4.53867 7.3217616 -5.24589
000030 4c d7 cc c0 70 87 77 be d9 d0 b8 3f b7 65 2b c1
       -6.4012814 -0.24172759 1.4438735 -10.712333

embed_layer2.1.running_var f4 [16]
000000 79 94 56 41 f7 26 3f 41 6e c3 2c 41 79 fe 11 41
       13.411248 11.947013 10.797712 9.124627
000010 cf a0 01 41 99 ca 08 41 b5 80 a9 40 e1 98 b1 40
       8.10176 8.549462 5.2969613 5.549912
000020 45 cc cb 40 c2 16 50 41 eb 2c f3 40 ed c4 a5 40
       6.3686852 13.005556 7.599233 5.180289
000030 6a 5e b1 40 c8 c5 40 41 91 db 0d 41 b6 32 97 40
       5.542775 12.048286 8.866105 4.7249403

Fix_Position.pe f4 [1, 150, 16]
000000 00 00 00 00 00 00 80 3f 00 00 00 00 00 00 80 3f
       0.0 1.0 0.0 1.0
000010 00 00 00 00 00 00 80 3f 00 00 00 00 00 00 80 3f
       0.0 1.0 0.0 1.0
000020 00 00 00 00 00 00 80 3f 00 00 00 00 00 00 80 3f
       0.0 1.0 0.0 1.0
000030 00 00 00 00 00 00 80 3f 00 00 00 00 00 00 80 3f
       0.0 1.0 0.0 1.0
000040 11 0a da 3d 87 8b 7e 3f c5 22 0a 3d b8 da 7f 3f
       0.10646451 0.9943165 0.033724565 0.99943113
000050 65 c2 2e 3c 46 fc 7f 3f 0e 0f 5d 3b a1 ff 7f 3f
       0.010666464 0.99994314 0.0033730897 0.99999434
000060 63 cf 8b 3a f7 ff 7f 3f eb d8 b0 39 ff ff 7f 3f
       0.0010666664 0.99999946 0.00033730952 0.99999994
000070 3a b2 df 38 00 00 80 3f 5a 7a 0d 38 00 00 80 3f
       0.00010666666 1.0 3.373097e-05 1.0
000080 d3 cc 58 3e 57 32 7a 3f a7 0e 8a 3d ed 6a 7f 3f
       0.21171884 0.9773306 0.06741076 0.9977253
000090 d9 bf ae 3c 16 f1 7f 3f bb 0e dd 3b 82 fe 7f 3f
       0.021331714 0.9997724 0.006746141 0.99997723
0000a0 5e cf 0b 3b da ff 7f 3f ea d8 30 3a fc ff 7f 3f
       0.0021333317 0.99999774 0.000674619 0.99999976
0000b0 3a b2 5f 39 00 00 80 3f 5a 7a 8d 38 00 00 80 3f
       0.00021333332 1.0 6.746194e-05 1.0
0000c0 de 0e a1 3e 18 01 73 3f b7 e3 ce 3d be b0 7e 3f
       0.31456655 0.94923544 0.10102027 0.9948844
0000d0 b4 0c 03 3d 73 de 7f 3f a6 ca 25 3c a5 fc 7f 3f
       0.031994537 0.99948806 0.010119116 0.9999488
0000e0 00 b7 51 3b aa ff 7f 3f af a2 84 3a f8 ff 7f 3f
       0.0031999946 0.9999949 0.0010119284 0.9999995
0000f0 ac c5 a7 39 ff ff 7f 3f 87 37 d4 38 00 00 80 3f
       0.00032 0.99999994 0.000101192905 1.0
000100 a8 e2 d3 3e b7 0c 69 3f 43 be 09 3e 62 ac 7d 3f
       0.41383862 0.91035026 0.13451485 0.9909116
000110 ab b5 2e 3d 5b c4 7f 3f 71 0d 5d 3c 09 fa 7f 3f
       0.04265372 0.9990899 0.013491974 0.999909
000120 49 cf 8b 3b 67 ff 7f 3f e7 d8 b0 3a f1 ff 7f 3f
       0.0042666537 0.9999909 0.0013492376 0.9999991
000130 3a b2 df 39 ff ff 7f 3f 5a 7a 0d 39 00 00 80 3f
       0.00042666664 0.99999994 0.00013492387 1.0
000140 ef 26 02 3f 2c 72 5c 3f 8c e2 2b 3e 24 5e 7c 3f
       0.5084066 0.8611171 0.1678564 0.9858115
000150 8b 59 5a 3d d1 a2 7f 3f cc 27 8a 3c ae f6 7f 3f
       0.05330805 0.99857813 0.01686468 0.9998578
000160 08 c3 ae 3b 11 ff 7f 3f 1f 0f dd 3a e8 ff 7f 3f
       0.005333308 0.99998575 0.0016865468 0.99999857
000170 65 cf 0b 3a fe ff 7f 3f f0 d8 30 39 00 00 80 3f
       0.00053333334 0.9999999 0.00016865483 1.0
000180 cd e1 18 3f 26 56 4d 3f c6 d4 4d 3e 66 c6 7a 3f
       0.59719545 0.8020958 0.20100698 0.9795898
000190 87 fb 82 3d d4 79 7f 3f 79 c8 a5 3c 94 f2 7f 3f
       0.06395631 0.9979527 0.020237194 0.9997952
0001a0 b9 b6 d1 3b a8 fe 7f 3f aa a2 04 3b de ff 7f 3f
       0.006399956 0.9999795 0.0020238557 0.999998
0001b0 ab c5 27 3a fd ff 7f 3f 87 37 54 39 00 00 80 3f
       0.0006399999 0.9999998 0.00020238581 1.0
0001c0 ca df 2d 3f 9a e4 3b 3f 0f 8b 6f 3e 9f e5 78 3f
       0.679196 0.73395693 0.2339289 0.97225374
0001d0 79 c6 98 3d 66 49 7f 3f ab 68 c1 3c bb ed 7f 3f
       0.07459731 0.9972137 0.02360948 0.9997212
0001e0 5c aa f4 3b 2c fe 7f 3f c5 bd 1a 3b d1 ff 7f 3f
       0.0074665975 0.9999721 0.0023611647 0.9999972
0001f0 f2 bb 43 3a fb ff 7f 3f 1d 96 77 39 00 00 80 3f
       0.00074666657 0.9999997 0.00023611677 1.0
000200 d1 e3 40 3f 4b 50 28 3f c8 7d 88 3e 5a bc 76 3f
       0.7534762 0.6574752 0.26658463 0.9638115
000210 f7 8c ae 3d 89 11 7f 3f 4b 08 dd 3c 24 e8 7f 3f
       0.08522981 0.9963613 0.026981493 0.99963593
000220 f6 ce 0b 3c 9d fd 7f 3f dd d8 30 3b c3 ff 7f 3f
       0.00853323 0.9999636 0.002698473 0.99999636
000230 38 b2 5f 3a fa ff 7f 3f 5a 7a 8d 39 ff ff 7f 3f
       0.00085333316 0.99999964 0.00026984775 0.99999994
000240 8a b6 51 3f 34 d2 12 3f 49 0e 99 3e 39 4b 74 3f
       0.8191916 0.57351995 0.2989371 0.9542728
000250 60 4e c4 3d 3e d2 7e 3f 47 a7 f8 3c ce e1 7f 3f
       0.09585261 0.99539554 0.030353202 0.99953926
000260 b3 48 1d 3c fb fc 7f 3f f4 f3 46 3b b3 ff 7f 3f
       0.009599852 0.9999539 0.003035781 0.9999954
000270 7f a8 7b 3a f8 ff 7f 3f a5 29 9f 39 ff ff 7f 3f
       0.0009599998 0.9999995 0.0003035787 0.99999994
000280 03 27 60 3f be 51 f7 3e 37 72 a9 3e f2 92 71 3f
       0.8755953 0.48304552 0.33094952 0.94364846
000290 10 0a da 3d 87 8b 7e 3f c4 22 0a 3d b8 da 7f 3f
       0.106464505 0.9943165 0.03372456 0.99943113
0002a0 65 c2 2e 3c 46 fc 7f 3f 0b 0f 5d 3b a1 ff 7f 3f
       0.010666464 0.99994314 0.003373089 0.99999434
0002b0 63 cf 8b 3a f7 ff 7f 3f f0 d8 b0 39 ff ff 7f 3f
       0.0010666664 0.99999946 0.00033730967 0.99999994
0002c0 35 0b 6c 3f 63 2f c6 3e cb a4 b9 3e 50 94 6e 3f
       0.922046 0.38708028 0.3625854 0.93195057
0002d0 66 bf ef 3d 65 3d 7e 3f 80 f1 17 3d e5 d2 7f 3f
       0.11706428 0.9931243 0.037095547 0.99931175
0002e0 0a 3c 40 3c 7d fb 7f 3f 1e 2a 73 3b 8d ff 7f 3f
       0.011733064 0.99993116 0.0037103961 0.99999315
0002f0 86 ca 99 3a f5 ff 7f 3f 3b 88 c2 39 ff ff 7f 3f
       0.001173333 0.99999934 0.00037104063 0.99999994
000300 87 40 75 3f 57 cc 92 3e 4e a1 c9 3e 31 50 6b 3f
       0.95801586 0.28671524 0.39380878 0.9191924
000310 e1 b6 02 3e dd e7 7d 3f c8 bf 25 3d 52 ca 7f 3f
       0.12765075 0.9918192 0.0404661 0.9991809
000320 a0 b5 51 3c a2 fa 7f 3f 98 a2 84 3b 77 ff 7f 3f
       0.01279965 0.9999181 0.004047703 0.99999183
000330 a9 c5 a7 3a f2 ff 7f 3f 87 37 d4 39 ff ff 7f 3f
       0.0012799996 0.99999917 0.00040477162 0.99999994
000340 2e ac 7b 3f 34 7c 3b 3e 18 63 d9 3e 8a c7 67 3f
       0.983096 0.18309098 0.42458415 0.9053885
000350 40 8a 0d 3e ee 8a 7d 3f 95 8d 33 3d 01 c1 7f 3f
       0.1382227 0.99040115 0.043836195 0.99903876
000360 27 2f 63 3c b3 f9 7f 3f 21 b0 8f 3b 5f ff 7f 3f
       0.013866222 0.99990386 0.00438501 0.9999904
000370 cc c0 b5 3a f0 ff 7f 3f d2 e6 e5 39 fe ff 7f 3f
       0.0013866662 0.99999905 0.00043850258 0.9999999
000380 79 3b 7f 3f 4f 7c 9e 3d 92 e5 e8 3e 62 fb 63 3f
       0.99700123 0.07738554 0.45487648 0.89055455
000390 80 59 18 3e 9e 26 7d 3f de 5a 41 3d f0 b6 7f 3f
       0.14877892 0.9888705 0.0472058 0.99888515
0003a0 9d a8 74 3c b1 f8 7f 3f a8 bd 9a 3b 45 ff 7f 3f
       0.014932779 0.9998885 0.004722316 0.99998885
0003b0 ee bb c3 3a ed ff 7f 3f 1c 96 f7 39 fe ff 7f 3f
       0.0014933327 0.99999887 0.0004722335 0.9999999
0003c0 0e e4 7f 3f e3 33 ef bc 35 24 f8 3e d4 ec 5f 3f
       0.9995736 -0.029199546 0.48465124 0.87470746
0003d0 50 24 23 3e ed ba 7c 3f 95 27 4f 3d 22 ac 7f 3f
       0.15931821 0.98722726 0.050574858 0.9987203
0003e0 00 11 83 3c 9d f7 7f 3f 2e cb a5 3b 29 ff 7f 3f
       0.015999317 0.999872 0.0050596213 0.9999872
0003f0 11 b7 d1 3a eb ff 7f 3f b4 a2 04 3a fe ff 7f 3f
       0.0015999993 0.99999875 0.0005059645 0.9999999

attention_layer.relative_bias_table f4 [299, 8]
000000 4a 6c a0 3e 8c 51 84 3e 79 29 4b 3f 25 1f a7 3c
       0.31332618 0.25843465 0.7936016 0.020400593
000010 48 00 3b 3e 6e d3 57 be 90 74 2a 3f 75 99 96 be
       0.18261826 -0.21076748 0.6658411 -0.29413953
000020 de 61 9b be 57 5b b2 be 65 ff 96 3f 6f 6a 88 bc
       -0.30348104 -0.34835312 1.179669 -0.016652314
000030 65 67 e9 be 1f 15 bb be 7d d7 18 3f 7b ae 48 be
       -0.45586696 -0.36539552 0.5970381 -0.19597809
000040 09 f9 d8 be 37 62 9b be 91 08 2f 3f 02 96 5d bb
       -0.423775 -0.3034837 0.68372446 -0.0033811335
000050 5a 97 1e bf 05 f9 01 be e8 c9 da 3e a4 cf 4b bf
       -0.61949694 -0.1269265 0.42732167 -0.7961371
000060 2e 2c 75 bc f4 38 a7 be 86 26 1b be 83 50 a7 bd
       -0.014964147 -0.3266064 -0.15151414 -0.08169653
000070 79 63 58 bd c2 c3 e9 bd dc 42 3d 3f 9f 02 3c bf
       -0.05282924 -0.11414291 0.73930144 -0.734415
000080 2c 7c c2 bc 30 23 98 bd 94 26 93 3d c8 a8 97 bd
       -0.02374085 -0.074285865 0.071850926 -0.07405239
000090 c8 db 02 3d 56 e2 18 3d 0e 73 ca 3e be 05 39 3d
       0.03194788 0.037325226 0.39540905 0.04517149
0000a0 35 78 b2 bd 50 be 81 be 67 4d 11 3e 4f 6e b9 3d
       -0.08714334 -0.2534051 0.14189683 0.09054243
0000b0 3e 20 0e 3e e2 f2 7e 3e 7a e1 d2 bc 60 09 86 3c
       0.13879487 0.2489734 -0.025742281 0.016361892
0000c0 b6 96 23 bc 2c a3 f1 bd f3 42 89 3d 78 8c 48 3e
       -0.009984663 -0.11798701 0.06702223 0.19584835
0000d0 ac 70 de bb 06 96 9b bb 65 4b b5 3d da eb e2 3d
       -0.006788334 -0.004748109 0.08852271 0.11080141
0000e0 2f b7 c3 3c bc 85 4a bd a0 fa ce 3d a5 cc aa 3e
       0.02389106 -0.049443945 0.10106397 0.33359256
0000f0 9c 27 6b 3d c8 94 0e 3c e6 2c 6d 3d 3c ad 64 3e
       0.05741082 0.008702464 0.057904147 0.22331709
000100 00 fc 93 3d 58 ab 2a bd d4 0c d6 bd 55 5b d9 3e
       0.072257996 -0.041667312 -0.104516655 0.42452493
000110 c6 14 65 3d 36 a4 9c bc 9e da 2d 3d dc 3a 21 3d
       0.055928014 -0.01912127 0.042444818 0.039362773
000120 83 ed e6 bd 49 b6 92 bd 84 a7 c3 bd 9c 20 cc bd
       -0.112757705 -0.071636744 -0.095534354 -0.09967157
000130 11 39 17 be 58 1c 00 be ed 27 b5 3d fc 70 9b bd
       -0.14767863 -0.12510812 0.08845506 -0.075899094
000140 56 dc fd 3b 66 c5 bd bd ec 91 e9 bc e2 20 1f 3e
       0.0077472134 -0.092661664 -0.028511964 0.15539888
000150 e3 26 37 be 2f 02 13 3d b8 99 47 3c c6 5d cf 3d
       -0.17885928 0.035890754 0.0121826455 0.10125308
000160 4e a1 32 bd f7 b9 d1 bb af 08 b2 bc 54 43 91 bb
       -0.043610863 -0.0064003426 -0.021732656 -0.004433075
000170 3b 2b cf bd b3 97 ba bd 15 ba d3 3d 47 9e 3b 3a
       -0.101156674 -0.091109656 0.10338227 0.0007157069
000180 6c 64 08 be 30 67 59 3d ff 52 99 3e 85 56 c4 3c
       -0.13319558 0.053076923 0.29946133 0.023967037
000190 7b 68 aa bd 1c 07 44 be 03 b3 c6 3d ce 70 a4 bd
       -0.08320709 -0.19143337 0.097021125 -0.08029328
0001a0 e5 34 7a 3e 9a 34 07 bd 7c 6c 78 3c 15 f9 7b bc
       0.2443424 -0.03300915 0.015162583 -0.01537921
0001b0 c7 5a 8c 3c ad f8 dd bd e1 8d 86 bc 9c 1c e8 bc
       0.01713313 -0.10838447 -0.016425075 -0.028333955
0001c0 04 97 6d 3d 5f b9 bb bd 70 2c 8f bd 1e 78 a3 bd
       0.058005348 -0.09166216 -0.06990898 -0.07981895
0001d0 b2 15 3e 3d e9 2d 74 be 1a 33 f1 bb 3a 34 6f 3d
       0.04640741 -0.23845638 -0.007360828 0.058399417
0001e0 47 0f 63 3e 98 56 89 bd 8a 33 39 bd 9d e9 97 3c
       0.22173797 -0.067059696 -0.045215167 0.018544013
0001f0 01 05 be bd 43 60 ae be 5c 98 b9 3c 9b a8 f0 bc
       -0.09278298 -0.34057817 0.022655658 -0.029377272
000200 4f 8c eb bb 2d 1b 03 bd a4 0b f9 bd 9b d8 7e bd
       -0.007188357 -0.03200834 -0.121604234 -0.06221829
000210 e6 fa 3f bd 80 77 e3 bd 7e 2c a9 3d 12 d0 59 bd
       -0.046870135 -0.11106777 0.08260439 -0.053176947
000220 74 e3 63 be 92 9c 93 bc 9c a4 7c bb 42 56 00 3e
       -0.22254735 -0.018018994 -0.0038550263 0.12532905
000230 ea 28 3c bc 61 d8 76 bd c8 54 2a 3e ac ff 57 bc
       -0.011484364 -0.06026495 0.16633904 -0.0131835155
000240 55 51 ea bc 0c 77 da 3c c6 fb f6 bc 12 52 7a 3e
       -0.028603235 0.026668094 -0.030149352 0.2444537
000250 1b ec 90 3d b5 34 02 bd 58 a1 f4 3b fc ee 9e bd
       0.070762835 -0.031788547 0.0074655227 -0.077604264
000260 dc 54 41 3e 2f 56 a4 bd 46 e3 a2 bc e9 c4 3a 3c
       0.18880028 -0.08024251 -0.019883763 0.011399486
000270 b0 54 d4 3d 62 77 e7 bd 47 b2 76 bc 8f fd ea 3d
       0.10367715 -0.11302067 -0.015057153 0.11474144
000280 95 3a ef bd 8a 5d 29 be b3 3c da bc 5c 0a 2d bc
       -0.116810955 -0.16539589 -0.026640272 -0.010561552
000290 84 87 a4 bd 74 25 36 be a7 4c c1 bc c6 64 00 3e
       -0.0803366 -0.17787725 -0.023596121 0.12538442
0002a0 5f 7e 42 3e 57 31 87 3c c3 42 3e 3e dd 69 40 3c
       0.18993519 0.01650302 0.18580155 0.01174399
0002b0 88 82 10 be f6 48 2f be de 13 77 3d 36 6e 73 3d
       -0.14112294 -0.17117676 0.06032168 0.059431277
0002c0 77 2c 80 3c 98 c8 3f bd 98 c3 84 3d f9 f3 b4 bd
       0.015646202 -0.04682216 0.06482619 -0.088355966
0002d0 c3 cd ab bd 55 15 98 bd 59 99 b5 3c a3 27 81 3c
       -0.08388855 -0.07425944 0.022167848 0.01576597
0002e0 b4 85 36 3d ed 29 04 be 38 3f 0b 3d 59 22 ab bc
       0.044561103 -0.12906618 0.033995837 -0.020890402
0002f0 98 c0 14 3d 56 4e 8f bd 18 5f 56 3d a2 5a 4c 3b
       0.036316484 -0.06997363 0.052336782 0.003118195
000300 13 d8 eb 3c 3f 46 0c bd 31 09 15 be 28 59 92 bc
       0.028789556 -0.03424668 -0.14554287 -0.017864779
000310 0c 79 4a be d5 c4 0f be d9 f4 97 ba d1 4e cc 3b
       -0.19772738 -0.14039929 -0.0011593356 0.0062349816
000320 80 9d 75 3d bd 14 34 bd 46 8c 5d bd 96 80 4b ba
       0.059964657 -0.04396509 -0.054088853 -0.0007762996
000330 1b 93 fd bd 67 12 90 bd c1 91 32 bc 5e 30 67 3d
       -0.12381574 -0.0703476 -0.010899008 0.05644261
000340 ec be 40 3e ff bb 5f 3d 74 23 25 3e 14 b6 d6 bd
       0.18822831 0.054622646 0.16126806 -0.104839474
000350 68 16 d1 bd fe cb 89 be ec 8c 10 3d bc 41 17 3e
       -0.10209352 -0.26913446 0.035290644 0.1477117
000360 51 19 8d bc c6 e8 ca 3c 2f 3e 0e 3d c9 24 8e bb
       -0.017223986 0.024769198 0.03472727 -0.004337881
000370 51 08 2b 3c ea 50 7f 3c bb cc 2e 3c 80 e6 e2 3d
       0.0104389945 0.015583256 0.010668929 0.11079121
000380 9f e6 02 3d 63 1d a7 3c 3c 8c 19 3e 67 91 3e 3e
       0.03195822 0.020399755 0.14994901 0.18610154
000390 8a 58 aa bc 8e c2 8c 3c 28 4f af bc 45 74 b7 3d
       -0.020794172 0.017182615 -0.02140005 0.089577235
0003a0 8f 84 7c 3e fe 43 2c 3d 3d f3 d6 3c 8b 36 59 3d
       0.24659942 0.04205703 0.026239032 0.05303053
0003b0 7f 5f 1b bd e3 a1 01 bd c4 c1 98 bc 47 d5 d6 3d
       -0.03793287 -0.031648528 -0.018647082 0.10489898
0003c0 4c 9e 01 be 20 e8 d5 3c b6 12 03 bd 3a d0 bb 3d
       -0.12658042 0.026111662 -0.032000266 0.091705754
0003d0 90 76 15 3a 1d 4b b4 bd 6d 74 7d bc 82 c4 18 3e
       0.0005701566 -0.08803389 -0.015469653 0.14918712
0003e0 df a0 96 3d 69 cc 25 3d 6c 78 95 3d bb f6 9b 3d
       0.073549025 0.040478144 0.07298359 0.076154195
0003f0 d3 af 89 3c 0b c1 a4 be 81 e9 70 bc fc 25 4f 3e
       0.016807472 -0.3217853 -0.014704109 0.20229334

attention_layer.key.weight f4 [16, 16]
000000 73 7a b1 be 0e 79 99 3e 3e 78 4e bf 92 cc eb 3e
       -0.34663734 0.2997517 -0.80652225 0.46054512
000010 96 b2 5e 3d 8b 30 62 3f c1 38 a5 3d 1c de ce 3e
       0.05436953 0.8835532 0.080674656 0.4040383
000020 31 32 df 3e 04 7b 34 3f 08 95 42 3f c2 db a7 3f
       0.4359298 0.70500207 0.76008654 1.311394
000030 00 14 ca be 30 b6 29 bf ba 42 87 be 62 7a a7 3f
       -0.39468384 -0.6629362 -0.26418096 1.3084223
000040 fe be cf 3e 9e 22 43 3d d8 54 b7 3e ae 54 e2 be
       0.40575403 0.047640435 0.35806918 -0.4420523
000050 25 11 c3 be 76 53 0c bc ec 5f 6c bd 15 62 d4 3e
       -0.38099018 -0.0085648205 -0.057708666 0.4148108
000060 58 44 87 bf 10 60 46 3e 9c 08 36 3f 52 a9 3e bf
       -1.0567732 0.19372582 0.71106887 -0.7447711
000070 c0 63 3f bf 36 f9 1c 3f 68 c0 50 be 5a 9f 36 bf
       -0.7476158 0.61317766 -0.20385897 -0.713369
000080 0a a0 84 bf 2f 8a 34 bf 6f af 34 bf b5 a6 88 3e
       -1.036134 -0.7052335 -0.7058019 0.26689687
000090 af e0 60 be 23 2d 76 3d d0 fc 30 be 5a 05 1d bf
       -0.2196071 0.06010164 -0.1728394 -0.6133629
0000a0 fd d2 8d be 10 9c c6 3e 9c f7 36 3f 00 f3 49 be
       -0.27700034 0.3879094 0.7147157 -0.19721603
0000b0 87 e3 38 be 4d 17 8a 3e 1c 23 6c bf 35 f3 25 3e
       -0.18055545 0.26970902 -0.9224107 0.16206057
0000c0 14 ae 53 be 3d 84 d1 bc cb 55 45 bf 05 91 da be
       -0.20671874 -0.025575751 -0.77084035 -0.42688766
0000d0 95 7b 9a 3f e9 ca 99 be f2 54 de 3e 23 b0 10 bf
       1.2068964 -0.3003762 0.43424183 -0.56518763
0000e0 73 e9 7c 3e 4a e3 b3 3d c2 f7 68 3f 04 ba 51 3d
       0.24698429 0.08783586 0.9100305 0.05120279
0000f0 09 a8 54 3d 88 ff 87 3d 28 60 26 3e 7c ba b5 3e
       0.051918063 0.066405356 0.16247618 0.3549384
000100 4d a4 5c be bb 6d 33 3e de 53 7d bf cb f4 16 3f
       -0.21547051 0.17522328 -0.98956096 0.58967274
000110 51 7f 4d be e7 39 08 bf 1e 2d f8 be d8 db bb bd
       -0.20068099 -0.5321335 -0.48471922 -0.09172791
000120 d6 2b b6 3f bf 3c 67 bf 2e 25 28 3f 36 52 8a 3e
       1.4232128 -0.90327066 0.6568173 0.27015847
000130 89 91 a2 3f 47 a8 92 3e c7 d2 96 3f 0f 60 12 3e
       1.2700664 0.2864401 1.1783074 0.14294456
000140 83 b9 c2 3e b3 38 8b be a2 d6 88 3f 64 b7 21 be
       0.3803216 -0.27191696 1.0690501 -0.15792614
000150 29 1e 8b bf b6 9e 56 be 76 c4 e3 bd 6b 78 e8 be
       -1.0868579 -0.20958981 -0.11121456 -0.45404372
000160 f4 b3 52 bf 7e af ab bd 49 7a 7c be 0c b6 61 be
       -0.82305837 -0.08383082 -0.24656023 -0.22042102
000170 ab ee 9b 3e e1 8b 08 3f 74 bc c9 bd af d4 0f bf
       0.30455527 0.5333844 -0.09850398 -0.56183904
000180 e4 ac 3f bd 9e 22 02 ba f5 15 98 3e c4 89 02 bf
       -0.04679574 -0.0004964265 0.29704252 -0.50991464
000190 52 d4 9f 3d 08 40 6b bd 89 e3 06 bf b2 ba ba bd
       0.07804169 -0.05743411 -0.5269094 -0.091176406
0001a0 dc dd d7 bf 9e 98 6e 3f 6d a5 e9 3d 18 1f db 3e
       -1.6864581 0.93201625 0.114085056 0.4279716
0001b0 c9 55 d9 bf 74 aa e5 3e f2 75 08 bf 5a e4 3d bf
       -1.6979305 0.44856608 -0.5330497 -0.7417656
0001c0 07 8e 8e 3e c5 e7 66 3e fc d7 f1 be ea 84 83 3f
       0.27842733 0.2254935 -0.47235096 1.0274937
0001d0 29 ae 79 be c8 62 cf 3e 9c b2 29 3f 15 50 0e 3e
       -0.24382843 0.40505052 0.6628816 0.13897736
0001e0 50 49 d1 3f a0 28 68 be d0 c6 41 be 87 e4 89 3e
       1.6350498 -0.22671747 -0.18923497 0.26932165
0001f0 78 76 d1 3f fe 59 52 3d 9e f5 07 3f c2 15 f6 3e
       1.6364279 0.051355354 0.5310916 0.48063475
000200 a6 f3 46 3f ae e5 c8 3e 31 b5 c5 3f 37 b2 2b bf
       0.7771553 0.39237732 1.544592 -0.6706881
000210 5b a5 7d bd a5 6d 79 be 5e 4a 3c 3e e1 31 95 be
       -0.061925273 -0.24358232 0.18387744 -0.29139617
000220 8b 6d 09 3c d5 31 05 bf a1 f4 03 bf 1d 63 c3 3e
       0.0083879335 -0.5202916 -0.5154515 0.38161555
000230 57 29 2f 3a e0 b8 90 bf ae ca 6f be 2c 92 1d 3e
       0.00066818803 -1.1306419 -0.2341716 0.15387791
000240 f6 7a 87 bf 3c 25 82 3e 21 a2 49 bf 2f cc 9f 3f
       -1.05844 0.25419033 -0.78763014 1.2484187
000250 a2 84 cd 3e 43 a1 08 3f 0f 15 1a be 2a 28 8b 3e
       0.40140253 0.53371066 -0.15047096 0.2717908
000260 b4 c8 e8 be c2 5b 9d 3e 3e 00 39 3f 4c f6 84 3e
       -0.45465624 0.30734068 0.72265995 0.2596916
000270 e3 66 95 be 87 b6 fd bd 31 0e 8d be 71 ea 9f be
       -0.2918006 -0.1238833 -0.2754989 -0.31233552
000280 56 dd a8 3e 76 3a 70 be 2e 73 c0 be da 6c 4b 3f
       0.32981366 -0.23459801 -0.37587875 0.7946297
000290 9a 9a 86 3e db c9 d9 3d f5 48 2a 3f 75 a2 0b 3e
       0.26289827 0.10634204 0.66517574 0.13636191
0002a0 84 77 94 3f c0 59 dc bc 76 2a ec 3d 19 96 4b 3e
       1.1598973 -0.026898265 0.11531536 0.19881476
0002b0 20 4a 09 40 bc 02 ff 3d 35 0e 59 be c8 3f 5d 3f
       2.1451492 0.124516934 -0.21196826 0.8642545
0002c0 f6 1f 2b be 8f f7 87 3c d7 6e 2e 3e 2a 66 25 bf
       -0.16711411 0.016597537 0.1703447 -0.64609015
0002d0 93 c8 89 be 4e 93 4d 3e ce 17 73 bf c6 ec e2 3e
       -0.26910838 0.20075724 -0.949582 0.4432127
0002e0 96 29 93 bf 7c bf ff be 33 25 fc 3e ac ab d3 3c
       -1.1497066 -0.49950778 0.4924713 0.025838695
0002f0 be 73 11 c0 28 27 9b 3d 31 a6 17 be 1e 65 03 bf
       -2.2726893 0.07575828 -0.1480949 -0.5132617
000300 92 9f 83 be 01 fa d6 3d fa d4 b4 bf 99 c9 3c 3f
       -0.2570768 0.10496903 -1.4127495 0.73745114
000310 c1 29 88 3e 03 e9 22 3e 9d 1c 8f 3f 44 6d b6 3e
       0.26594356 0.159092 1.1180607 0.35630238
000320 1f ea 64 3e 4e ea 97 be 80 02 15 3f cd 67 4a 3e
       0.22354935 -0.29670948 0.5820694 0.1976616
000330 05 2f 8c 3f 58 3b 6f be 23 56 ae 3e 74 52 53 3e
       1.0951849 -0.23362482 0.34050092 0.20636922
000340 70 d0 93 3e 8d 20 59 bf 36 d1 d2 bc bc 5e a8 bf
       0.28869963 -0.84815294 -0.025734525 -1.3153911
000350 da e9 aa 3e f2 74 cd be 93 9f 04 bf 4e 93 be 3d
       0.3338154 -0.40128285 -0.5180599 0.0930544
000360 d2 e1 83 3e 93 21 6f be 01 ba 21 bf a7 2f 27 3e
       0.25758225 -0.23352651 -0.63174444 0.16326772
000370 63 8e 43 bf 52 be fe be 81 66 96 bd 5c 20 d7 be
       -0.7638914 -0.49754578 -0.0734377 -0.42016876
000380 c5 6c 1e bf 52 96 b8 3e f1 9d 2a bc ae fb 09 3f
       -0.6188472 0.36052185 -0.010413633 0.5389966
000390 5e 63 44 3e 3a 64 6f 3f 9d ed c3 3e 0a 5f 0e bf
       0.1917853 0.9351231 0.38267222 -0.5561377
0003a0 62 f2 2e 3d 9c fd 82 3e 95 ac 99 3e 6d d4 9f 3d
       0.042711623 0.25584114 0.30014482 0.07804189
0003b0 a0 a2 e5 bd 41 f8 21 3e d9 40 03 be 72 eb be 3f
       -0.11212659 0.15817358 -0.12817706 1.4915602
0003c0 02 aa 18 3e 33 02 9f 3d b9 81 77 3a da ea a9 bc
       0.14908603 0.07764091 0.00094416324 -0.020741869
0003d0 69 4a 36 be 83 76 37 bf 02 15 19 3f 65 fb a2 3e
       -0.17801823 -0.7166521 0.5979768 0.31832424
0003e0 bc ff 51 3e 67 05 c0 3b 54 fe 5b bf f3 c3 f4 be
       0.20507711 0.005860019 -0.8593495 -0.47805747
0003f0 29 2a f5 bc 5e 7d b2 3d a4 bb 3a 3e 8e 8e 62 bf
       -0.02992733 0.08715318 0.18235642 -0.8849877
