Sleep_stage_classifier/Local_classifacation/ConvTran/output/20250721103523/model.pth (torch, 258565 bytes, 28 tensors)

embed_layer.0.weight f4 [64, 1, 1, 8]
0.78689253 -0.21887498 0.73237 -0.78642005 -1.3344322 0.19448866 -0.01794974 -0.116676345
-0.02930256 -0.28951484 -0.7236832 -1.6818041 0.5431749 0.032639332 0.13419954 0.18298635
0.3112485 0.31103313 1.3039403 1.3881336 0.8204575 0.34616712 0.22087286 -0.13592586
-0.4753333 -0.031535164 0.339876 0.54301196 -0.61579794 -2.0456967 -0.43127483 0.15962568
-2.1416419 -0.058084182 0.14956197 0.043522872 0.14281945 0.70715946 -0.76012224 0.23372012
-0.24366559 -0.2558345 0.14814621 0.29432023 -1.2660998 1.2753743 0.11577451 -0.23372851
-0.5823267 -0.41344705 0.6194409 -0.45711198 0.2833261 -0.74345034 0.74809885 -0.46665403
0.020881655 0.8392918 0.8462729 -0.10796718 -0.28610846 -0.3080058 0.15867661 -1.5411781
-0.30189675 -0.16647772 0.15114029 1.2069926 1.7070413 -1.001464 -0.15964231 0.06859025
-0.7214828 0.1865829 0.5207685 -0.5842588 1.0237545 -0.29401094 0.59080404 0.3268542
0.16356772 0.0783425 -0.9180282 -0.3625791 -0.23585021 -0.74935186 0.7944296 1.1765301
-0.9682322 0.3435179 0.053191587 0.45776963 -1.1293507 0.5483651 -0.3338664 -0.1433254
0.12578145 -0.8179005 0.2583645 -0.67203444 0.5460059 0.6976261 1.0177933 -0.569106
1.3712727 0.358634 -0.58630186 -0.5631634 0.9149848 -0.18262154 -0.3844353 -0.21706222
-1.1541485 -0.09696755 0.21889472 0.48979786 0.3838978 0.35058835 -0.64681447 -1.267911
0.6209529 0.2927554 0.48999342 -0.017564958 -0.23053016 -0.48354384 0.21253875 0.078885496
-0.6052242 0.6059473 -0.27906987 2.0364 -0.69536155 0.26053193 0.27320856 -0.4833615
1.1650941 0.5897001 0.16578677 -0.6621816 -0.9662235 -0.4391162 0.02109292 0.59263194
-0.09509627 0.46897754 -0.39645195 -1.1472911 0.51369965 -0.29547173 1.144595 -0.2194693
0.6201101 -1.7164123 -0.08291491 0.09938472 0.5014044 -0.048694864 0.29807842 0.39474654
-0.6520979 0.9058219 0.4469666 -0.85340047 -0.6954453 -0.37176442 0.17491935 0.8610904
-0.09012032 -1.049277 -0.18978935 -0.469858 -0.28966293 0.51064944 1.0139544 0.8764845
-0.3335223 0.4814563 1.546656 1.4459138 -0.5638155 0.4436758 -0.066910304 -0.40293598
0.44140747 -0.3862117 -0.59197783 -0.15845788 0.9006227 -0.13954091 -1.0826249 -0.54377574
-0.731327 0.5667986 0.7360413 -0.22873423 0.012410342 1.2988564 -0.5084402 0.10209065
-0.1517204 -0.52257705 0.051991615 -0.504455 0.3655728 -1.2143035 -0.75087947 -0.22609073
-0.95071685 0.23812312 0.49876 0.03888563 -0.7717295 0.45069382 0.95020646 -0.74815637
-0.30437315 -1.9572325 0.69584936 -0.26749662 0.16499177 -0.0099738445 0.6535904 -0.15736404
-0.338576 -0.3057544 -1.3374652 -1.4109068 -0.43923843 0.3368708 -0.16829793 -0.24229456
-1.4364321 -0.06522966 0.057001147 -0.7621448 -0.3163313 -0.946029 0.57659405 -0.20173821
1.5416998 1.5524111 0.13373363 -0.073909685 -0.12347627 0.31341702 -0.48179907 -0.1727111
0.06600173 0.74238026 0.065940194 -1.6348352 -0.006879715 0.17182775 -0.77077866 0.60566854
00000000: ca71 493f c320 60be 9a7c 3b3f d352 49bf
00000010: adce aabf 0928 473e 550b 93bc 02f4 eebd
00000020: ec0b f0bc 4a3b 94be 4d43 39bf 5b45 d7bf
00000030: 830d 0b3f d2b0 053d 9b6b 093e c660 3b3e
00000040: f75b 9f3e bc3f 9f3e 84e7 a63f 5dae b13f
00000050: 8109 523f d13c b13e 7f2c 623e 2630 0bbe
00000060: e35e f3be 042b 01bd 3a04 ae3e d502 0b3f
00000070: efa4 1dbf b2ec 02c0 0ed0 dcbe ea74 233e
00000080: a910 09c0 aee9 6dbd c626 193e 0a45 323d
00000090: 433f 123e 6708 353f 5f97 42bf 5454 6f3e
000000a0: 7983 79be bdfc 82be a4b3 173e 24b1 963e
000000b0: 8f0f a2bf 773f a33f 301b ed3d 8756 6fbe
000000c0: 5d13 15bf 55af d3be ae93 1e3f 950a eabe
000000d0: 1e10 913e c352 3ebf 6883 3f3f 47ed eebe
000000e0: 0110 ab3c d4db 563f 57a5 583f e61d ddbd
000000f0: cf7c 92be f0b2 9dbe 1f7c 223e 5345 c5bf
00000100: 3692 9abe 2379 2abe 85c4 1a3e bc7e 9a3f
00000110: 5480 da3f f92f 80bf 4679 23be 0c79 8c3d
00000120: 19b3 38bf 960f 3f3e 1651 053f fc91 15bf
00000130: 630a 833f 9a88 96be ef3e 173f 6f59 a73e
00000140: 4c7e 273e 0872 a03d e503 6bbf f8a3 b9be
00000150: b882 71be 86d5 3fbf bd5f 4b3f 8a98 963f
00000160: 11de 77bf 94e1 af3e 6cdf 593d c860 ea3e
00000170: 908e 90bf a861 0c3f 89f0 aabe e5c3 12be
00000180: dacc 003e ed61 51bf 5a48 843e 730a 2cbf
00000190: 0bc7 0b3f a097 323f 0d47 823f eeb0 11bf
000001a0: dd85 af3f e09e b73e e117 16bf 7a2b 10bf
000001b0: 723c 6a3f 2401 3bbe b4d4 c4be 8f45 5ebe
000001c0: 23bb 93bf ec96 c6bd f025 603e c9c6 fa3e
000001d0: 418e c43e 5180 b33e a295 25bf e84a a2bf
000001e0: c5f6 1e3f 09e4 953e 6be0 fa3e 63e4 8fbc
000001f0: 1910 6cbe 0f93 f7be c2a3 593e b88e a13d
00000200: f9ef 1abf 5d1f 1b3f 3fe2 8ebe 6154 0240
00000210: 3703 32bf 7164 853e fee1 8b3e 297b f7be
00000220: ce21 953f 96f6 163f 02c4 293e bc84 29bf
00000230: 6c5a 77bf d7d3 e0be 0fcb ac3c bab6 173f
00000240: d5c1 c2bd d31d f03e c0fb cabe 6fda 92bf
00000250: d281 033f 1248 97be 1782 923f 8fbc 60be
00000260: 89bf 1e3f 66b3 dbbf 4bcf a9bd 378a cb3d
00000270: 0a5c 003f 4474 47bd bc9d 983e 381c ca3e
00000280: e3ef 26bf f2e3 673f ced8 e43e 7478 5abf
00000290: b408 32bf e857 bebe 0f1e 333e 6c70 5c3f
000002a0: 0191 b8bd b54e 86bf 2458 42be 3a91 f0be
000002b0: b34e 94be ecb9 023f 42c9 813f 4a61 603f
000002c0: 6fc3 aabe 7181 f63e d3f8 c53f b413 b93f
000002d0: 3656 10bf 7929 e33e 4508 89bd a04d cebe
000002e0: 2900 e23e 8abd c5be dc8b 17bf c842 22be
000002f0: 368f 663f d0e3 0ebe 7493 8abf e334 0bbf
00000300: 3f38 3bbf b719 113f 346d 3c3f 4e39 6abe
00000310: bf54 4b3c ed40 a63f 2329 02bf e714 d13d
00000320: 985c 1bbe 9cc7 05bf 29f5 543d f623 01bf
00000330: 5c2c bb3e 4c6e 9bbf a339 40bf 5484 67be
00000340: 2e62 73bf 8cd6 733e 795d ff3e 8a46 1f3d
00000350: 1190 45bf 57c1 e63e bb40 733f 2d87 3fbf
00000360: ccd6 9bbe 9886 fabf 2f23 323f 51f5 88be
00000370: 9af3 283e 5669 23bc b351 273f 0a24 21be
00000380: d559 adbe d78b 9cbe 0f32 abbf 9898 b4bf
00000390: dce3 e0be 547a ac3e 4b56 2cbe 111c 78be
000003a0: 02dd b7bf 2197 85bd 097a 693d ec1b 43bf
000003b0: 2df6 a1be f52e 72bf ab9b 133f 7694 4ebe
000003c0: 6b56 c53f 68b5 c63f 78f1 083e f65d 97bd
000003d0: 20e1 fcbd 3278 a03e 5eae f6be 2edb 30be
000003e0: ea2b 873d a20c 3e3f a70b 873d 4842 d1bf
000003f0: 3b6f e1bb 9df3 2f3e c051 45bf 180d 1b3f

embed_layer.0.bias f4 [64]
0.10208293 0.1897549 -0.095133856 -0.27109483 -0.30251285 -0.021575347 -0.2182895 -0.19906195
-0.16062313 0.28833532 0.32017282 0.18018436 0.2452925 0.07628874 0.19802484 -0.11744401
0.26955104 0.12523513 -0.009568303 0.08772105 -0.13408266 -0.18293685 -0.13469373 -0.24594063
0.21976909 0.06298288 -0.19725728 0.30181196 -0.07476107 -0.007185511 -0.01597959 0.024554575
-0.14968692 -0.20915589 -0.10722952 -0.051723205 0.12456243 -0.044669487 -0.23206843 0.028452996
-0.32091206 0.2633216 0.013385642 -0.3289878 0.06764991 -0.24609676 -0.011773098 -0.117005914
-0.32904106 -0.3233042 -0.108907916 0.17245413 0.0171399 0.32457912 -0.33061886 -0.035398595
0.029987032 -0.20262843 -0.18701749 0.087382756 0.18213175 -0.019080983 -0.29197335 0.15373726
00000000: db10 d13d 1c4f 423e 8ad5 c2bd f1cc 8abe
00000010: f7e2 9abe c8be b0bc 4887 5fbe e5d6 4bbe
00000020: 647a 24be b0a0 933e b1ed a33e 4082 383e
00000030: f52d 7b3e 453d 9c3d 06c7 4a3e 7c86 f0bd
00000040: 9802 8a3e a33d 003e 5fc4 1cbc 18a7 b33d
00000050: f74c 09be cc53 3bbe 27ed 09be dcd7 7bbe
00000060: 260b 613e 2bfd 803d d0fd 49be 1987 9a3e
00000070: 551c 99bd 6f74 ebbb a1e7 82bc ad26 c93c
00000080: 8747 19be f62c 56be 279b dbbd b6db 53bd
00000090: 961a ff3d 5af7 36bd 59a3 6dbe 4216 e93c
000000a0: 964e a4be 17d2 863e 744f 5b3c 1771 a8be
000000b0: 098c 8a3d ca00 7cbe f4e3 40bc cca0 efbd
000000c0: 1278 a8be 2188 a5be 1d0b dfbd d197 303e
000000d0: fa68 8c3c 3c2f a63e e046 a9be 1efe 10bd
000000e0: 5da7 f53c d47d 4fbe 8381 3fbe bbf5 b23d
000000f0: bf80 3a3e b94f 9cbc 887d 95be 4d6d 1d3e

embed_layer.1.weight f4 [64]
1.7972392 0.8653283 1.3653502 1.1006733 1.566131 3.7152877 0.66595054 1.9906458
0.5708815 0.8158561 2.2218735 0.86051553 1.16487 1.1116749 2.2362785 -9.657115e-07
0.88510436 2.0878806 1.3028455 1.1504468 3.4939885 1.5028068 0.51373225 2.0289812
1.0961883 0.5823209 1.8143512 2.8709922 2.5771725 1.9786174 1.7312422 2.741195
1.6718496 2.2285068 1.1028938 2.3847554 1.0303171 0.7802668 1.2906641 -4.939219e-05
2.207856 1.2000585 1.1131463 1.4576869 1.4773846 3.0871959 2.4523418 0.6790275
2.5339353 0.715024 0.7668545 0.8930124 0.55752087 0.2836671 1.3492783 0.87411547
1.2016314 1.6632183 0.7274523 0.6637684 2.126351 3.53917 2.5298781 0.38814786
00000000: ef0b e63f 2886 5d3f ccc3 ae3f dde2 8c3f
00000010: fb76 c83f 46c7 6d40 bc7b 2a3f 7bcd fe3f
00000020: 4a25 123f f2db 503f 2d33 0e40 bf4a 5c3f
00000030: 761a 953f 5d4b 8e3f 301f 0f40 989d 81b5
00000040: 3396 623f d69f 0540 a4c3 a63f d741 933f
00000050: 829d 5f40 f95b c03f f583 033f d4da 0140
00000060: e64f 8c3f fc12 153f a93c e83f 56be 3740
00000070: 65f0 2440 5643 fd3f 5899 dd3f bd6f 2f40
00000080: 2bff d53f db9f 0e40 a02b 8d3f d59f 1840
00000090: 6ee1 833f 91bf 473f 7b34 a53f 762a 4fb8
000000a0: 834d 0d40 849b 993f 947b 8e3f 7c95 ba3f
000000b0: f01a bd3f 9e94 4540 2bf3 1c40 bfd4 2d3f
000000c0: ff2b 2240 d00b 373f 9450 443f 769c 643f
000000d0: b0b9 0e3f d03c 913e 27b5 ac3f 08c6 5f3f
000000e0: 0fcf 993f 56e4 d43f 503a 3a3f baec 293f
000000f0: 2316 0840 c381 6240 86e9 2140 51bb c63e

embed_layer.1.bias f4 [64]
-0.3809149 0.053048372 0.824498 0.25355795 -0.23127171 -0.25254932 -1.5782434 -0.805408
-1.0507592 -1.7761526 0.7820406 -2.027642 -0.9380383 -0.7219025 -1.1661006 -0.75179213
-1.2139252 0.37665454 -0.3487246 -2.5745873 -0.093910605 -1.6078488 -0.7205269 -0.4062805
-1.7521626 -0.20306627 -2.383241 -0.901176 1.5975599 1.3636566 0.4526746 1.1014327
-1.79519 1.5088474 0.21188171 -0.4517458 0.24695882 -1.7636546 0.7486877 -0.7454572
-0.8099189 -1.6844906 -2.037816 -0.14311685 0.59487736 -0.16797152 -0.44388565 0.3446755
0.3891639 -1.346034 -0.479631 -1.3951837 -1.1140195 0.9082509 -1.6089469 -1.7570221
-1.2351779 -2.0928128 -0.49052426 -0.12795031 0.8114193 -0.116532534 -0.17041208 -1.5326691
00000000: 4707 c3be 4049 593d 4d12 533f 59d2 813e
00000010: 7ed2 6cbe 254e 81be e103 cabf 382f 4ebf
00000020: 477f 86bf f858 e3bf d033 483f e3c4 01c0
00000030: 4723 70bf 9ace 38bf c942 95bf 7375 40bf
00000040: e761 9bbf ddd8 c03e 088c b2be 0ac6 24c0
00000050: 3454 c0bd fdcd cdbf 7374 38bf ff03 d0be
00000060: dd46 e0bf 9bf0 4fbe 0587 18c0 78b3 66bf
00000070: d87c cc3f 4d8c ae3f f7c4 e73e bffb 8c3f
00000080: c9c8 e5bf e921 c13f 85f7 583e 3a4b e7be
00000090: c6e2 7c3e 6fbf e1bf ffa9 3f3f 48d6 3ebf
000000a0: d856 4fbf 639d d7bf 946b 02c0 398d 12be
000000b0: e249 183f ba00 2cbe fb44 e3be 4f79 b03e
000000c0: 7e40 c73e d84a acbf 3292 f5be 6195 b2bf
000000d0: 3198 8ebf 2283 683f f9f1 cdbf 1ae6 e0bf
000000e0: 4f1a 9ebf a5f0 05c0 ff25 fbbe 6805 03be
000000f0: 2db9 4f3f 9ca8 eebd 8180 2ebe 802e c4bf

embed_layer.1.running_mean f4 [64]
-24.975285 -62.396397 153.76407 -84.26824 -56.21005 -5.82897 -33.427242 -11.077672
49.8712 34.349644 -2.5088158 -37.323822 20.506258 23.656952 -55.793083 31.950686
38.932217 16.53933 -0.97219926 -2.493402 -8.081993 9.366336 87.60002 -50.47104
40.23572 -96.52542 -8.838796 -38.700275 -131.65704 -104.85079 90.629906 -26.911573
4.8134828 2.884602 19.429102 -49.47168 -81.71673 -5.14359 -6.443044 -54.13546
-17.639706 40.19955 -1.6290925 -110.819275 22.262127 4.9113317 -13.964755 127.84254
-121.800606 17.17929 34.488495 40.78758 63.775078 15.975876 -1.6838729 62.386307
21.40975 -13.752503 36.99194 -52.43945 -29.399536 -7.886863 -34.720745 -53.6201
00000000: 62cd c7c1 e995 79c2 9ac3 1943 5789 a8c2
00000010: 17d7 60c2 ec86 bac0 7fb5 05c2 253e 31c1
00000020: 1c7c 4742 0966 0942 7090 20c0 984b 15c2
00000030: d10c a441 7041 bd41 1e2c 5fc2 019b ff41
00000040: 97ba 1b42 8c50 8441 0de2 78bf e693 1fc0
00000050: d84f 01c1 83dc 1541 3633 af42 58e2 49c2
00000060: 61f1 2042 040d c1c2 b56b 0dc1 15cd 1ac2
00000070: 34a8 03c3 9bb3 d1c2 8342 b542 e74a d7c1
00000080: 0d08 9a40 529d 3840 cd6e 9b41 00e3 45c2
00000090: f76e a3c2 4a98 a4c0 6b2d cec0 b68a 58c2
000000a0: 1e1e 8dc1 57cc 2042 1a86 d0bf 78a3 ddc2
000000b0: d618 b241 a129 9d40 a36f 5fc1 61af ff42
000000c0: e999 f3c2 306f 8941 38f4 0942 7b26 2342
000000d0: ae19 7f42 309d 7f41 2689 d7bf 948b 7942
000000e0: 2b47 ab41 410a 5cc1 bff7 1342 ffc1 51c2
000000f0: 4032 ebc1 2f61 fcc0 0be2 0ac2 fb7a 56c2

embed_layer.1.running_var f4 [64]
967.6317 4269.114 24899.877 7989.65 3791.3667 279.64005 1339.1195 611.36053
2956.7913 1496.8358 332.11676 1724.7336 737.44165 947.7698 3681.7468 1160.169
1949.3987 607.2747 261.25314 363.9892 336.1483 582.46857 8294.482 2924.186
1942.78 10057.716 349.1279 2025.6892 18223.807 11776.135 9110.953 1061.3386
459.44302 400.0924 844.8411 2852.5745 7114.1313 304.59836 392.8523 3133.1567
651.89124 2050.3926 222.8822 13531.127 1017.5811 344.77014 476.64197 17363.346
15806.803 585.9476 1517.7617 1986.1825 4787.6543 567.7137 253.35056 4230.6753
721.43744 474.9441 1786.7584 3075.4216 1219.858 326.5874 1546.6333 3293.371
00000000: 6ee8 7144 e968 8545 c187 c246 33ad f945
00000010: def5 6c45 edd1 8b43 d363 a744 13d7 1844
00000020: a9cc 3845 bf1a bb44 f20e a643 7a97 d744
00000030: 445c 3844 44f1 6c44 f31b 6645 6805 9144
00000040: c2ac f344 95d1 1744 67a0 8243 9efe b543
00000050: fb12 a843 fd9d 1144 ee99 0146 fac2 3645
00000060: f6d8 f244 dd26 1d46 5f90 ae43 0e36 fd44
00000070: 9d5f 8e46 8a00 3846 d05b 0e46 d6aa 8444
00000080: b5b8 e543 d40b c843 d535 5344 3149 3245
00000090: 0d51 de45 974c 9843 186d c443 82d2 4345
000000a0: 0af9 2244 4826 0045 d8e1 5e43 826c 5346
000000b0: 3165 7e44 9462 ac43 2c52 ee43 b1a6 8746
000000c0: 36fb 7646 a57c 1244 60b8 bd44 d745 f844
000000d0: 3c9d 9545 aded 0d44 be59 7d43 6735 8445
000000e0: ff5b 3444 d878 ed43 4558 df44 bf36 4045
000000f0: 757b 9844 304b a343 4454 c144 f0d5 4d45

embed_layer2.0.weight f4 [16, 64, 2, 1]
-0.04023789 0.5802777 0.3938533 -1.3672229 -0.1722363 0.025543464 -0.27603507 0.82107013
-0.044381686 -1.1259886 -0.9866524 0.25060704 0.27890137 0.9428495 -0.07417932 0.85727566
-0.09608351 -0.04641718 0.19130014 1.6587354 -0.4290885 0.30814204 0.07535701 -1.002444
-0.64383376 1.9227175 -0.05969624 -0.51537377 0.37214205 -0.073770635 0.008710947 -0.14426048
-0.016305106 -1.8102788 0.1319757 -0.43021005 -0.660392 -0.3237336 0.36191064 0.38281888
-0.77510536 0.4479722 -0.09644769 0.46653658 -0.03309976 -1.6530672 0.5580768 -0.31006888
0.39336872 1.4815884 0.04677423 -0.8674023 -0.28541327 -0.008092291 0.79172176 -1.6090072
-0.73292744 0.63721263 -1.0918959 0.19317102 -0.10570794 -0.7696336 -0.100295946 -1.5558003
-0.16906394 1.4875189 -0.30930084 -0.049961332 -0.6716747 1.557103 0.5514288 0.08528506
0.12079186 -0.59456265 -0.33672112 -1.6210712 -0.029696072 0.9029922 0.06423501 0.023027826
0.24283262 -1.7330897 0.6090582 1.5402167 0.1654364 0.6546505 -0.09125667 -0.8434915
-0.5433316 -0.5277332 -0.5140435 0.16370226 0.7188197 -0.7281078 -0.10732616 -0.31751183
-0.6548153 1.5038885 0.055132415 -0.61120856 -0.02037314 0.8687345 -0.22118017 0.41624314
-0.4603771 1.9205761 0.051981293 1.0398195 0.44769236 -0.19599341 0.1846878 0.6746029
-0.13265899 0.96965706 -0.7935648 -0.26944217 -0.29023522 -0.58637893 0.3686796 -0.16493814
-0.22747469 1.4236984 0.23485844 -0.49058858 -0.7963931 1.7510976 -0.12885109 -0.28795448
-0.8356989 -0.30088305 0.7502388 -0.119733416 -0.10004273 -0.664256 -0.33110806 -0.8415406
-0.6423459 -0.23428304 0.09656344 -0.64577776 -0.38559425 -0.91725755 0.4060775 -1.5694225
0.0045924983 0.30628303 -0.23746571 -0.13762692 0.37089452 0.42917955 -0.29760262 0.4994544
-0.108078994 -0.63163894 -0.6443499 0.76586 0.3326445 -1.1825687 -0.043255948 -0.37768024
0.048342306 0.55412257 -0.20487912 -0.6627961 0.5809063 0.8197329 -0.3691863 1.0496494
-0.51341814 0.5759907 -0.56352764 -0.33802512 -0.09637813 -0.55339575 0.737499 -0.9024129
-0.22391748 0.4811527 0.10472306 -1.5032742 0.136515 0.4696579 -0.6219943 -0.4786391
0.6963883 -0.003852864 0.58220893 -0.88252705 -0.58061045 0.55509233 0.891453 -0.16217686
-0.70663756 -0.1169571 0.64799595 1.3504882 0.36940384 -0.6758069 -0.7471235 -0.6620669
0.7188098 -0.10219455 -0.15145612 -1.2887567 -0.87144667 -0.870035 0.0052804193 -0.17354463
-0.40113705 -0.7202356 -0.42828494 -0.40514937 0.00790341 0.41939119 -0.1290534 -0.6687171
0.31726316 -0.37978882 0.31791073 -0.20696326 0.26484683 -0.6625641 -0.20900565 0.1433917
-0.30458853 -0.74113494 0.04200733 0.20176929 -0.094988056 -0.86963993 0.10791269 1.0996467
-0.08599917 -0.95607513 -0.5764026 -0.33219323 0.08871214 -0.036027886 -0.031190582 0.52813274
-0.2882598 0.6624282 0.059048332 0.50397456 0.10097741 -0.5672907 -0.07904854 -0.35527956
-0.53109413 0.4050895 -0.8313137 0.3324993 -0.7327835 0.35271108 -0.108471334 -0.23437184
00000000: 7cd0 24bd 148d 143f 24a7 c93e 2901 afbf
00000010: b65e 30be 8740 d13c 7854 8dbe a731 523f
00000020: 92c9 35bd 6520 90bf 4095 7cbf 914f 803e
00000030: 29cc 8e3e 965e 713f 54eb 97bd 6b76 5b3f
00000040: 6ec7 c4bd f11f 3ebd 2fe4 433e 7151 d43f
00000050: 7db1 dbbe cbc4 9d3e c754 9a3d 1650 80bf
00000060: 4ad2 24bf 9b1b f63f 0b84 74bd 89ef 03bf
00000070: 6789 be3e 0f15 97bd 5cb8 0e3c 05b9 13be
00000080: 4992 85bc 37b7 e7bf a324 073e 7e44 dcbe
00000090: 730f 29bf 69c0 a5be 5a4c b93e d600 c43e
000000a0: 4e6d 46bf 9d5c e53e 5e86 c5bd e2dd ee3e
000000b0: 9d93 07bd b597 d3bf 1fde 0e3f 59c1 9ebe
000000c0: a067 c93e b0a4 bd3f 5696 3f3d 140e 5ebf
000000d0: b021 92be 8795 04bc 47ae 4a3f f3f3 cdbf
000000e0: 22a1 3bbf 5e20 233f 3fc3 8bbf a0ce 453e
000000f0: 687d d8bd b506 45bf f667 cdbd 7724 c7bf
00000100: 191f 2dbe 0567 be3f ae5c 9ebe 41a4 4cbd
00000110: e0f2 2bbf 274f c73f 702a 0d3f efa9 ae3d
00000120: b961 f73d 4235 18bf b666 acbe 437f cfbf
00000130: 2d45 f3bc 7f2a 673f a58d 833d daa4 bc3c
00000140: 1da9 783e e2d5 ddbf 3deb 1b3f d225 c53f
00000150: 2968 293e 2d97 273f c7e4 babd 0fef 57bf
00000160: c817 0bbf 8619 07bf 5b98 03bf 91a1 273e
00000170: 9104 383f 4665 3abf d1cd dbbd e990 a2be
00000180: faa1 27bf 6b7f c03f 87d2 613d 2a78 1cbf
00000190: 92e5 a6bc 6265 5e3f 0e7d 62be d21d d53e
000001a0: 8cb6 ebbe 70d5 f53f 56ea 543d ce18 853f
000001b0: ef37 e53e 7fb2 48be cc1e 3d3e c7b2 2c3f
000001c0: c2d7 07be 723b 783f 1027 4bbf 53f4 89be
000001d0: b699 94be ee1c 16bf 93c3 bc3e 8be5 28be
000001e0: 20ef 68be c03b b63f bb7e 703e 6d2e fbbe
000001f0: 6be0 4bbf f723 e03f 8af1 03be c56e 93be
00000200: 5df0 55bf 580d 9abe a60f 403f cb36 f5bd
00000210: 34e3 ccbd ae0c 2abf ff86 a9be 346f 57bf
00000220: c870 24bf e5e7 6fbe 0ec3 c53d b151 25bf
00000230: 9c6c c5be 64d1 6abf 64e9 cf3e d6e2 c8bf
00000240: ab7c 963b 21d1 9c3e 362a 73be 12ee 0cbe
00000250: e3e5 bd3e 6cbd db3e 5f5f 98be 7db8 ff3e
00000260: 8558 ddbd 17b3 21bf 1df4 24bf 670f 443f
00000270: 6150 aa3e 695e 97bf 262d 31bd 4e5f c1be
00000280: 9502 463d fada 0d3f d5cb 51be 01ad 29bf
00000290: 46b6 143f 04da 513f fd05 bdbe e95a 863f
000002a0: 5f6f 03bf 2074 133f 5943 10bf a111 adbe
000002b0: e661 c5bd 58ab 0dbf bccc 3c3f 8804 67bf
000002c0: a04a 65be a659 f63e 0b79 d63d 4a6b c0bf
000002d0: 97ca 0b3e 0077 f03e 053b 1fbf 2f10 f5be
000002e0: 8146 323f 5580 7cbb a50b 153f 4bed 61bf
000002f0: e3a2 14bf 881a 0e3f 4436 643f b111 26be
00000300: 33e6 34bf 3487 efbd 10e3 253f ccdc ac3f
00000310: 8022 bd3e ae01 2dbf 7c43 3fbf 377d 29bf
00000320: eb03 383f 604b d1bd 5017 1bbe fbf5 a4bf
00000330: 2117 5fbf 9dba 5ebf 5e07 ad3b afb5 31be
00000340: d661 cdbe 5c61 38bf 2a48 dbbe bd6f cfbe
00000350: 4e7d 013c 71ba d63e 9326 04be 0b31 2bbf
00000360: 5170 a23e ae73 c2be 32c5 a23e 2dee 53be
00000370: 019a 873e cd9d 29bf 9405 56be 46d5 123e
00000380: 07f3 9bbe 05bb 3dbf e10f 2c3d 9c9c 4e3e
00000390: 1989 c2bd b9a0 5ebf 5401 dd3d 39c1 8c3f
000003a0: 5520 b0bd 57c1 74bf 1f8f 13bf 3b15 aabe
000003b0: b6ae b53d fa91 13bd 6483 ffbc b533 073f
000003c0: ca96 93be e594 293f aadc 713d 7a04 013f
000003d0: 3fcd ce3d f739 11bf 33e4 a1bd 34e7 b5be
000003e0: c9f5 07bf e467 cf3e fad0 54bf 593d aa3e
000003f0: b397 3bbf 8c96 b43e 3826 debd 2cff 6fbe

embed_layer2.0.bias f4 [16]
-0.122519 -0.006936722 -0.32285294 0.1054251 -0.07587964 0.51272255 9.759804e-05 0.16804935
0.29986244 -0.3649533 0.11249289 0.21919516 -0.081132494 0.108281 0.40445223 -0.026661418
00000000: 3eeb fabd 714d e3bb fb4c a5be 1de9 d73d
00000010: c966 9bbd c941 033f 8cad cc38 2115 2c3e
00000020: 9287 993e 29db babe ac62 e63d b274 603e
00000030: cb28 a6bd 6ec2 dd3d 5d14 cf3e 0c69 dabc

embed_layer2.1.weight f4 [16]
2.3812172 2.1140993 2.8934085 1.9334352 1.9123067 4.2723503 2.472802 3.8518035
3.1611776 3.1727803 2.512509 3.0084062 1.4136426 2.4418736 3.3129182 1.5760454
00000000: dd65 1840 674d 0740 9b2d 3940 ce7a f73f
00000010: 77c6 f43f 18b7 8840 6342 1e40 f383 7640
00000020: bc50 4a40 d50e 4b40 f3cc 2040 ba89 4040
00000030: 3ef2 b43f a847 1c40 da06 5440 dbbb c93f

embed_layer2.1.bias f4 [16]
0.23807353 0.35163602 -0.72140515 -0.55565584 0.41988793 -0.7940593 -0.6016486 -0.72799164
-0.19614744 -0.3593845 -0.3213099 0.010229331 0.40541035 -0.53147656 -0.58498526 0.24476206
00000000: 8cc9 733e a309 b43e 02ae 38bf 763f 0ebf
00000010: 8dfb d63e 7847 4bbf a505 1abf a95d 3abf
00000020: e0da 48be 3f01 b8be bb82 a4be ed98 273c
00000030: f291 cf3e d90e 08bf 98c1 15bf e8a2 7a3e

embed_layer2.1.running_mean f4 [16]
0.9383518 -10.385197 -17.561901 26.905787 -6.8905087 -3.690899 -2.0376394 2.654628
3.5016987 -1.8753079 25.064447 -8.965698 7.653304 10.5131235 1.6338282 7.62011
00000000: d337 703f c429 26c1 c67e 8cc1 0d3f d741
00000010: 0c7f dcc0 b037 6cc0 af68 02c0 6de5 2940
00000020: d51b 6040 170a f0bf fd83 c841 8073 0fc1
00000030: dee7 f440 c135 2841 4821 d13f f1d7 f340

embed_layer2.1.running_var f4 [16]
35.88327 24.208487 14.389812 16.140638 34.265614 20.300365 24.871151 13.860233
26.36912 14.768478 16.973133 14.661448 24.038164 34.980442 20.87386 23.894855
00000000: 7888 0f42 fbaa c141 ac3c 6641 0720 8141
00000010: fd0f 0942 2667 a241 1ef8 c641 84c3 5d41
00000020: f5f3 d241 b04b 6c41 fac8 8741 4a95 6a41
00000030: 294e c041 f9eb 0b42 aafd a641 aa28 bf41

Fix_Position.pe f4 [1, 150, 16]
0.0 1.0 0.0 1.0 0.0 1.0 0.0 1.0
0.0 1.0 0.0 1.0 0.0 1.0 0.0 1.0
0.10646451 0.9943165 0.033724565 0.99943113 0.010666464 0.99994314 0.0033730897 0.99999434
0.0010666664 0.99999946 0.00033730952 0.99999994 0.00010666666 1.0 3.373097e-05 1.0
0.21171884 0.9773306 0.06741076 0.9977253 0.021331714 0.9997724 0.006746141 0.99997723
0.0021333317 0.99999774 0.000674619 0.99999976 0.00021333332 1.0 6.746194e-05 1.0
0.31456655 0.94923544 0.10102027 0.9948844 0.031994537 0.99948806 0.010119116 0.9999488
0.0031999946 0.9999949 0.0010119284 0.9999995 0.00032 0.99999994 0.000101192905 1.0
0.41383862 0.91035026 0.13451485 0.9909116 0.04265372 0.9990899 0.013491974 0.999909
0.0042666537 0.9999909 0.0013492376 0.9999991 0.00042666664 0.99999994 0.00013492387 1.0
0.5084066 0.8611171 0.1678564 0.9858115 0.05330805 0.99857813 0.01686468 0.9998578
0.005333308 0.99998575 0.0016865468 0.99999857 0.00053333334 0.9999999 0.00016865483 1.0
0.59719545 0.8020958 0.20100698 0.9795898 0.06395631 0.9979527 0.020237194 0.9997952
0.006399956 0.9999795 0.0020238557 0.999998 0.0006399999 0.9999998 0.00020238581 1.0
0.679196 0.73395693 0.2339289 0.97225374 0.07459731 0.9972137 0.02360948 0.9997212
0.0074665975 0.9999721 0.0023611647 0.9999972 0.00074666657 0.9999997 0.00023611677 1.0
0.7534762 0.6574752 0.26658463 0.9638115 0.08522981 0.9963613 0.026981493 0.99963593
0.00853323 0.9999636 0.002698473 0.99999636 0.00085333316 0.99999964 0.00026984775 0.99999994
0.8191916 0.57351995 0.2989371 0.9542728 0.09585261 0.99539554 0.030353202 0.99953926
0.009599852 0.9999539 0.003035781 0.9999954 0.0009599998 0.9999995 0.0003035787 0.99999994
0.8755953 0.48304552 0.33094952 0.94364846 0.106464505 0.9943165 0.03372456 0.99943113
0.010666464 0.99994314 0.003373089 0.99999434 0.0010666664 0.99999946 0.00033730967 0.99999994
0.922046 0.38708028 0.3625854 0.93195057 0.11706428 0.9931243 0.037095547 0.99931175
0.011733064 0.99993116 0.0037103961 0.99999315 0.001173333 0.99999934 0.00037104063 0.99999994
0.95801586 0.28671524 0.39380878 0.9191924 0.12765075 0.9918192 0.0404661 0.9991809
0.01279965 0.9999181 0.004047703 0.99999183 0.0012799996 0.99999917 0.00040477162 0.99999994
0.983096 0.18309098 0.42458415 0.9053885 0.1382227 0.99040115 0.043836195 0.99903876
0.013866222 0.99990386 0.00438501 0.9999904 0.0013866662 0.99999905 0.00043850258 0.9999999
0.99700123 0.07738554 0.45487648 0.89055455 0.14877892 0.9888705 0.0472058 0.99888515
0.014932779 0.9998885 0.004722316 0.99998885 0.0014933327 0.99999887 0.0004722335 0.9999999
0.9995736 -0.029199546 0.48465124 0.87470746 0.15931821 0.98722726 0.050574858 0.9987203
0.015999317 0.999872 0.0050596213 0.9999872 0.0015999993 0.99999875 0.0005059645 0.9999999
00000000: 0000 0000 0000 803f 0000 0000 0000 803f
00000010: 0000 0000 0000 803f 0000 0000 0000 803f
00000020: 0000 0000 0000 803f 0000 0000 0000 803f
00000030: 0000 0000 0000 803f 0000 0000 0000 803f
00000040: 110a da3d 878b 7e3f c522 0a3d b8da 7f3f
00000050: 65c2 2e3c 46fc 7f3f 0e0f 5d3b a1ff 7f3f
00000060: 63cf 8b3a f7ff 7f3f ebd8 b039 ffff 7f3f
00000070: 3ab2 df38 0000 803f 5a7a 0d38 0000 803f
00000080: d3cc 583e 5732 7a3f a70e 8a3d ed6a 7f3f
00000090: d9bf ae3c 16f1 7f3f bb0e dd3b 82fe 7f3f
000000a0: 5ecf 0b3b daff 7f3f ead8 303a fcff 7f3f
000000b0: 3ab2 5f39 0000 803f 5a7a 8d38 0000 803f
000000c0: de0e a13e 1801 733f b7e3 ce3d beb0 7e3f
000000d0: b40c 033d 73de 7f3f a6ca 253c a5fc 7f3f
000000e0: 00b7 513b aaff 7f3f afa2 843a f8ff 7f3f
000000f0: acc5 a739 ffff 7f3f 8737 d438 0000 803f
00000100: a8e2 d33e b70c 693f 43be 093e 62ac 7d3f
00000110: abb5 2e3d 5bc4 7f3f 710d 5d3c 09fa 7f3f
00000120: 49cf 8b3b 67ff 7f3f e7d8 b03a f1ff 7f3f
00000130: 3ab2 df39 ffff 7f3f 5a7a 0d39 0000 803f
00000140: ef26 023f 2c72 5c3f 8ce2 2b3e 245e 7c3f
00000150: 8b59 5a3d d1a2 7f3f cc27 8a3c aef6 7f3f
00000160: 08c3 ae3b 11ff 7f3f 1f0f dd3a e8ff 7f3f
00000170: 65cf 0b3a feff 7f3f f0d8 3039 0000 803f
00000180: cde1 183f 2656 4d3f c6d4 4d3e 66c6 7a3f
00000190: 87fb 823d d479 7f3f 79c8 a53c 94f2 7f3f
000001a0: b9b6 d13b a8fe 7f3f aaa2 043b deff 7f3f
000001b0: abc5 273a fdff 7f3f 8737 5439 0000 803f
000001c0: cadf 2d3f 9ae4 3b3f 0f8b 6f3e 9fe5 783f
000001d0: 79c6 983d 6649 7f3f ab68 c13c bbed 7f3f
000001e0: 5caa f43b 2cfe 7f3f c5bd 1a3b d1ff 7f3f
000001f0: f2bb 433a fbff 7f3f 1d96 7739 0000 803f
00000200: d1e3 403f 4b50 283f c87d 883e 5abc 763f
00000210: f78c ae3d 8911 7f3f 4b08 dd3c 24e8 7f3f
00000220: f6ce 0b3c 9dfd 7f3f ddd8 303b c3ff 7f3f
00000230: 38b2 5f3a faff 7f3f 5a7a 8d39 ffff 7f3f
00000240: 8ab6 513f 34d2 123f 490e 993e 394b 743f
00000250: 604e c43d 3ed2 7e3f 47a7 f83c cee1 7f3f
00000260: b348 1d3c fbfc 7f3f f4f3 463b b3ff 7f3f
00000270: 7fa8 7b3a f8ff 7f3f a529 9f39 ffff 7f3f
00000280: 0327 603f be51 f73e 3772 a93e f292 713f
00000290: 100a da3d 878b 7e3f c422 0a3d b8da 7f3f
000002a0: 65c2 2e3c 46fc 7f3f 0b0f 5d3b a1ff 7f3f
000002b0: 63cf 8b3a f7ff 7f3f f0d8 b039 ffff 7f3f
000002c0: 350b 6c3f 632f c63e cba4 b93e 5094 6e3f
000002d0: 66bf ef3d 653d 7e3f 80f1 173d e5d2 7f3f
000002e0: 0a3c 403c 7dfb 7f3f 1e2a 733b 8dff 7f3f
000002f0: 86ca 993a f5ff 7f3f 3b88 c239 ffff 7f3f
00000300: 8740 753f 57cc 923e 4ea1 c93e 3150 6b3f
00000310: e1b6 023e dde7 7d3f c8bf 253d 52ca 7f3f
00000320: a0b5 513c a2fa 7f3f 98a2 843b 77ff 7f3f
00000330: a9c5 a73a f2ff 7f3f 8737 d439 ffff 7f3f
00000340: 2eac 7b3f 347c 3b3e 1863 d93e 8ac7 673f
00000350: 408a 0d3e ee8a 7d3f 958d 333d 01c1 7f3f
00000360: 272f 633c b3f9 7f3f 21b0 8f3b 5fff 7f3f
00000370: ccc0 b53a f0ff 7f3f d2e6 e539 feff 7f3f
00000380: 793b 7f3f 4f7c 9e3d 92e5 e83e 62fb 633f
00000390: 8059 183e 9e26 7d3f de5a 413d f0b6 7f3f
000003a0: 9da8 743c b1f8 7f3f a8bd 9a3b 45ff 7f3f
000003b0: eebb c33a edff 7f3f 1c96 f739 feff 7f3f
000003c0: 0ee4 7f3f e333 efbc 3524 f83e d4ec 5f3f
000003d0: 5024 233e edba 7c3f 9527 4f3d 22ac 7f3f
000003e0: 0011 833c 9df7 7f3f 2ecb a53b 29ff 7f3f
000003f0: 11b7 d13a ebff 7f3f b4a2 043a feff 7f3f

attention_layer.relative_bias_table f4 [299, 8]
0.73981786 -1.109988 -1.136276 -1.641795 -0.40099105 -2.8524575 -0.8064794 0.8941581
-0.61459076 0.36653093 0.2740089 -1.2570329 -0.530588 0.1742458 -1.8496255 -0.756778
-2.0901375 0.8886447 0.3664877 -1.0533429 -2.4009662 -0.5772976 0.38265985 -0.6046448
-2.2172306 0.43001816 1.15647 -0.49841622 -2.0702126 0.17653841 -0.20241506 -0.17687483
-0.6654932 0.755735 1.3218018 0.62928706 0.33137712 1.155359 -0.49073628 0.66287494
-0.5096622 0.07856283 0.5560612 0.49576867 0.40704015 1.0897322 -0.7602762 0.44573674
0.6888032 0.33541578 0.25898823 0.6488833 0.6782087 0.38114196 -0.5874109 0.59839034
-0.2834334 0.04414493 0.09876314 0.7361584 -0.08849001 0.16712259 -0.57526815 1.6216731
-0.41401735 0.16969688 -0.40242833 0.19913746 -0.27896783 0.30911773 -0.37594992 0.79961073
-0.44948035 0.7612132 -0.5041539 0.29989654 0.24297203 -0.18899123 0.04082517 0.28715566
-0.375263 0.10757953 0.3908752 0.7904369 -0.756879 -0.17927825 0.23891893 0.3928567
-0.18196346 0.27924415 0.8170147 0.8783117 -0.71469235 -0.27221027 0.15416454 0.50251615
0.037439983 0.5472156 -0.4872494 0.6090986 0.17284703 -0.34184605 -0.06267563 0.62980855
-0.65074015 0.77221584 0.38270545 0.25508082 0.45771533 -0.61522156 -0.1693352 0.11791093
0.19617602 0.7270851 -0.051078055 0.28557497 0.14047469 -0.26252666 0.027754283 -0.19276124
0.035032682 0.43380567 -0.29075202 0.34122235 -0.17534459 -0.18905316 -0.060403787 0.2891833
-0.15190545 0.9964041 -0.12571706 -0.02850126 -0.14474578 -0.46142945 0.082137816 0.037290126
-0.43836462 0.5656668 0.008366004 0.13284019 -0.1501115 -0.3759064 0.26213855 0.6592911
-0.38246244 0.6931355 0.2435857 -0.026106717 -0.19138591 0.02186495 0.097918384 0.5618141
-0.23412065 0.79254115 -0.031653643 -0.04117266 0.4823274 -0.16951612 0.09793676 0.36065564
-0.21281534 0.8133043 -0.29684806 0.20670377 0.2345753 -0.2841 0.065463565 0.082309954
-0.04739039 0.40719062 -0.21081059 0.22805376 -0.39950526 -0.39168325 0.035486873 0.26773956
0.0871548 0.7037436 0.15638319 0.36764932 0.46403703 -0.2790953 0.024906509 -0.0606222
0.21957166 0.8946412 0.054656483 -0.0526321 -0.4228976 -0.470566 0.021502206 -0.092640236
-0.14121005 0.27970552 0.24004737 0.27892357 0.20832899 -0.34977257 0.039783813 0.15705507
0.1850615 0.41892865 0.25646818 0.30992767 -0.4688534 -0.38691473 0.030485492 -0.030981993
0.19425835 -0.20026228 -0.006107848 0.17207588 0.18458058 -0.36396185 -0.05689202 -0.01399989
-0.41180152 -0.0022632962 0.20619759 0.28100958 -0.05193625 -0.35450113 0.07657056 0.31097037
0.06056372 0.5639915 -0.34102774 -0.045626067 -0.3729718 -0.35292646 0.44186568 -0.31208915
-0.029342826 0.59453255 0.2295626 -0.1442264 -0.07800368 -0.10064465 0.0014140087 0.24103642
0.19286473 0.22648257 0.40648243 0.11007781 -0.32043746 0.121313095 0.094347306 0.09786606
-0.34462216 1.1250663 0.2014755 -0.022660255 0.00720058 -0.103506364 0.23780343 -0.24570523
00000000: b464 3d3f 1614 8ebf 7e71 91bf 5726 d2bf
00000010: b34e cdbe aa8e 36c0 6f75 4ebf 8ce7 643f
00000020: d255 1dbf f1a9 bb3e e54a 8c3e 74e6 a0bf
00000030: 9dd4 07bf 7e6d 323e 87c0 ecbf 34bc 41bf
00000040: d0c4 05c0 387e 633f 47a4 bb3e f1d3 86bf
00000050: 6ea9 19c0 c7c9 13bf feeb c33e 00ca 1abf
00000060: 1be7 0dc0 572b dc3e 3507 943f 6930 ffbe
00000070: 5d7e 04c0 7cc6 343e e545 4fbe ad1e 35be
00000080: c35d 2abf d977 413f cd30 a93f f518 213f
00000090: 43aa a93e cee2 933f c941 fbbe 2cb2 293f
000000a0: 3979 02bf 8de5 a03d 075a 0e3f 64d5 fd3e
000000b0: 9167 d03e 587c 8b3f 76a1 42bf 9b37 e43e
000000c0: 6855 303f 9ebb ab3e 1b9a 843e 371d 263f
000000d0: 169f 2d3f 0a25 c33e 9060 16bf 1c30 193f
000000e0: 2f1e 91be 50d1 343d 5444 ca3d e074 3c3f
000000f0: 403a b5bd 2f22 2b3e c644 13bf fc92 cf3f
00000100: 15fa d3be 05c5 2d3e 160b cebe b1ea 4b3e
00000110: dfd4 8ebe ae44 9e3e 827c c0be 4ab3 4c3f
00000120: 4a22 e6be dede 423f 3b10 01bf 0a8c 993e
00000130: a9cd 783e eb86 41be 4b38 273d 1106 933e
00000140: 7922 c0be a852 dc3d cb20 c83e 135a 4a3f
00000150: d2c2 41bf b894 37be 2aa7 743e 8324 c93e
00000160: a154 3abe 17f9 8e3e e027 513f 09d9 603f
00000170: 14f6 36bf 255f 8bbe 4fdd 1d3e e6a4 003f
00000180: ab5a 193d 5216 0c3f c178 f9be e3ed 1b3f
00000190: d0fe 303e 7206 afbe 155c 80bd 223b 213f
000001a0: e896 26bf f0af 453f f8f1 c33e f499 823e
000001b0: aa59 ea3e 297f 1dbf 3566 2dbe 497b f13d
000001c0: 5ee2 483e 4022 3a3f 3937 51bd e236 923e
000001d0: 99d8 0f3e e569 86be f35c e33c 3463 45be
000001e0: 6e7e 0f3d c71b de3e 73dd 94be b2b4 ae3e
000001f0: 888d 33be 2797 41be f669 77bd d50f 943e
00000200: 1a8d 1bbe 5714 7f3f f9bb 00be 797b e9bc
00000210: 3d38 14be 7b40 ecbe df37 a83d 88bd 183d
00000220: 5471 e0be 8acf 103f 9011 093c 4207 083e
00000230: d4b6 19be ce76 c0be 0637 863e 4dc7 283f
00000240: 1ed2 c3be 5471 313f 886e 793e c1dd d5bc
00000250: abfa 43be 201e b33c 6f89 c83d 0dd3 0f3f
00000260: 53bd 6fbe fae3 4a3f 40a7 01bd aaa4 28bd
00000270: 9ef3 f63e a295 2dbe 1193 c83d dba7 b83e
00000280: 44ec 59be b634 503f 78fc 97be 27aa 533e
00000290: 8234 703e 8e75 91be c311 863d 1f92 a83d
000002a0: 6d1c 42bd 4a7b d03e bbde 57be ed86 693e
000002b0: f48b ccbe b58a c8be af5a 113d 2915 893e
000002c0: 377e b23d 8a28 343f ea22 203e 883c bc3e
000002d0: 4396 ed3e 94e5 8ebe bc08 cc3c fc4e 78bd
000002e0: 65d7 603e 3507 653f 7adf 5f3d c294 57bd
000002f0: 0986 d8be 07ee f0be 6525 b03c 2aba bdbd
00000300: 5e99 10be 9035 8f3e face 753e 12cf 8e3e
00000310: 3254 553e 6415 b3be 5af4 223d 0bd3 203e
00000320: c380 3d3e d17d d63e cc4f 833e d7ae 9e3e
00000330: 8e0d f0be b019 c6be b6bc f93c f3cd fdbc
00000340: a9eb 463e 8e11 4dbe 5824 c8bb a934 303e
00000350: b102 3d3e 3559 babe 9b07 69bd cb5f 65bc
00000360: a6d7 d2be cf53 14bb 7625 533e 7de0 8f3e
00000370: 1bbb 54bd 2c81 b5be 07d1 9c3d 8237 9f3e
00000380: aa11 783d bf61 103f 309b aebe 66e2 3abd
00000390: 29f6 bebe c7b2 b4be 383c e23e 26ca 9fbe
000003a0: 5e60 f0bc 4933 183f 7512 6b3e 16b0 13be
000003b0: 65c0 9fbd c81e cebd 4256 b93a 40d2 763e
000003c0: 557e 453e 0ceb 673e 771e d03e 7a70 e13d
000003d0: 6110 a4be 0073 f83d 2939 c13d 006e c83d
000003e0: 5172 b0be 2c02 903f 984f 4e3e 00a2 b9bc
000003f0: d8f2 eb3b 25fb d3bd be82 733e 279a 7bbe

attention_layer.key.weight f4 [16, 16]
-0.066822864 0.15675841 0.36001754 0.35493422 0.051567856 -0.30417043 0.8945447 -0.26214752
1.3359681 0.2820291 0.3004651 -1.3214844 0.46870565 1.3387871 0.3908664 1.5577691
0.6052325 -0.008903028 -0.55696636 0.056175496 0.54681337 0.16687588 0.5073008 0.14584216
-0.94666815 0.18261263 -0.34670395 0.34498325 0.37282333 -1.1022679 -0.5158115 -1.2031096
0.68817806 0.35412282 -0.44948 0.6015026 -1.2641305 -0.5171998 0.9311517 0.4939731
0.913841 -0.24365881 -0.4477537 -0.12911747 -0.19938214 0.32632205 -0.8341541 0.12049932
-0.30093703 -0.061482545 0.40724686 0.20456722 -0.49941638 -0.48895493 1.9626825 -0.25732794
3.775377 -0.035741888 -0.2131325 0.6678959 0.54511577 1.0094934 -0.7378557 1.1742059
0.852075 -0.033892527 0.12159022 1.4020681 -0.65317124 -0.29082632 1.3780339 -0.29505432
0.43235654 0.5637997 1.6246777 -0.2596717 1.5899243 0.43236426 0.14681242 -0.10967674
-1.21881 0.47644326 -0.4631428 0.570903 -0.71156484 0.5354649 0.55651814 0.671251
-0.76461416 -0.24121799 1.0260165 0.0791396 -0.3429436 -0.23825467 -1.0868676 0.35962465
-0.122042924 -0.5242343 0.8256663 0.719617 -1.4039192 -0.2606474 1.4196622 0.041065738
1.8396095 -0.3323869 0.44499928 0.63836575 2.7011871 0.57070905 -0.084595546 1.8892304
-0.19786924 -0.022338828 -0.31526864 -0.17087983 0.27834064 0.25504214 -1.8381898 0.68547225
-5.1715527 0.7818359 1.029408 -1.7336173 -1.0177375 -0.2759469 0.08422578 -0.07210194
-0.047386862 -0.15978654 0.021047566 0.040086314 0.58323795 0.25555834 1.6291425 1.5561035
-0.1995119 1.0015222 0.6437933 0.4139216 -0.09456672 1.7473047 1.4136816 0.03211948
0.20409948 0.020706639 -0.30634388 0.54360497 -0.2152768 -0.63530654 -0.031920094 -0.32309118
0.7023777 0.66845345 -0.3127555 -1.4166503 -0.98765457 0.29464838 0.80289406 -1.5522739
-0.25458565 0.23172598 1.0502443 -0.33507997 0.6437116 -0.45275775 -1.0769078 -0.094542205
1.2197484 0.04528073 -0.18787752 -0.14804427 -0.086531505 -0.87595546 2.0379367 -0.29751152
-0.5399737 0.21618034 0.52279943 -1.601261 -0.6655449 0.4022752 -0.56451017 -0.06371792
-0.9587575 1.0358633 0.2103516 0.053560846 0.13669766 -0.8934326 -1.2991579 2.3014255
0.5117903 0.74821305 -1.4688673 -0.35899726 0.03867441 0.10998658 -0.91006297 -0.0590497
0.1708799 -0.4392346 0.42717436 -0.36280653 0.5293455 -0.75756466 0.92630017 -0.4287201
-0.40027377 0.08950351 -0.15374023 -1.8984528 -0.09013252 0.008646743 -1.6879345 -0.115914784
-4.5764213 -0.3009388 -0.17131895 -0.43160138 -0.049361706 -0.9094093 0.5300381 -0.47914666
-0.41183946 0.29005727 0.31265286 1.0960703 -2.3355596 0.28834626 0.3257657 -0.2235817
-0.38270268 -0.114290886 1.3505961 -0.39163005 0.5062074 1.1152365 0.40613195 0.18982904
0.120670296 0.13381904 -0.5425769 0.26026428 -0.38385707 0.4550822 -0.23548628 0.055339165
-0.9123141 0.7458931 0.43667436 -1.5206543 -0.41988617 -2.0439875 0.14772707 -0.6617437
00000000: 6dda 88bd 4785 203e 3854 b83e f0b9 b53e
00000010: d138 533d 3abc 9bbe e200 653f 3338 86be
00000020: 0101 ab3f 1e66 903e 90d6 993e 6726 a9bf
00000030: 30fa ef3e 605d ab3f a41f c83e fa64 c73f
00000040: 84f0 1a3f 02de 11bc 5995 0ebf 4718 663d
00000050: f6fb 0b3f 83e1 2a3e 77de 013f a657 153e
00000060: d858 72bf cefe 3a3e 2e83 b1be a5a1 b03e
00000070: b3e2 be3e 1d17 8dbf 390c 04bf 7fff 99bf
00000080: 702c 303f 964f b53e 3e22 e6be 13fc 193f
00000090: 07cf a1bf 3567 04bf f55f 6e3f 0bea fc3e
000000a0: 7cf1 693f b281 79be f93f e5be 5f37 04be
000000b0: d52a 4cbe af13 a73e 208b 55bf 59c8 f63d
000000c0: 6b14 9abe 1fd5 7bbd a982 d03e 127a 513e
000000d0: 81b3 ffbe 4d58 fabe 2e39 fb3f 7dc0 83be
000000e0: c79f 7140 1666 12bd 683f 5abe 3afb 2a3f
000000f0: b58c 0b3f 1437 813f 1ce4 3cbf 614c 963f
00000100: 9621 5a3f e4d2 0abd 4b04 f93d f876 b33f
00000110: 3b36 27bf 30e7 94be 6a63 b03f 5c11 97be
00000120: d65d dd3e 2d55 103f 70f5 cf3f b0f3 84be
00000130: a482 cb3f d95e dd3e ff55 163e 339e e0bd
00000140: f701 9cbf 5ff0 f33e 0e21 edbe b326 123f
00000150: 1d29 36bf 3a14 093f f977 0e3f 1bd7 2b3f
00000160: c1bd 43bf d901 77be 8254 833f f113 a23d
00000170: 4e96 afbe 08f9 73be 7a1e 8bbf b920 b83e
00000180: a4f1 f9bd 3834 06bf de5e 533f d238 383f
00000190: a0b3 b3bf 9373 85be 7eb7 b53f 8c34 283d
000001a0: 5378 eb3f 9e2e aabe f2d6 e33e f06b 233f
000001b0: 40e0 2c40 fd19 123f 6e40 adbd 4dd2 f13f
000001c0: 3c9e 4abe ebff b6bc e46a a1be 1ffb 2ebe
000001d0: aa82 8e3e e294 823e ce49 ebbf 1c7b 2f3f
000001e0: 5c7d a5c0 6626 483f a4c3 833f 2ce7 ddbf
000001f0: 3945 82bf e948 8dbe 917e ac3d 2faa 93bd
00000200: ba18 42bd 159f 23be f26b ac3c 8c31 243d
00000210: 154f 153f 8bd8 823e be87 d03f 662e c73f
00000220: d94c 4cbe e131 803f a3cf 243f 88ed d33e
00000230: 32ac c1bd aea7 df3f 85f3 b43f b78f 033d
00000240: 74ff 503e f8a0 a93c 1bd9 9cbe b229 0b3f
00000250: 8571 5cbe 73a3 22bf a5be 02bd 356c a5be
00000260: 06cf 333f c41f 2b3f 7d21 a0be cc54 b5bf
00000270: eed6 7cbf 27dc 963e 778a 4d3f e9b0 c6bf
00000280: 0d59 82be 9349 6d3e 686e 863f 9a8f abbe
00000290: 49ca 243f ddcf e7be 1dd8 89bf 589f c1bd
000002a0: b720 9c3f 4978 393d f762 40be eb98 17be
000002b0: 6e37 b1bd 9e3e 60bf 8e6d 0240 6e53 98be
000002c0: b73b 0abf 615e 5d3e 2fd6 053f 1ff6 ccbf
000002d0: 2761 2abf 04f7 cd3e bd83 10bf 8a7e 82bd
000002e0: 2271 75bf 2b97 843f 6966 573e 9e62 5b3d
000002f0: 79fa 0b3e 00b8 64bf ce4a a6bf 8e4a 1340
00000300: b004 033f e48a 3f3f d803 bcbf 7dce b7be
00000310: 0f69 1e3d a540 e13d e3f9 68bf 19de 71bd
00000320: 24fb 2e3e 5ce3 e0be 99b6 da3e c7c1 b9be
00000330: 3083 073f c2ef 41bf 0222 6d3f 3381 dbbe
00000340: aff0 ccbe 9e4d b73d 146e 1dbe 8000 f3bf
00000350: 6697 b8bd 12ab 0d3c 3d0e d8bf bb64 edbd
00000360: 0b72 92c0 a714 9abe 3c6e 2fbe dbfa dcbe
00000370: 802f 4abd 0ccf 68bf 94b0 073f b652 f5be
00000380: 9fdc d2be 6382 943e 0914 a03e 084c 8c3f
00000390: cf79 15c0 1fa2 933e c3ca a63e 9af2 64be
000003a0: 9bf1 c3be 5711 eabd 55e0 ac3f bc83 c8be
000003b0: cf96 013f 12c0 8e3f 87f0 cf3e 8b62 423e
000003c0: fd21 f73d dc07 093e 52e6 0abf 5c41 853e
000003d0: ea88 c4be 8900 e93e 5123 71be 52ab 623d
000003e0: 6b8d 69bf daf2 3e3f c893 df3e cda4 c2bf
000003f0: 52fb d6be b1d0 02c0 c445 173e 0968 29bf

attention_layer.value.weight f4 [16, 16]
0.024992222 0.11239369 0.077140406 -0.21615243 -0.19947353 0.23376507 -0.41275266 0.12710586
-0.18032633 -0.47311318 -1.4395627 0.8903758 0.2478004 0.7511614 -0.27222782 -0.7788206
-0.11808775 0.0488291 0.16439027 -0.0004413194 -0.5835491 0.057118382 1.0793017 0.722157
-0.75869066 -0.36110872 0.5840234 0.7567608 -0.056785163 -0.18108974 -1.0473893 -0.2086393
0.09493082 0.14561617 0.26002786 0.18552624 1.1249558 -0.02253188 -0.22565359 -0.19895141
-0.18685918 0.09166561 1.5439426 -0.15441318 -0.7856302 0.17572054 -0.24422057 -1.0382912
0.015530136 0.09045554 -0.1483138 0.001709115 0.53429663 0.016382167 -0.7152125 0.70595956
-0.08396912 0.11844688 -1.1814522 -0.5670686 -1.4921218 0.106669575 -0.07061413 -0.056629106
-0.109146245 0.07720884 0.12395637 -0.053089995 -0.62696904 -0.19491772 -0.1354964 0.08357012
0.32533544 -0.30505082 -1.1570196 1.1026546 -0.23178667 -0.16732837 0.120810255 -0.053289246
0.028418466 0.061719436 0.10486078 -0.008477129 0.13339077 0.66977704 -0.046683513 0.009540141
0.16198665 0.3794071 2.5933425 -0.8208807 0.75180393 -0.49581775 0.8296781 -0.9042917
0.01590612 -0.11484368 -0.52503294 -0.9022088 0.31688026 -0.22938056 0.44849104 0.28242898
0.32135287 0.22667372 -0.36572346 0.20101048 0.109711595 0.54709387 0.49011248 0.32889295
-0.19515577 0.2984159 -0.0049934806 0.2599151 0.22961332 -0.931252 -0.5127557 -0.0050440463
0.42817876 -0.5271814 -0.57014096 -0.25911388 0.09569649 -0.08823122 2.5584369 -0.1854559
0.08841606 0.105109595 0.6293891 -0.5417849 -0.2066741 -0.026577285 -0.5974286 -0.28646043
1.3491313 -0.25702795 -1.2782103 0.42787412 -0.7124951 0.035067286 0.6932233 -0.010120212
0.08559767 0.090422496 1.0435878 0.20199978 -0.08305966 -1.0976675 0.5390479 -0.035140824
0.33806202 0.7010091 -0.22773558 0.42854548 -0.3104007 -0.08609702 0.7527321 -0.39726093
-0.033729687 -0.0069947494 0.004028904 0.018474007 -0.29098436 -1.2050989 -0.5539744 -0.23765889
-1.7960514 -0.03666529 -0.4527556 -0.12634973 0.014527572 1.3182299 1.6271656 0.98673123
-0.12784189 0.05702687 0.057439335 0.35360014 -0.067085356 -0.52321273 0.6113987 1.7751936
1.3853067 -0.8422453 -0.6497933 -0.59872025 1.0032243 -1.1098294 1.891641 -0.43112868
0.035787344 -0.039717626 0.31820655 0.20808204 1.0728601 -0.447799 -1.0165882 0.013273748
0.2236562 0.1647281 0.15352042 -0.03695248 -2.084485 0.31774223 0.4450427 -0.36096838
0.047305256 -0.11930379 0.45794624 -0.004601136 -0.04288714 -0.5511629 0.9692681 -0.88048023
-0.92896533 0.49117061 1.8908471 0.8722626 0.13289417 0.3590561 1.3500857 -0.25339037
0.14993188 -0.0084388815 -0.77463156 -0.04575936 -0.08030797 1.3921824 0.16687264 -0.15838897
-0.99831384 -0.10591123 1.270833 -0.28334317 0.80719435 0.13578717 0.27454314 -0.5697167
-0.007538298 -0.12089783 0.038116205 -0.18737459 -0.050753385 -0.16404368 0.49106094 0.09268373
0.038119607 -0.33536255 0.47498688 0.2905101 0.9866654 -0.40989968 0.83379394 -0.49444532
00000000: 7dbc cc3c aa2e e63d cafb 9d3d 1057 5dbe
00000010: ca42 4cbe 1c60 6f3e 5154 d3be 0a28 023e
00000020: 77a7 38be e43b f2be 9743 b8bf abef 633f
00000030: 63bf 7d3e 1d4c 403f 7261 8bbe c960 47bf
00000040: fed7 f1bd 0601 483d ec55 283e e360 e7b9
00000050: 7963 15bf f7f4 693d 8f26 8a3f 48df 383f
00000060: 8d39 42bf 3ee3 b8be 8f82 153f 13bb 413f
00000070: 8f97 68bd 976f 39be da10 86bf 8aa5 55be
00000080: 176b c23d 681c 153e 5f22 853e 97fa 3d3e
00000090: 8dfe 8f3f c794 b8bc bc11 67be ebb9 4bbe
000000a0: 0358 3fbe 2ebb bb3d e99f c53f 7d1e 1ebe
000000b0: 101f 49bf 16f0 333e f514 7abe bae6 84bf
000000c0: 1d72 7e3c c140 b93d 93df 17be 6204 e03a
000000d0: aac7 083f e533 863c 2b18 37bf c4b9 343f
000000e0: 01f8 abbd 4794 f23d d339 97bf 682b 11bf
000000f0: d9fd bebf 9475 da3d 249e 90bd ecf3 67bd
00000100: 1188 dfbd ab1f 9e3d d6dc fd3d e574 59bd
00000110: 0b81 20bf 8398 47be 91bf 0abe d026 ab3d
00000120: 5e92 a63e 9f2f 9cbe 3819 94bf c923 8d3f
00000130: 7c59 6dbe 2158 2bbe 5e6b f73d d345 5abd
00000140: d8cd e83c 85cd 7c3d 40c1 d63d a8e3 0abc
00000150: 9797 083e 8276 2b3f 3637 3fbd 404e 1c3c
00000160: d4df 253e a641 c23e 53f9 2540 3d25 52bf
00000170: 3976 403f d3db fdbe c965 543f a97f 67bf
00000180: 8d4d 823c 2a33 ebbd 8f68 06bf 28f7 66bf
00000190: 213e a23e bde2 6abe 9ea0 e53e 889a 903e
000001a0: 5d88 a43e 281d 683e 1b40 bbbe b1d5 4d3e
000001b0: 79b0 e03d 580e 0c3f 06f0 fa3e a864 a83e
000001c0: ead6 47be f8c9 983e 5aa0 a3bb 9813 853e
000001d0: c11f 6b3e 8866 6ebf f543 03bf 8748 a5bb
000001e0: 3f3a db3e 5cf5 06bf c2f4 11bf 93aa 84be
000001f0: 85fc c33d 92b2 b4bd 6ebd 2340 27e8 3dbe
00000200: 7b13 b53d b343 d73d a51f 213f 6ab2 0abf
00000210: 60a2 53be 9bb8 d9bc 15f1 18bf f1aa 92be
00000220: 56b0 ac3f 2b99 83be 659c a3bf 5112 db3e
00000230: 1466 36bf b7a2 0f3d 1577 313f 3fcf 25bc
00000240: d54d af3d 6e2f b93d 4994 853f 08d9 4e3e
00000250: 2f1b aabd 5e80 8cbf 0bff 093f d3ef 0fbd
00000260: 7716 ad3e 5575 333f 8433 69be 506a db3e
00000270: d7ec 9ebe a253 b0bd 0db3 403f c965 cbbe
00000280: 2428 0abd 3634 e5bb e504 843b cd56 973c
00000290: e7fb 94be ae40 9abf 44d1 0dbf da5c 73be
000002a0: 03e5 e5bf 582e 16bd 95cf e7be d361 01be
000002b0: 0e05 6e3c c2bb a83f f646 d03f 6b9a 7c3f
000002c0: fce8 02be 0295 693d 8245 6b3d 140b b53e
000002d0: 0c64 89bd 45f1 05bf a084 1c3f 8b39 e33f
000002e0: bb51 b13f 639d 57bf db58 26bf bb45 19bf
000002f0: a769 803f e40e 8ebf 4b21 f23f e6bc dcbe
00000300: c095 123d f3ae 22bd f8eb a23e 7513 553e
00000310: 7b53 893f e945 e5be 901f 82bf 227a 593c
00000320: 2206 653e 7cae 283e 7534 1d3e 7c5b 17bd
00000330: 3468 05c0 1caf a23e a3dc e33e d9d0 b8be
00000340: 28c3 413d 8c55 f4bd ee77 ea3e 20c5 96bb
00000350: 6daa 2fbd 0319 0dbf f421 783f 2767 61bf
00000360: acd0 6dbf b77a fb3e 4707 f23f 9a4c 5f3f
00000370: 6915 083e 33d6 b73e 9ccf ac3f 62bc 81be
00000380: be87 193e 3c43 0abc 414e 46bf 2b6e 3bbd
00000390: 8178 a4bd 0833 b23f a9e0 2a3e b830 22be
000003a0: 7f91 7fbf fde7 d8bd a8aa a23f 5b12 91be
000003b0: 4aa4 4e3f cb0b 0b3e eb90 8c3e f4d8 11bf
000003c0: d403 f7bb 4899 f7bd bd1f 1c3d 20df 3fbe
000003d0: c8e2 4fbd 11fb 27be 576c fb3e f8d0 bd3d
000003e0: 4e23 1c3d a4b4 abbe 7b31 f33e bdbd 943e
000003f0: 1b96 7c3f 5fde d1be 8573 553f f027 fdbe
